examples/emulator-training/scripts/saved_model/bigru_gru_16_nocoldry_levoutput_FINAL_2.onnx (onnx, 47819 bytes, 16 tensors)

StatefulPartitionedCall/model_1/dense_surface/MatMul/ReadVariableOp:0 f4 [17, 16]
00000000: c60a a5bd 0a05 e1bd 4f48 65be 02e4 cd3d
00000010: 36ac a03e 0236 34bf 3af6 c9be 2c43 cc3c
00000020: 5345 0ebe 0e74 4c3f b30b 97be 7b38 e8be
00000030: 2187 dfbe 7d43 b3be 8327 04be 4fe1 9dbe
00000040: 44e2 213e ef22 4e3d 050c fe3e d5d8 5c3f
00000050: 58af 0cbd 1012 9dbe 2af0 bc3d 1b9c b03e
00000060: 75e9 3bbe 18c9 12bd 8760 1b3f a0a3 c1be
00000070: 2a25 893e 8967 24be a665 0c3f 11e2 1ebe
00000080: 5be3 aabe 1f27 8a3e bd46 8dbe 38a5 213e
00000090: 34f4 aa3d de54 afbd 0248 1dbf 0117 bfbd
000000a0: d82a e4bd b55d 11bf f719 dc3e 3faf d2be
000000b0: 7f92 cb3e cc4a 0a3e 6fcf fabe 568a 25bc
000000c0: 42e6 b6be 2e1b 1fbd 0144 6a3e fc3e cebe
000000d0: 953a 60be 6869 49be 1e69 9abe af20 ce3e
000000e0: b5d9 e33d bd93 bebe 8e83 d43e e526 f03e
000000f0: 3b3a c83e 6c72 77bd fe41 2bbe 4cb5 5c3e
00000100: 8452 793e b96e a63d 6bb2 033f 2e00 dd3d
00000110: 3f2b 9c3e 8d1c 5c3e 0472 cd3e 407b 073d
00000120: 1668 acbe eb53 cb3e 50b1 dc3e 6efd 0abd
00000130: 89cb c03d 8504 05be dc8a a33d 4f4e b43d
00000140: 3921 763f d57b 103f 9cd4 c43e 0b0b fcbe
00000150: 0aa9 1ebe 39e2 e03d 4a72 fb3e e915 7d3d
00000160: 27b3 903e 218c 2e3f 4246 7ebe 2d26 b1be
00000170: 3e1e e23e 81d5 8f3e 2b13 90be 9daa 113f
00000180: 607c 51be bd68 efbc d7b5 87be 8b98 093f
00000190: 9b5e 693e 0aaa d7be 1d1b 013f 44be 5c3d
000001a0: 1b14 c73e 5b5d c43e 8b94 473d 9d35 dabe
000001b0: 8a1a e13e 518a a1be 867d dd3e 8e2c 1ebe
000001c0: dc43 f73e 992b 653f 8bf2 973c 7d00 5dbf
000001d0: fb15 eb3e fe20 c23e 5696 9fbe 86e0 78be
000001e0: 97aa cc3e 734f bd3f a0b9 03bf abfc 32be
000001f0: 6c80 d33e 82bb 303e 7f17 62bf 714f a7be
00000200: 48c6 09bf ab98 833e bcf6 ea3d 93af 96be
00000210: ca89 b4bc bb26 e1be 0977 bebc 72f3 eb3c
00000220: 6f19 a63e cd7f 883e f11b 9abd e93c 81bd
00000230: b00b 0b3f 0d56 873f fcbf 92be e8cd dd3e
00000240: 5711 203f f25c 6c3e 1626 c63e 724f d33e
00000250: 4068 3abc 984b 16bf 2eef 253f 7331 993e
00000260: 0e90 b9bc f077 d03e ac84 083e 4357 ddbe
00000270: 3289 06be 533a 323e 03d4 343e 8370 ddbe
00000280: 8819 ea3e 61b4 a1be 1951 99be d126 da3e
00000290: 502d 2e3e 60f9 aebe 7a43 053f 0349 c63e
000002a0: 3648 0e3e 6ab2 153f 000d c5be 902f 513d
000002b0: 301d da3d 0ff4 b13e 6205 343f 7335 4d3e
000002c0: 761e c43e ed6c 88bd ac5a 863e 4bd1 02bd
000002d0: 0894 8d3e 7506 743e 6057 043f 46ef 90be
000002e0: 4953 1b3f fea7 df3e 65e1 c13d 707a 1d3d
000002f0: 5bcc c6bd 8c5f e33b 252c b73e b820 003e
00000300: 6e0d 21bf ce35 60be 75c6 853e 495e 913e
00000310: b108 a03e 577e 1fbe a9cc c6be f181 433e
00000320: 79ba 633e dbb3 d43e 660b 283e 3119 353e
00000330: 079e 42be 03f7 ce3e ea94 97be cd9e fbbe
00000340: 550d 3abf dcec 8ebe 45a5 393d e9b4 4ebf
00000350: 9f15 90be ba0f 48bf 3bae 823d d48f 213f
00000360: 62bb bebe 66a8 74bf bb58 183f 6449 e53d
00000370: 7f51 e9bd 2f66 12be ab0b aebe 869c bb3c
00000380: 4bd2 da3d 72b1 5d3e c812 e2be d295 fc3e
00000390: c04f 4c3e 2047 233e 4802 4c3f 60bf 093e
000003a0: ef0b 3bbe 507f 14bf 13a4 e6be 1df2 8c3e
000003b0: 0526 c3be a457 213d 50e8 703f 87f9 7c3e
000003c0: 36b4 b2bc 2e68 ba3e 2856 273e 4fcc f5be
000003d0: c1a8 cb3e 656d 33be 71c6 353e ef71 623c
000003e0: 4acc c9bd c2b7 f1be 92c7 b83e ac34 093e
000003f0: 9c15 6fbe 5456 9b3e e277 07be 7895 833d
-0.080586955 -0.10987289 -0.22390865 0.10053255 0.31381387 -0.7039491 -0.39445668 0.024934374
-0.13893633 0.79864585 -0.29501113 -0.4535559 -0.43657783 -0.35012427 -0.12905698 -0.3083596
0.1580897 0.050326284 0.49618545 0.8626836 -0.03434691 -0.30677843 0.09225495 0.344941
-0.18350776 -0.03583631 0.60694164 -0.37820148 0.26786166 -0.1605512 0.54842603 -0.15515925
-0.33376583 0.26982972 -0.27593032 0.15785682 0.08347359 -0.08561109 -0.61438 -0.093305595
-0.11140984 -0.5678361 0.4298856 -0.41149327 0.39760205 0.13505095 -0.48986384 -0.010103783
-0.35722548 -0.03884428 0.22877504 -0.40282428 -0.21897347 -0.19669116 -0.30158323 0.4025931
0.11125509 -0.3722209 0.41506618 0.46904674 0.39106926 -0.060411856 -0.16724393 0.21553534
0.24347883 0.081265874 0.5144412 0.1079105 0.30501744 0.21495266 0.4012605 0.033076525
-0.3367316 0.39712462 0.4310403 -0.033933096 0.09413821 -0.12990005 0.0798547 0.08803999
0.96144444 0.5643895 0.38443458 -0.49227175 -0.15494171 0.109806485 0.49110633 0.061788473
0.28261682 0.6818257 -0.24831489 -0.34599438 0.44163698 0.28092578 -0.28139624 0.5690096
-0.20457602 -0.029224748 -0.2650592 0.5374839 0.22789995 -0.42121917 0.50431997 0.05389239
0.38882527 0.38352475 0.048725646 -0.4261903 0.4396556 -0.3155084 0.4325983 -0.15446684
0.4829396 0.8951965 0.01854827 -0.8632887 0.45915207 0.37915796 -0.31169385 -0.24304399
0.399739 1.4789871 -0.51455116 -0.17479198 0.41308916 0.17259029 -0.883171 -0.32677796
-0.5381818 0.25702414 0.11472842 -0.29430827 -0.02203836 -0.43974862 -0.02325012 0.028802607
0.3244128 0.26660004 -0.07524861 -0.06310446 0.5431471 1.0573136 -0.28662097 0.43321157
0.6252646 0.23082331 0.38700932 0.4127155 -0.011377394 -0.58709097 0.64818084 0.2992054
-0.022651698 0.40716505 0.1333186 -0.43230638 -0.13138273 0.17405061 0.17659001 -0.43249902
0.45722604 -0.3158293 -0.29944685 0.4260774 0.17009473 -0.34174633 0.52056086 0.3872758
0.13894734 0.58475363 -0.3848648 0.05107075 0.10650098 0.34756514 0.70320714 0.2003992
0.3830449 -0.06661401 0.26241052 -0.03193788 0.27652 0.23830588 0.51695824 -0.2830755
0.6067396 0.43682855 0.09466819 0.038446844 -0.097069465 0.0069388803 0.35775867 0.12512481
-0.6291112 -0.21895525 0.26127973 0.28392246 0.3125663 -0.15575539 -0.38828018 0.19092537
0.22239102 0.4154347 0.16410598 0.17685391 -0.19005595 0.4042283 -0.296058 -0.49144593
-0.72676593 -0.27915084 0.04532363 -0.80744797 -0.28141496 -0.78148997 0.06380888 0.6311009
-0.37252337 -0.95569456 0.5951039 0.11195639 -0.11392497 -0.14296792 -0.33993277 0.022901785
0.106846415 0.21649721 -0.44154954 0.49333054 0.19952297 0.15945101 0.7969098 0.1345191
-0.18266271 -0.58006763 -0.45047054 0.27528468 -0.38114944 0.03939022 0.9410448 0.24704562
-0.021814447 0.36407608 0.1634146 -0.48007438 0.39777187 -0.175222 0.1775148 0.013821109
-0.09853418 -0.4721051 0.3608976 0.13398999 -0.23348087 0.303393 -0.13229325 0.06424993

StatefulPartitionedCall/model_1/dense_surface/BiasAdd/ReadVariableOp:0 f4 [16]
00000000: 89bc 803e 403b 22bc 0d8e 063d 5777 713e
00000010: ba98 f3bc 6195 b43c 3528 323e de62 35bb
00000020: b6a1 543e 4739 583e 3ec3 bdbd b929 05be
00000030: 917d 143c 4a2d 5abd bcab db3d 360d 0b3e
0.2514384 -0.009901822 0.032850314 0.23580681 -0.029735912 0.022043886 0.1739815 -0.0027677338
0.20764813 0.211156 -0.09265755 -0.13004197 0.0090631405 -0.053265847 0.10726115 0.13579258

StatefulPartitionedCall/model_1/dense_output/dense/MatMul/ReadVariableOp:0 f4 [16, 2]
00000000: 0b0f 063d 7d3b 423e d6ec 29bf a84b 8bbf
00000010: 7edf af3e f3bb 2e3f 77e7 96bf 137d a6bd
00000020: 4932 6c3d 853a 36bf c93e 3f3f eeff 6ebe
00000030: 4cb1 50be 390a 76bf 7a61 15bf 3630 44bf
00000040: 860a c13b 9d01 033d 0489 96bf d8a1 553e
00000050: 605c 323f 75f1 2bbf 1f6a ffbf 2938 0f3c
00000060: 88d1 5ebc 090d 903f 40d9 983e b1f8 f3be
00000070: 6a19 21bf 80f9 70bf cb97 62be 37a1 9bbe
0.03272919 0.18968005 -0.6637701 -1.0882463 0.34350199 0.6825554 -1.1789387 -0.08129325
0.057665143 -0.71183044 0.7470518 -0.23339817 -0.20380133 -0.9610935 -0.5835186 -0.76636064
0.005891147 0.03198396 -1.1760564 0.2086252 0.69672203 -0.6716531 -1.995426 0.008741417
-0.013599761 1.1253978 0.2985325 -0.47650674 -0.62929404 -0.94130707 -0.22128217 -0.30396435

StatefulPartitionedCall/model_1/dense_output/dense/BiasAdd/ReadVariableOp:0 f4 [2]
00000000: e2af e83e aaa2 1abe
0.45446688 -0.15101114

Func/StatefulPartitionedCall/model_1/gru_2/PartitionedCall/input/_38:0 f4 [16, 48]
00000000: 84ec c23e 741d 503f b56e 0d3f 626d a63f
00000010: 2d58 ce3e 5272 7ebc 25eb ad3e dcef 0e3f
00000020: efb6 3abd f2b4 68bb 00be 223f c3ca e43c
00000030: f7ea d33e f0d6 b93e 0c10 aa3e b696 9b3e
00000040: bb47 a53e 20a9 f6bd 8f9c febd 8ead 8cbd
00000050: 58b7 e23e 5607 d43e c360 873e cdbf 43bf
00000060: 6618 c6be c819 00bf 20ab 9ebe 7e01 1e3f
00000070: 526f 3dbf 39f3 ad3c 0743 ae3f da89 fdbd
00000080: d1f9 a53d 0764 96be 4b6c 2bbe 6681 dcbe
00000090: c0ef 503e df89 9bbe dd07 b6be 9268 88bd
000000a0: ee9a 6bbf 5e82 323e 54c6 243e 18d4 0cbe
000000b0: 85fc cf3f 6c29 803e 7ce0 c1bb 3a09 00be
000000c0: 6f69 0dbf 790e 88be 2501 31bd cfac 953e
000000d0: 47b0 3bbf 41b0 2dbe 5067 253d 176f 0ebe
000000e0: 7905 a73e ee99 bb3c 6c1b 7cbe 18da d53e
000000f0: d17c fdbe cad9 ef3c e636 8abe 9d6b 9abe
00000100: 8ad5 6b3e 2dd9 66bd a145 b1bd e539 583e
00000110: 1036 87bd 9087 6e3f c2c3 f13e c436 62bf
00000120: bcaf ee3e 1797 793e f374 5b3f 40cf d13e
00000130: 8c16 043f e392 cfbe 2ae6 a9be adda abbb
00000140: 5afd 8dbd 4c47 3cbe 379a 6a3b 6c4d 85be
00000150: 842f ce3e a708 34be 9925 b33e e4a3 083f
00000160: ea92 a0bd 381f 8bbe 2ca6 193e 393f 5b3e
00000170: 3c7f 4fbe a74c 82be 0e18 15be 17e3 4b3e
00000180: 7454 263f 3df8 c33e 78bd 743f 9774 3ebe
00000190: 3c62 8ebe 110b 3c3e 36f9 a13e e5d3 103f
000001a0: 6cf8 7c3f a108 573e 919d 1b3f 6c2c d2be
000001b0: 31f0 fd3e f019 bcbe d9ed 0fbd 7f0d db3e
000001c0: e6d2 293d 5d41 ff3e 2665 f6bd 6afc 5ebe
000001d0: 6224 e33d 0f6b cf3e f3c9 17be 56a7 343e
000001e0: 942f 323e 41b1 abbe e903 ab3f 9521 17be
000001f0: 7e94 86bf 8c37 c43e fce3 d63e ce30 8dbd
00000200: a0b8 9d3e a99e 953e aabd 723e 2c27 a5be
00000210: d2b4 d0bd 6483 673f f1e5 91be cb58 fc3e
00000220: fbd6 b2be 0ec8 083e f64b 193d f710 8f3e
00000230: 6ed7 4c3e 028f efbc 5e17 87bd 44c1 d0bd
00000240: 3e87 00bf 8813 7fbe 67d7 08bf aa52 fbbc
00000250: 31c0 e9be 89c1 b6be 95a4 6dbe 6254 16bf
00000260: 183f b1bf 0301 cb3e 9761 0dbf f1ce c03f
00000270: 679c 8cbe 9d3c 2cbe 74f0 dcbe 9c5c b8be
00000280: 640e c33d 7d7d 423f 06bf c6bd 816c 6cbf
00000290: 4b75 83be 28a3 20bf 51b9 293e a893 e23e
000002a0: 2912 893e 1cbd 8dbd 7cfa 4cbe 567d dbbd
000002b0: 10d9 4abe 1ff0 86bd df13 163f 8e52 74be
000002c0: 0866 18be 23a7 26bf 8b97 88be 5152 50be
000002d0: 28f4 91be 3c89 0cbd e467 1b3f 5a05 03bf
000002e0: 6f42 813c 5bf4 1cbe d2af 60bd 7b6a 38be
000002f0: 6a2b b83e 2e49 29bc 1bd4 42bd 08dd 9bbe
00000300: c9ff 17be 20f6 543f b0e5 eb3d bef9 913f
00000310: 57f7 103e 9561 a43e fe43 683f e2a0 bd3d
00000320: 3941 913f 7ba6 c63e e92e 183f 8720 133f
00000330: 6eb4 583b dcf3 d83e 2fb4 8cbe 646b 4f3e
00000340: 2d48 073e 78c4 d8bd 84ac 8cbe 040d ce3d
00000350: f9b4 82be 9d78 7bbf 7ad8 a73d a278 a73d
00000360: 6d0f 8f3f ff45 97be 8f11 c2be ab8c 873f
00000370: 8f1c 503e 08c4 4ebe 3d53 23bc 0839 9bbd
00000380: 4610 41bd d2d1 153f 2777 213e 6b04 a53f
00000390: 254a aa3d b6ef a2bf 96b5 fc3b 1949 103f
000003a0: 75d4 1ebe d97b 9ebe 127d 943e 78d2 6b3e
000003b0: ec9d 02bd 232d 8d3d 33e9 91be 5e66 7a3d
000003c0: 2d8c 9d3e 2e20 943e 509a 2d3f 3276 28be
000003d0: 7e5b a93e 928b b13e 7d0d 7b3f d006 063e
000003e0: 162f fa3d 60f3 be3e 8f6f 043f 7db0 573e
000003f0: 2cba d53e b102 343f 2a35 0c3f 7894 783e
0.38071072 0.8129494 0.5524705 1.3002131 0.40301648 -0.015530186 0.33968464 0.55834746
-0.045584615 -0.0035508242 0.63571167 0.027928716 0.413902 0.36296797 0.33215368 0.3038842
0.32281289 -0.12043977 -0.12432205 -0.068690404 0.44280505 0.41411847 0.2644101 -0.7646454
-0.3869049 -0.5003934 -0.30989933 0.61721027 -0.73997986 0.021234142 1.3614205 -0.12379809
0.08104289 -0.2937319 -0.16740529 -0.43067473 0.20403957 -0.30378625 -0.35552874 -0.0666057
-0.9203328 0.17432544 0.16091281 -0.13752782 1.6248938 0.25031602 -0.005916653 -0.1250352
-0.55239004 -0.26573542 -0.043213982 0.29233405 -0.7331585 -0.16961767 0.04038173 -0.13909565
0.32621363 0.022900548 -0.24619836 0.41767955 -0.4950929 0.029278655 -0.2699501 -0.30160227
0.23030677 -0.05635946 -0.08655859 0.21115835 -0.066021085 0.931756 0.47219664 -0.88364816
0.4661845 0.24374042 0.85725325 0.40978432 0.51596904 -0.40541753 -0.33183414 -0.005244574
-0.069330886 -0.18386573 0.0035797486 -0.2603563 0.40270627 -0.17581426 0.34989622 0.5337508
-0.07840522 -0.27172256 0.15004796 0.21410836 -0.2026338 -0.25449106 -0.14559957 0.19910847
0.64972615 0.38275328 0.95601606 -0.18599163 -0.27809322 0.18363596 0.31635445 0.56573325
0.9881656 0.20999385 0.607873 -0.41049516 0.49597314 -0.3673854 -0.03513894 0.42783734
0.041460894 0.49854556 -0.12031011 -0.21775976 0.11090924 0.40511367 -0.14823131 0.17641959
0.17400962 -0.33533671 1.3360568 -0.14758904 -1.0514066 0.3832363 0.41970813 -0.068940744
0.3080492 0.2922261 0.23705164 -0.32256448 -0.10190739 0.9043486 -0.28495744 0.49286494
-0.34929642 0.13357565 0.037425958 0.2794263 0.20004055 -0.029242996 -0.06596254 -0.101931125
-0.50206363 -0.24909794 -0.5345368 -0.030679066 -0.45654443 -0.3569453 -0.23207314 -0.5872251
-1.384738 0.3964921 -0.55227035 1.5063154 -0.27463076 -0.16819997 -0.431522 -0.36008155
0.09524229 0.7597273 -0.097044036 -0.92353064 -0.25675425 -0.62748957 0.16574599 0.44253278
0.26771668 -0.069208354 -0.20017427 -0.10717265 -0.19809365 -0.06588768 0.5862407 -0.23859617
-0.14882672 -0.6509878 -0.26678118 -0.20343901 -0.2850659 -0.034310564 0.607054 -0.5118004
0.015778748 -0.15327589 -0.054855175 -0.18009369 0.35970622 -0.010332389 -0.04756556 -0.3044207
-0.14843668 0.83188057 0.11518419 1.140434 0.14156853 0.321057 0.9072875 0.092592016
1.1348029 0.3879889 0.5944658 0.5747151 0.003306653 0.4237355 -0.2748122 0.2025581
0.13211127 -0.105843484 -0.2747537 0.10061076 -0.25528696 -0.98230916 0.081955865 0.08177306
1.1176583 -0.2954559 -0.3790402 1.0589803 0.20323394 -0.20191967 -0.009968576 -0.07579237
-0.04713466 0.58523285 0.1576811 1.2891973 0.08314923 -1.2729404 0.0077120764 0.5636154
-0.15510733 -0.30953863 0.2900167 0.23029506 -0.031888887 0.06893375 -0.2849823 0.06113278
0.30771008 0.289308 0.6781359 -0.16451338 0.33077615 0.34676796 0.98067456 0.13088536
0.12216012 0.37295055 0.51732725 0.21063419 0.417436 0.70316607 0.5476862 0.24275386

Func/StatefulPartitionedCall/model_1/gru_2/PartitionedCall/input/_37:0 f4 [32, 48]
00000000: 7033 8a3e a3e7 833e 474e 653f 406e e13e
00000010: cbf1 763e 5692 703f 518e b33e e72d 543f
00000020: e5a7 8b3f d0f7 153f 3205 293f 7cb8 1c3f
00000030: 8bc4 ac3e 6922 8bbd 1941 553e 27f8 323f
00000040: 688d 80bf f6f9 963e 1b1c 033f b1f0 9fbf
00000050: 4a99 9e3f a1a3 a13d 8175 47bf 7dab 8bbf
00000060: ccbf 03c0 0fc3 fcbe a160 1f3e 4eb5 56be
00000070: 36e5 7b3f 043a d33f ad06 a6be c6e3 32be
00000080: edab 513d 3df3 cfbd 8360 533e 708c 053f
00000090: 94f6 0bbf a43e fa3a 909e ff3d 2f78 ee3e
000000a0: 85a8 23bf f6cb 03bc 3241 9f3e 5488 ecbd
000000b0: 8e21 80be f614 60be 4c8c c73e 2bac b6be
000000c0: 441b 3bbd 9e86 73bd 9f74 6e3e 46d8 533e
000000d0: f56e df3e e03d bbbe 0400 e3be 1ec1 2c3d
000000e0: ca4f d2bd 3e7b 85bc 3855 833d 107f aabe
000000f0: 31cb b0bc 5ecb cd3c 7781 9f3e 9ebe 99be
00000100: c640 96be ec8f 74be 63ad 93be df3a 48be
00000110: 5371 1f3e d3d4 733d d0bf 3d3e da81 4fbf
00000120: b68a 47bf c904 b0be 63ae a33e 0a78 813c
00000130: 16dd 6c3d 8d55 35be 72e3 3e3d 0ce7 00be
00000140: af2e adbc 1ff6 91bd 543f ddbd 4316 26be
00000150: 2253 1abd 40b7 e23e 6097 983e 693a 773e
00000160: e8b0 c6bc 0286 dbbe 1082 ca3e 841e fb3d
00000170: b87e 49be ff65 b33e 7299 1bbe 6c06 103e
00000180: e294 623e 5ca1 a83f 5bfd 653e c449 2fbe
00000190: 8f0c 043d b190 093f 5939 ae3d 3e5d 143f
000001a0: b7f7 873f 3064 9b3f 7127 a0bf 1c68 6f3f
000001b0: 44e9 f13e 36e6 ed3b d198 3e3f f0a5 a93e
000001c0: 24dd 093d 8088 3ebd ad9e cebd 47db 3a3e
000001d0: 1eff 213f e0fc a1bd ee27 debe 8409 8c3f
000001e0: 1cea 44bc 3c71 65bf 2a7c 883e 2c9c 19be
000001f0: 0c31 aebe be31 45bf 04d0 c33d 6d15 11bd
00000200: d26a 1ebe adc6 b4be 9feb e8be 6720 c63d
00000210: 5f81 65bd 335f c3be 7204 213f 5d44 f7be
00000220: 10f9 ca3e 63ee 7fbe fddc 353e 3ced 16bf
00000230: a4aa c0be befe f9be 29a4 70be 3a32 8ebc
00000240: d8f9 3d3e 28b8 1b3f 0bf1 7dbd d3ea 043f
00000250: 2a40 a33e 49f0 773e c9bf ef3d e5b5 80be
00000260: f8a2 b53e ce78 913e 8945 b0be 9a9a 11bf
00000270: 2f99 c83e 1e5c b3be e4f3 793d 662a bc3f
00000280: 3edb 9e3e cafc 3ebd 7f71 66be e7e6 52bf
00000290: ca7f 97be 6ecd ebbe 7e40 06bb 3edc 0e3e
000002a0: 9027 6fbe 6248 abbd 78db d63e 4049 563f
000002b0: 771e f7bd 8260 53be 20cf 6b3e 4b12 3bbe
000002c0: 4b9c 8abe 0637 15be 8d7a 223e 3725 5dbe
000002d0: 0546 143d 15b1 a0be 3437 323d cb39 f3bd
000002e0: 0813 1f3d c430 8d3e f739 d23d db03 49be
000002f0: bf3c 7abe 6133 82be f97b 60be 0fdd 5fbb
00000300: e829 46bd 5ce0 05bf 8d9a a63d b5ee 783e
00000310: bd34 12be 761d abbe a437 c03b a06c 89bf
00000320: 7965 1fbf 7080 dc3d de6a 9bbe dba2 bb3c
00000330: d981 fbbd a008 65be 7b00 34bd d723 c1be
00000340: 1639 55bd 8994 e6bd 76fc abbe 41dd adbe
00000350: 41ff f03e d042 34bf f80a 1e3e 2824 903f
00000360: e265 aa3f 3e91 793e d2be 94bd b897 623f
00000370: e986 db3e 9e9a 01be 0e3b 2e3e e682 6bbf
00000380: 3fb3 40be a96c b7bd ad87 2bbe 7426 4cbe
00000390: 5de8 1f3f 2408 883d d962 643e b7f3 58be
000003a0: b058 d9bd 5fbb 823e f96d a9bd 2c86 363e
000003b0: a0e2 94bd abdf d83e ac8b 8a3d 73ae 1c3e
000003c0: 42d8 413f ce24 b3be b8b2 6ebe cf3c eb3e
000003d0: 55fb ec3e c910 bc3b cd14 91be 1c36 27bd
000003e0: ec77 69c0 d2db 19bf 1af2 1d3f d42d ea3e
000003f0: 2bf2 0dbf 2119 8e3e 665d 98bf e97d aebe
0.2699237 0.25762662 0.89572567 0.44029427 0.24115674 0.9397329 0.35069516 0.8288254
1.0910612 0.58581257 0.6602355 0.61219 0.337437 -0.067936726 0.20825614 0.699099
-1.0043154 0.2948758 0.5121476 -1.2495328 1.239053 0.07892538 -0.7791367 -1.0911709
-2.0585814 -0.49367568 0.15564205 -0.209676 0.98396623 1.650208 -0.32426968 -0.17469701
0.05118935 -0.10153816 0.20642285 0.52167416 -0.54673123 0.0019092155 0.12481415 0.46576068
-0.63929015 -0.008044234 0.31104428 -0.1154944 -0.250256 -0.21882996 0.38974226 -0.3567823
-0.0456803 -0.059454553 0.23286675 0.2068797 0.4363934 -0.36570644 -0.4433595 0.04217636
-0.10269125 -0.016294118 0.064127386 -0.33300066 -0.021581264 0.025121387 0.3115346 -0.30028242
-0.29346293 -0.23883027 -0.2884322 -0.19553708 0.15570574 0.059529137 0.18530202 -0.8105751
-0.7794603 -0.3437865 0.31968984 0.01580431 0.05782803 -0.17708416 0.046603628 -0.12588137
-0.021140425 -0.07127022 -0.108030945 -0.1621943 -0.037676938 0.44280434 0.2980299 0.24143375
-0.024254277 -0.42875677 0.39552355 0.1226168 -0.19677246 0.35038754 -0.15195253 0.1406495
0.22127107 1.3174243 0.22459929 -0.17117983 0.03223854 0.53736407 0.08507032 0.57954776
1.0622472 1.213995 -1.2512037 0.93518233 0.4724828 0.0072601093 0.7445193 0.33134413
0.03365816 -0.046516895 -0.10088859 0.1824771 0.632799 -0.0790956 -0.4338984 1.0940404
-0.012018707 -0.89625907 0.2665723 -0.15000981 -0.34021795 -0.77029026 0.0956116 -0.035420824
-0.15470436 -0.35307828 -0.45492265 0.09674149 -0.05603158 -0.3815857 0.6289741 -0.48294345
0.39643145 -0.24993281 0.17760082 -0.5895574 -0.37630188 -0.48827165 -0.23500122 -0.017357934
0.18552339 0.60827875 -0.061997455 0.51920813 0.3188489 0.24212755 0.11706502 -0.25138775
0.35475898 0.2841248 -0.3442805 -0.5687653 0.3917937 -0.35031217 0.061023608 1.4700439
0.31026644 -0.046627797 -0.22504233 -0.8238358 -0.29589683 -0.46055168 -0.0020485218 0.13951203
-0.23354936 -0.08363415 0.41964316 0.8370552 -0.120663576 -0.20642284 0.2302823 -0.18268697
-0.27072367 -0.14571771 0.15867062 -0.21596228 0.03619959 -0.31385103 0.043509677 -0.118762575
0.03883651 0.27576268 0.10264962 -0.19630377 -0.24437235 -0.25429824 -0.21922292 -0.003415886
-0.04837981 -0.5229547 0.08134947 0.2430981 -0.1427793 -0.33420914 0.005866008 -1.0736275
-0.6226421 0.10766685 -0.3035497 0.022904804 -0.12280626 -0.22366571 -0.04394577 -0.37722656
-0.052056395 -0.112587996 -0.3359105 -0.33957866 0.47069743 -0.7041445 0.15433872 1.1261034
1.3312342 0.24371812 -0.072629586 0.88512754 0.42876366 -0.12656638 0.17014715 -0.9199661
-0.18818377 -0.08956272 -0.16750975 -0.19936544 0.62463933 0.06642178 0.22303332 -0.2118672
-0.10612619 0.25533578 -0.08272929 0.1782462 -0.07269788 0.42358145 0.067649215 0.15300922
0.7572061 -0.34989017 -0.23310363 0.4594483 0.462855 0.0057393056 -0.28336182 -0.040823087
-3.6479445 -0.60101044 0.6169754 0.4573809 -0.55447644 0.27753547 -1.1903503 -0.34080437

Func/StatefulPartitionedCall/model_1/gru_1/PartitionedCall/input/_29:0 f4 [16, 48]
00000000: 9b3a 903f a8bc 86be e74b 60be 1908 35bd
00000010: 91d7 d6be 61bc 2ebe 2d26 8bbd 78e5 05bf
00000020: 9d2d 2cbf aa04 f9be 34d4 d5be 3ed5 7d3d
00000030: 06c0 06bf 2f55 34be 6ff0 93be 9fff 62bd
00000040: 7408 55be aa98 32be 0b93 0b3f 561e aebe
00000050: 9579 96bc b9a7 d8be 8fcd c63c ec92 edbe
00000060: d8c7 8e3d 78d4 8e3d e93e b33d 12bb 0d3c
00000070: 4dbf a2be a278 c1be 0da9 09be bbd8 f6bd
00000080: 9e9a 8d3f 2c10 f13e 9324 683e 8dd4 f33d
00000090: 058e 2a3e 4ba6 b1be 5d01 8ebe c1b6 383c
000000a0: 3404 8cbe e2c8 773d 0b61 9d3e 0227 a8be
000000b0: 977e d03d 1847 47be 7efe c73e 354c 963e
000000c0: 44d9 633d 64b6 d9be c5e4 333d 5ee8 45be
000000d0: c441 33bf 5105 a9be 0ad4 1a3e 5a6c 203e
000000e0: 11ed 7ebf b252 c0be 92a3 27bf 0ea2 83bf
000000f0: 18a2 963e 2f85 483d 3ca6 473e ffd9 92be
00000100: c731 acbe f3a1 78be 15cc a13e f19f 65be
00000110: 2ecb 883e eb8a 92bc ec25 5ebe 5e74 dcbe
00000120: 5d76 fdbd 6496 a4bc ad88 c6be f70b df3d
00000130: d739 ee3e d56e 9cbd 6f9b afbd c837 d3be
00000140: 1085 013e 2b10 553e c8a7 4a3e 9066 4fbe
00000150: 54db 063e 813d f5bd ed63 003d e19b 243e
00000160: f55b 44bd be76 d73d fe70 90be 0c1e 37be
00000170: 3ac4 adbd 4197 56be 0ff2 f8bd 0f92 47be
00000180: 7668 633e 6fd9 afbd 938b ccbc 6742 4e3e
00000190: 0f79 1abf 9f56 1fbe 6376 033f b432 8bbf
000001a0: 8639 6d3f b901 9fbd 1bfc ee3e 3f5e a73f
000001b0: 66e3 17bf f4dc 6dbd 1d18 233e 9332 8a3d
000001c0: 99aa 4a3e f059 433e 3659 e0be 42e0 66be
000001d0: bdf9 633e 22aa 04bf 6e81 b6bc 51a6 903e
000001e0: 3462 cb3e c913 06be a82a 393d 14c6 27be
000001f0: 47b2 cc3e 6936 07bf 8c42 12be 36ee 163e
00000200: dac2 343f 7e9f 87be a9a6 06be 286e e43e
00000210: a75d 57be 5e68 9c3e 1d77 24be 8523 3bbe
00000220: 0c7a a93e ccab 6b3c 30d4 543e 898c 70be
00000230: 5d84 9c3c 4952 d63c 5813 b43e 5019 5e3e
00000240: 3c4e 22bd 3c6f bcbe 0178 be3d 784c bd3d
00000250: 4ccb a4be de18 bbbe 0d73 1cbf 965d e3be
00000260: 14d6 53bf 22e0 4ebf 3197 b63b f4ac 753e
00000270: a93b d2be b621 dbbd 35e3 f5bc 3aad 3d3d
00000280: 419e ca3d 3603 1e3f bb67 bcbe 10fb 333f
00000290: c114 df3e 672e 313e 4954 923e f91b 19bf
000002a0: 92cb 283e 5cb0 253f 5857 7f3e 4422 e1bd
000002b0: eb17 68be 25de 9a3e 8aaa b83d f73e 3f3e
000002c0: 6ccc b93c df6b 9a3e 6383 95bc a596 ae3e
000002d0: 69d4 53be c4e8 6fbc 87fd 21bd 8a01 bd3c
000002e0: dfc2 723e 66da 1f3f 8511 47bd 06d3 843e
000002f0: 48ff bb3d a1ad 19bf dcb5 093e d5cf 9b3e
00000300: 0900 7e3e a0bd 03c0 e0e0 213f 3091 22bf
00000310: d712 3a3f 6638 06c0 3ccf d6be 4ddf c43f
00000320: 482e 4fbf 3e7e 443e 0ff4 6e3f 1ab0 dbbc
00000330: a8e5 edbe 1bce e33d fe9e 89be d35b 483f
00000340: c888 15be bf60 81bf 563f 0ebf a352 433f
00000350: 2e12 bfbe f39b 94bf 8d0a bbbe c21d 26bc
00000360: fc5f 3abf fadd 8abf eadf 263f c99d 2b3f
00000370: 74f2 2640 aa6d abbf d9f5 cebd d978 afbe
00000380: 0b3e db3d cbeb 493e 5cdd 01bf 80f5 f43e
00000390: 0a42 873e 95b9 29be 6d46 cf3d 0733 74be
000003a0: 8695 223c dfb6 ce3e 9ffb 51be fb4c ad3d
000003b0: ce40 d73e 7dd7 bd3e accf 3abe 2d7d 73bd
000003c0: e40c 9ebe 40fe c53f 223d 473e ae03 323f
000003d0: 5af4 b83b ca1e 82bf fe6a 28be 677c 65bf
000003e0: 0a24 d83f 5472 f83e 0a71 2c3f bf70 0740
000003f0: e824 6b3f df8f 023e 161d 35be 1fba 263e
1.1267885 -0.26315808 -0.21903954 -0.044197176 -0.4196134 -0.17064048 -0.06794391 -0.52303267
-0.672571 -0.4863637 -0.4176346 0.06197094 -0.52636755 -0.1761062 -0.28894374 -0.05541956
-0.20804006 -0.17441049 0.54521245 -0.3400752 -0.018368522 -0.42315462 0.02426794 -0.46401155
0.06971711 0.06974119 0.087522335 0.008650558 -0.31786576 -0.37787348 -0.13443394 -0.12053057
1.106281 0.4708265 0.22670202 0.11905775 0.16655739 -0.34697184 -0.27735415 0.011274041
-0.27346957 0.06049431 0.307381 -0.3284226 0.10180395 -0.19460714 0.3906135 0.29355016
0.055627123 -0.42521966 0.043919344 -0.19326922 -0.70022225 -0.3301187 0.15119949 0.15666333
-0.99580485 -0.37563092 -0.65483963 -1.028383 0.29420543 0.04895514 0.19497007 -0.28681943
-0.33631727 -0.24280529 0.31601015 -0.22424294 0.26717514 -0.017888507 -0.21694154 -0.4305753
-0.12376092 -0.020091243 -0.3877615 0.10890954 0.46528503 -0.07638327 -0.085745685 -0.41253495
0.12648416 0.20806949 0.19790566 -0.20253968 0.13169605 -0.119746216 0.031345297 0.16075088
-0.04793926 0.10520695 -0.28211206 -0.17882556 -0.08484693 -0.20956136 -0.12155544 -0.1948931
0.22207817 -0.08586394 -0.024968898 0.20142518 -0.6034097 -0.15560387 0.5135252 -1.0874848
0.926659 -0.077640004 0.46676716 1.3075637 -0.5933136 -0.058072045 0.15927167 0.067479275
0.1979164 0.19077277 -0.43818063 -0.22546485 0.22263236 -0.518221 -0.022278514 0.2825189
0.3972336 -0.13093485 0.045206696 -0.16384155 0.39979765 -0.528174 -0.14283198 0.14739308
0.7060982 -0.2648887 -0.13149513 0.44615293 -0.2103182 0.30548376 -0.16061063 -0.18275268
0.33100927 0.014384221 0.20784068 -0.2349111 0.019106084 0.026162283 0.35171008 0.21689343
-0.03962539 -0.36803615 0.09300233 0.09243101 -0.32186353 -0.3654241 -0.61113054 -0.44407338
-0.8274853 -0.8081075 0.0055722226 0.23991758 -0.41061142 -0.10699789 -0.030015567 0.04630778
0.09893466 0.6172365 -0.3679789 0.70304966 0.4357052 0.17302857 0.2857993 -0.5980831
0.16483906 0.6472223 0.24935663 -0.10992864 -0.22665374 0.30247608 0.09016903 0.18676363
0.022680484 0.30160424 -0.018251127 0.34099308 -0.20686497 -0.014642898 -0.039548423 0.023072023
0.2370715 0.62442625 -0.048600692 0.25942248 0.091795504 -0.6003056 0.1344828 0.30432
0.24804701 -2.0584488 0.63233757 -0.6350279 0.72685 -2.0971923 -0.41954982 1.5380646
-0.80929995 0.19188783 0.93341154 -0.02681737 -0.46464276 0.11123296 -0.26879114 0.7826511
-0.14602959 -1.010765 -0.5556539 0.7629797 -0.37318558 -1.1610092 -0.36531487 -0.010138931
-0.7280271 -1.0848992 0.65185416 0.67037636 2.6085482 -1.3392842 -0.101054855 -0.34271887
0.10705193 0.19718854 -0.5072839 0.47843552 0.2641757 -0.165747 0.101208545 -0.2384759
0.0099233445 0.40373895 -0.20506142 0.084619485 0.4204163 0.37078467 -0.18243283 -0.05944555
-0.3086921 1.5468216 0.19456914 0.69536865 0.0056443634 -1.0165646 -0.16447064 -0.8964295
1.6885998 0.48524725 0.67359984 2.1162565 0.9185319 0.12750195 -0.17686877 0.16281937

Func/StatefulPartitionedCall/model_1/gru_1/PartitionedCall/input/_28:0 f4 [16, 48]
00000000: c5f7 1cbf 51c8 913a 4435 96bd 01c2 f43c
00000010: c6c7 163e b6d3 2bbf a245 29bf e3e0 80bf
00000020: 3734 2fbf c4a2 283e 6e8f a7be 902f 69be
00000030: 315b bd3d a38b 4e3c 386c 1d3f d038 333e
00000040: 1f24 083f 1040 f1bf b5b3 d5be c760 0d3d
00000050: e683 01be ea39 5ebf 1b8f 943e 2bdd 21bf
00000060: bf52 b1bd cf9f 76bd 132f 083f 4f51 eabf
00000070: 2d45 5abf 3efa 24bd ddef 4fbf bbf4 bd3e
00000080: 58c8 b43e f163 743d 91da 23bd 9da1 95be
00000090: 23cc a03c ae68 2bbe 50df cfbe a78f 8fbd
000000a0: 45fc 053e 7ebe 0d3e 60d9 0c3e f176 d73e
000000b0: b379 acbd d0b4 c7bd 49ac 9d3e e3c7 c13d
000000c0: 4a3c 98be 69c2 d33d 76ab 063d 3820 f2bd
000000d0: 8329 9f3e 532d 433f 5868 75bd c850 b33d
000000e0: b660 09bf 100e b43e 7a1d 393f ff14 b4bb
000000f0: 5fc0 7c3d 1733 88bd 84a9 323f d95d ee3e
00000100: 4b11 a43f 42b8 34bd 2056 533d 2eb3 e03e
00000110: 5c68 d0bd bd93 393e a339 0ebf 5b06 1f3d
00000120: b8dd c83d efcd 5d3e 22c4 033f 4252 f0bd
00000130: 58bc a03e 7c87 1f3f 0d35 213e 0f94 ca3e
00000140: 0419 b9bf af33 bebe 444e ed3d 2c94 473e
00000150: 9a66 01bc efbb bd3d 5e9d 283d ba68 263e
00000160: f6bc 613e 0617 aa3e 9681 eb3d df1b dd3e
00000170: 991c c0be b46f 843e 43b2 6f3e 7baa c63e
00000180: a545 dc3e 884d 7cbd 1aad 33bf 4471 82bc
00000190: de73 7cbe 8594 e93e 1bae a03c 6450 27bf
000001a0: 5b56 f7be eed3 2e3d ea7e e9bd 4212 4fbf
000001b0: 29b2 99be 4e06 acbe 608d 413e a904 013e
000001c0: 5db2 dc3b 16dd 04be 5bbd 7f3c 6f85 94be
000001d0: e969 803b e5b6 2dbe eebb 423f 8b36 023e
000001e0: a5e6 2ebf 8548 cc3e be17 0f3e 707d 45bf
000001f0: 04e8 d3be 5451 923e b976 5ebf 92c8 9abe
00000200: 42d3 883e 4b80 643e 26f9 983e 9ef7 693c
00000210: 0068 93be 2a8a b23e 4c71 133e 7829 a83e
00000220: d74c 663e f419 9b3e 32d1 8fbe 8416 99be
00000230: a551 47be 2c4f bbbe 1499 f63e 9efb e03e
00000240: 1f57 ffbe d357 c0be 26e1 77bf 4f8c 96be
00000250: b82f 5fbf 6b7f e2be cbb6 35be 670a 7dbf
00000260: 0b66 a03e 7eef 19bf 5af1 11bf c601 563c
00000270: fccf b5be 1616 bcbe 8ca1 28be da3e a2be
00000280: 4393 99be bcc0 463e 0cd6 143f 7834 f0be
00000290: c7d1 94be e007 0abf beb9 62be eeb4 07bf
000002a0: a02f 103f fbae 1d3e fc9e a9be 9227 2b3e
000002b0: 05a0 86be a374 30bf 663b 313d 17d3 d63d
000002c0: d8ba de3e af46 c0be f365 253e a61f adbe
000002d0: c1e2 fc3c 8f04 c13e 4855 45be 0f47 193d
000002e0: eb46 aebe b247 4dbe c560 543d e5b3 683e
000002f0: 3d90 493e ff8a a5be ce48 463e 4609 88bd
00000300: 56c6 c1be 7816 18be dd6c 4f3e b8b6 adbe
00000310: 3f1e 123d 998d a33e de44 943e 0f97 aebd
00000320: 6283 47bf edc7 aabd e5e3 f63e 047b c1be
00000330: 0680 2b3e e5a8 1a3e b040 243e e6e0 af3e
00000340: 2255 883d 1777 033e f89b a2bd 581f debd
00000350: b3ca 0abd 2e17 5abe e11f e9bb d863 7a3e
00000360: d115 753e 7f9f 343d 18bc 473f c66d a03d
00000370: 9802 41bd d19e 09be 5ed3 053d a2bf 41be
00000380: 84fb 1a3e 4a4f 27bd 74eb 7d3d 91d8 503e
00000390: 8cda e1bd bff0 833c 9385 9b3e 3794 c93e
000003a0: 22b6 22bd 8d16 3c3e e476 2cbe 1d33 e43d
000003b0: 987b 88be e8ef d33d f788 b9be 0632 8d3d
000003c0: 8efe 95bf c663 c13e 1cd7 0e3d 684a 4a3c
000003d0: 2e6c 2a3d 510c 003f 4d6f de3c ae6b 223f
000003e0: 373d 5ebf 252e 073f 661c cdbd a8bb 72be
000003f0: df68 c93e c1d7 7bbd c129 863e 60d2 843e
-0.61315566 0.0011122321 -0.07334378 0.029877665 0.14724645 -0.6711992 -0.66121876 -1.006863
-0.6843905 0.1646834 -0.32726616 -0.2277205 0.09245909 0.012606534 0.61493254 0.17502141
0.53180116 -1.8847675 -0.41738668 0.034516122 -0.12647972 -0.8680712 0.2901543 -0.632281
-0.08658361 -0.060211 0.5319683 -1.8306063 -0.85261804 -0.040277712 -0.8122538 0.37100777
0.353091 0.059665624 -0.040003363 -0.29224864 0.01962859 -0.16739151 -0.4060006 -0.070098214
0.13084514 0.13842198 0.13754797 0.42082933 -0.0842165 -0.09751284 0.30795506 0.094619535
-0.29733497 0.10339815 0.03287836 -0.118225515 0.31086358 0.76241034 -0.059913963 0.08755642
-0.53663194 0.3516698 0.723106 -0.005495667 0.061706897 -0.066503696 0.6978991 0.46555975
1.2817777 -0.044121034 0.051595807 0.43886703 -0.10176155 0.18122764 -0.55556697 0.03882442
0.098079145 0.21660589 0.5147115 -0.117344394 0.31393695 0.6231611 0.15742894 0.39566085
-1.4460759 -0.37148806 0.115871936 0.19490117 -0.007897997 0.09264361 0.041165702 0.16250888
0.22044739 0.3322069 0.11499326 0.43185326 -0.37521818 0.25866473 0.23407845 0.3880194
0.43021885 -0.061597377 -0.7018601 -0.01592315 -0.24653575 0.45621124 0.01961427 -0.6535704
-0.48308071 0.04268258 -0.1140116 -0.80887234 -0.30018738 -0.3359856 0.18901587 0.12599434
0.0067351297 -0.12974963 0.015609111 -0.29008052 0.0039188755 -0.169643 0.7606801 0.12716119
-0.68320686 0.39899078 0.139739 -0.7714453 -0.4138795 0.28577673 -0.86899906 -0.30231148
0.26723677 0.22314565 0.29877585 0.014280228 -0.28790283 0.34871036 0.14398688 0.32844138
0.2249025 0.30293238 -0.2808929 -0.2989999 -0.19464739 -0.3658384 0.48163664 0.4394197
-0.49871156 -0.37567005 -0.96827924 -0.29403922 -0.8718219 -0.44237837 -0.17745511 -0.98844
0.31327853 -0.6013106 -0.570089 0.013061946 -0.35510242 -0.367356 -0.16467875 -0.31688577
-0.29995164 0.1940946 0.5813911 -0.4691503 -0.29066297 -0.53918266 -0.22141168 -0.5301045
0.5632267 0.15398781 -0.33129108 0.16714314 -0.2629396 -0.68927974 0.043269537 0.10489481
0.43501925 -0.37553927 0.16152172 -0.33813208 0.030869843 0.3769879 -0.19270813 0.037421282
-0.3403848 -0.20046881 0.0518501 0.22724874 0.19683929 -0.32332608 0.1936371 -0.06642394
-0.3784663 -0.14852321 0.20256372 -0.33928466 0.035673376 0.31943968 0.28958791 -0.08524906
-0.7793485 -0.08338914 0.48220745 -0.37789166 0.16748056 0.1510349 0.16040301 0.3435127
0.06656863 0.12838398 -0.07939905 -0.10845822 -0.033884715 -0.21297905 -0.007114396 0.2445215
0.23934104 0.04409742 0.78021383 0.078334376 -0.047121614 -0.1343949 0.03267228 -0.18920758
0.15135008 -0.0408471 0.061992124 0.20395114 -0.11028013 0.016106008 0.30375347 0.3937089
-0.039724477 0.18367977 -0.16842228 0.111425616 -0.26656795 0.10348493 -0.36237308 0.06894307
-1.1718309 0.37771434 0.034873113 0.012346841 0.041607074 0.50018793 0.027152682 0.63445556
-0.86812156 0.52804786 -0.10015182 -0.23704398 0.39337823 -0.061485056 0.2620373 0.25941753

Func/StatefulPartitionedCall/model_1/gru/PartitionedCall/input/_20:0 f4 [16, 48]
00000000: 620d 333f 53ca 3e3e 2f7e 063f bae7 cb3d
00000010: e592 d8bc d7e1 423f 5e84 4a3f 1b61 723f
00000020: 6bbe 04bf 7e1c 77bf fb26 89bc 3e2b d8bf
00000030: fae8 f13f 7eee aa3e 3299 53be 37e1 dd3c
00000040: d99b 47bf 0ae6 08bf 6cb8 f1bd b5d6 c6be
00000050: 80c1 173f ff64 d4bd 6d82 b3be 82fe 8ebf
00000060: c00f 3abe 9b53 303d 58e3 28bd 7b62 69bf
00000070: 74af f1be 734b 473f 838e f4be b438 afbc
00000080: 7cc0 fd3d a8e4 453e a5c1 543e 4050 6c3d
00000090: dae4 6e3e 79c0 1ebf 2809 9cbe 6301 f6be
000000a0: 71dc e4bd ce49 d03d 9f4f ab3e 23d8 31be
000000b0: ad6e 0c3f 71f6 973e 6cb1 e53e 59cd 90bd
000000c0: a19e 8bbf 6552 a73d dff4 76be ec37 f23d
000000d0: 925a 923e b0d0 af3f 0282 b43e 45b3 323e
000000e0: fde7 e23e bb9c 143f 2f56 023e 5bd7 c23f
000000f0: 2426 eebf fcca 843f c1ea 5d3e bfc6 2bbf
00000100: 1494 0bbd ba56 ce3b ba9e 91be 758c 65c0
00000110: f3e6 173e ca02 a9be f7d9 3b3e fab2 173e
00000120: ecc4 f23d 0d2e a2be babc a1be ba35 d4be
00000130: 9755 22bf a110 0bbe 476a 113d 0a6e a33c
00000140: ed79 b33e 1d4b ca3e 8cc9 0c3e bca1 0c3e
00000150: 2009 08bc f0b4 03be e1c4 373e 9971 49be
00000160: e0ea cabd 2e65 e13e 0ea7 7cbe 54fd 5dbe
00000170: 1e10 e63e 05cd d4bd 45ab 0c3c daf9 9d3c
00000180: 1d94 5d3f 4743 61be a74e 24bf 8adf 0240
00000190: b394 d03f db4a 0fbf 4704 ad3c dcde c1be
000001a0: ec7a bdbe 1c2c 3bbf 05ff 0abf a001 2038
000001b0: 7c19 9b3f cc33 3cbe 16d7 d4bf a48a 0240
000001c0: 1367 36bc 2e9d 9cbd 4292 073f d11a 173f
000001d0: 195b 87bd 9cb1 b4be ee36 30be e2bf 1c3d
000001e0: 7f16 b1bd 6491 3fbe b965 4ebf 8f31 1cbe
000001f0: fbb2 813e 195f 48be a3a0 823e 710e 18bf
00000200: 790b d1bd e376 f03c b116 b83e dc4f 02bf
00000210: c196 e13e bb77 eb3c d93c eebe 7875 403e
00000220: 6577 da3d e6b0 753e 1e81 eb3d 3384 443e
00000230: 5773 e93e 2b0a 403e 6369 d5be 593c 4b3e
00000240: 9612 ad3f 7d59 2bbf 3a68 c5be 146b a93e
00000250: bea4 a73d fa1d 27be 9b18 97be 2c3b 00be
00000260: 7635 c7be c328 a03e eef3 e3be e193 41be
00000270: ce65 4040 d35d 6fbf c604 cabd 5b22 7f3f
00000280: 6e9a 7ebc a6bf 00bf 88a2 103a 5a70 b63f
00000290: d3d9 df3e 4ca5 253e 137b 48bd d2ab 64be
000002a0: 2af0 7dbc 46f6 c13e b90d 1e3e 3fca d0be
000002b0: 8ee9 c03b 8f83 143e fdc2 623d 5dc4 f73c
000002c0: 7cf5 1abe 61b8 2a3e 8441 67be ba5c 843e
000002d0: cead 943e c48e 2dbe 5202 a3bd 4992 07bc
000002e0: c2ed de3c 9ce2 f838 311a e0bd 3569 e5be
000002f0: e391 903e f38f 763d 78e6 993c 817e 193e
00000300: d977 0fbf 622c b13f 639d 373f ba81 203e
00000310: d3c1 db3e 38ed f8bc 6aa5 e23e 755e e03e
00000320: eaa3 aabe f014 b33f 019f 193f fb5b 83be
00000330: c72e 78bf 6241 773f f6c2 393f 3bc4 893e
00000340: 303b ab3d 0028 abbe 0739 fabe 3545 67bf
00000350: d917 debd 419f c03e bd10 393e eee1 ddbe
00000360: 324e 893e 85c7 a7be bb5d 1bbe d631 cfbe
00000370: f09c b6bb b474 7e3d 84c0 11bf 77d8 0abe
00000380: 3e0b 873e ee82 9c3e 819c 0c3d 9e39 ddbf
00000390: 5ddf 803e 3a4e 213f e886 243d 8c6a f43d
000003a0: c30f 55bc be9b 383e afb8 333d 4d98 4ebe
000003b0: 58f5 9cbe dc24 0c3e d676 d93d 768d fd3d
000003c0: 5872 c3be d14c 913e a4d1 ad3e 1e5e 623e
000003d0: 314f ad3e cd7d ab3f a0f8 aa3e b3c3 503f
000003e0: 999e 9bbe da80 253f e5ea d73e 96fe 07bf
000003f0: b5cc a73e 83af 603f 77ef 9f3e 85e8 85c0
0.69942296 0.18631868 0.5253629 0.09956308 -0.026437232 0.76125854 0.79108226 0.9467942
-0.51853055 -0.9652785 -0.01674222 -1.6888196 1.8899224 0.3338508 -0.20663908 0.02708493
-0.7797218 -0.5347601 -0.11802754 -0.38835683 0.5927963 -0.10370826 -0.35060444 -1.117142
-0.1817007 0.043048482 -0.041232437 -0.91165894 -0.47204173 0.778495 -0.47764978 -0.021389343
0.12390229 0.19325507 0.20776995 0.05769372 0.23329487 -0.6201244 -0.30475736 -0.48047933
-0.11174858 0.10170327 0.33459184 -0.17367606 0.5485638 0.29680207 0.44861925 -0.07070417
-1.0907785 0.081700124 -0.24116848 0.118270725 0.28584725 1.3735561 0.35255438 0.17451198
0.44317618 0.5805165 0.12728189 1.5221971 -1.860539 1.0374446 0.21671583 -0.6710014
-0.034076765 0.0062969597 -0.2844141 -3.5866978 0.14834194 -0.3300994 0.18344866 0.14814368
0.11853966 -0.3167576 -0.315893 -0.4144724 -0.6341185 -0.13580562 0.035501745 0.019949932
0.3505396 0.39510432 0.13748759 0.13733572 -0.008302957 -0.12861991 0.17946197 -0.1967224
-0.0990808 0.44022506 -0.24673101 -0.21678668 0.4493417 -0.10390667 0.008585756 0.019284178
0.8655413 -0.2199832 -0.64182514 2.0448937 1.6295379 -0.55973595 0.021120204 -0.3786534
-0.37007844 -0.7311418 -0.5429538 3.8148486e-05 1.2117152 -0.18379134 -1.6628139 2.039712
-0.011132973 -0.07647167 0.52957547 0.59025294 -0.066091724 -0.35291755 -0.17208454 0.03826893
-0.08646869 -0.18707806 -0.80623966 -0.1525328 0.25331864 -0.19567527 0.2551318 -0.59397036
-0.10207266 0.029353565 0.35954812 -0.50903106 0.4406033 0.028743615 -0.46530798 0.18794811
0.10667304 0.23993263 0.114992365 0.19191055 0.4559581 0.18753879 -0.41681966 0.1984724
1.3521297 -0.66933423 -0.3855608 0.33089507 0.08185719 -0.16320029 -0.2951096 -0.12522572
-0.38907975 0.312811 -0.4452204 -0.18904068 3.0062137 -0.9350254 -0.09864192 0.996618
-0.015539749 -0.5029243 0.0005517383 1.4253037 0.43720874 0.16176337 -0.048945498 -0.22331169
-0.015499154 0.37883204 0.15434922 -0.40779302 0.005887217 0.1450331 0.055361737 0.030245
-0.15132707 0.16671897 -0.22583586 0.25851995 0.29038852 -0.16948992 -0.07959427 -0.008274623
0.027212981 0.00011867771 -0.109424956 -0.4480683 0.28236303 0.060195874 0.018786654 0.14989664
-0.5604225 1.384167 0.7172453 0.15674487 0.42921314 -0.030386552 0.44266826 0.43822065
-0.33328182 1.3990765 0.60008246 -0.25656113 -0.96946377 0.9658414 0.7256311 0.26907524
0.083608985 -0.33428955 -0.48871633 -0.90339977 -0.10844392 0.376215 0.18072791 -0.43336433
0.2681747 -0.3276941 -0.15172474 -0.4046771 -0.0055729076 0.062123016 -0.5693438 -0.13559137
0.26375765 0.3056864 0.03432894 -1.7283208 0.25170413 0.6300999 0.04016772 0.11934385
-0.013004246 0.18028161 0.0438773 -0.20175286 -0.30655932 0.13685936 0.10618369 0.12380497
-0.38173175 0.2837892 0.33949006 0.22106215 0.3384948 1.3397766 0.3339281 0.81548613
-0.30394438 0.64649737 0.42171398 -0.5312284 0.32773367 0.8776781 0.31237385 -4.1846337

Func/StatefulPartitionedCall/model_1/gru/PartitionedCall/input/_19:0 f4 [10, 48]
00000000: 887e a1bf 34c1 2f3e 929e 03bf 8261 723d
00000010: 9ea3 bdbe e225 833e 7e13 1c3d 79eb ac3e
00000020: 09ff 03be 2342 37be 8c82 053e c806 8cbd
00000030: 02af 8b3e 96f8 52be c1e8 9bbd 27f4 0d3e
00000040: 9089 9dbd f78f 99be 3808 cabe fe66 3fbf
00000050: 37ed 6e3d 4d90 113e a432 d53d a106 e13d
00000060: 1ef6 0e3c b2a9 e4bd dc54 4dbe 9ae5 193d
00000070: 0a81 67be ba2f 573e b71b e03d 1794 3c3d
00000080: 24a9 0fbe 0504 7fbd 0953 483c c9cd 87bd
00000090: 7ed9 833d 8c58 20be 8397 97bc 5124 943e
000000a0: 0ab8 57bc 2d00 d0bd 0824 1c3e c7a1 9e3d
000000b0: f12b 4d3d 0dce 803e d875 333e 3309 d93d
000000c0: f47f 7dbf ff34 c73e fd31 ebbd 83e9 bcbe
000000d0: 85f1 7cbe c53f 483e 03c0 9d3d 75b4 053f
000000e0: e6e7 083f dee8 e5be e7a4 dd3e 0915 0f3d
000000f0: 2e2c 14bd 2991 4e3e 56b4 533e fa26 babe
00000100: bb28 edbd 5b5d 023e 1a6c 72be f067 3abf
00000110: bfb0 d2bd 1390 e83e b1a7 6b3e a96e 7abe
00000120: 6c40 0abc 26e2 8fbe a515 49be 81ed 36be
00000130: 894a 913e e09b 1b3d 0bb7 6bbe 18b5 173d
00000140: 0e9c 77be 42df 953d 2e36 04bf efa5 e2be
00000150: a941 973e 0ef2 b0be 2bfb 953e 4ded 753e
00000160: 6970 97be 473f f33c 98d3 273e 3551 ae3e
00000170: b501 23bf 9d03 a3be 084d 96bd e509 2ebe
00000180: 0bc2 54bf a0d1 48be 63b1 6ebf 73f9 d1be
00000190: 65c0 b1be 64cd d0bd f7c7 c23d 08cd 433e
000001a0: fff4 0b3e 0f2f ddbd ebe4 99be 03fa 5e3f
000001b0: 99c3 f0bd fb10 5dbe 7bc2 30bf 1e09 01c0
000001c0: b756 933e cb43 69bf 2b96 c4be 19f1 a13e
000001d0: b73d 233f 81d0 763e 290b 573e f6dc 1b3f
000001e0: b7c5 eb3e 9ce5 14be 79ed f73d 13ad 0ebf
000001f0: 1278 00bf 54f0 ec3e fef9 993f 60b1 a43e
00000200: 51fb a4bc 810e 05bf 8834 88be d8c4 be3e
00000210: efef 613e a255 a63e b178 11be 8ffe f0bd
00000220: fb64 723d e715 2fbe 0972 2cbe d35d 8cbe
00000230: 99e8 0dbb a850 513d 9772 5d3e 9ec3 eabe
00000240: 400e 9ebf 4888 823e 360e 94be d32f 983e
00000250: 19a7 14bf 31b3 953d 8f84 013e 7e19 59be
00000260: ff57 403d 355d 083d 88b7 ddbe 5e88 30bf
00000270: a04d 06c0 c71c 8fbc 0b3f 753e e08d 3fbf
00000280: 6cf6 a5be fa8b 8b3d 429b fcba 52b0 87bd
00000290: f7ba 473e ca1e fa3d 6bb1 1b3f 3f0a 1e3f
000002a0: 5510 873c aff9 0e3d 2c30 653d ac5f 613f
000002b0: 5f0c 14bf 2061 0bbe dd22 423c 916f e03e
000002c0: 6314 b3bd bc5f c9bc 646b 50be d139 4fbe
000002d0: 5bde d83c 7b45 993e d224 08bd 0f76 9bbd
000002e0: cf3a a63d a3c9 26be 03cb c5be 81ec 0fbe
000002f0: 949d 013f 7134 6d3e a8ec 1b3e 5ee0 8cbd
00000300: 5399 97bf 75a3 2bbd 8075 a5be 2d2f a1be
00000310: 016b a9bd e370 75bc fed0 e93d 0ffe babe
00000320: abdb 393e 712b 20bf 926d 2c3e 2ded 51be
00000330: c124 2f3d 0f23 5abe adb0 59be 0ca9 eb3e
00000340: 081e 1dbd d12e be3e f1c5 d1be f4bb 0f3f
00000350: 562d 4d3e 61ca 59bd a27e 0abc a3f4 943e
00000360: 72b9 fd3d ed67 a63d ba4c 873e bdba 45be
00000370: df2c f73e 22fc cd3d d61d 8e3b e8ea 8a3e
00000380: 3400 2cbd c055 293e 6225 f73d d3b1 3dbd
00000390: 4f4e b43d bbef 26be c30d 61bd 9575 7ebd
000003a0: 8708 20be e486 253e 0480 35be a7d9 04be
000003b0: 7b4c 18be 9edf 04be 426f 98bc 321d 89be
000003c0: af58 01c0 f722 bc3e 6151 ca3e 5468 3ec0
000003d0: f4a7 36c0 201d 03be 7eb4 bb3e e2cc ec3c
000003e0: 1c54 fe3e a9be 69bf 9d8a 3a3f 4dd2 fe3e
000003f0: c5da 1fc0 9613 afbd 60aa 5e3f 4f89 47be
-1.2616739 0.17163545 -0.51413834 0.059175022 -0.37038893 0.2561484 0.038104527 0.337734
-0.12890257 -0.17896323 0.13038081 -0.06837231 0.27281958 -0.2060264 -0.07612754 0.13862668
-0.076922536 -0.2999265 -0.39459395 -0.7476653 0.058331694 0.14215203 0.104100496 0.109875925
0.008725671 -0.11165179 -0.20051903 0.03757248 -0.22607818 0.210143 0.10942786 0.046039667
-0.14029366 -0.062259693 0.012226828 -0.06631047 0.06437968 -0.15658778 -0.018504864 0.28933957
-0.013166437 -0.101562835 0.1524812 0.077457 0.050090734 0.25157204 0.17525423 0.10597458
-0.99023366 0.3890762 -0.11484144 -0.36896905 -0.24701507 0.19555576 0.07702639 0.5222848
0.5347885 -0.44904226 0.43289873 0.03493217 -0.036174946 0.20172562 0.20674261 -0.36357862
-0.11580034 0.12730925 -0.2367405 -0.72814846 -0.10287618 0.4542242 0.23013188 -0.24456276
-0.008438211 -0.28102225 -0.19637163 -0.17864038 0.28377178 0.03799045 -0.23019044 0.03703794
-0.24180624 0.07317974 -0.5164517 -0.44267222 0.29542282 -0.34559673 0.29293188 0.24016304
-0.2957795 0.029693259 0.1638931 0.3404633 -0.6367448 -0.31838694 -0.07338911 -0.16995962
-0.83108586 -0.19611216 -0.9323942 -0.41010627 -0.34717098 -0.10195425 0.095107965 0.19121182
0.13667677 -0.10799991 -0.30057463 0.8710024 -0.11756057 -0.21588509 -0.69046754 -2.0161815
0.28777096 -0.9111907 -0.3839582 0.31629255 0.63766044 0.24102975 0.21000351 0.60884035
0.46049282 -0.14540714 0.12105841 -0.5573284 -0.5018321 0.46277106 1.2029417 0.32166576
-0.020139368 -0.51975256 -0.26602578 0.37259555 0.22064184 0.32487208 -0.14206196 -0.11767303
0.059178334 -0.17098199 -0.16840376 -0.27415332 -0.0021653532 0.05110231 0.21625744 -0.4585237
-1.2348099 0.254946 -0.28917092 0.29723987 -0.5806747 0.07309569 0.12648223 -0.21201131
0.04695892 0.033292014 -0.43304086 -0.6895808 -2.0984879 -0.017469777 0.2394983 -0.7482586
-0.32414567 0.06813808 -0.0019272345 -0.06625427 0.19504915 0.12212904 0.60817593 0.61734384
0.01648728 0.034906086 0.055954143 0.8803661 -0.57831377 -0.13611269 0.011849132 0.43835118
-0.08744123 -0.024581783 -0.20353466 -0.20236899 0.026473215 0.29935822 -0.03323824 -0.07590877
0.081166856 -0.16287856 -0.38631448 -0.14055063 0.5063107 0.23164536 0.15226996 -0.06878732
-1.1843666 -0.04190393 -0.32316208 -0.31481305 -0.082723625 -0.014980528 0.11416815 -0.36521956
0.18150203 -0.62566286 0.16838673 -0.20500632 0.04275966 -0.21302436 -0.21258803 0.4602741
-0.03835872 0.37145093 -0.4097133 0.5614617 0.20036826 -0.05317152 -0.008453043 0.29092893
0.123888865 0.08125291 0.26425725 -0.19309516 0.4827642 0.10057856 0.004337053 0.27132344
-0.04199238 0.16536617 0.12067677 -0.046312165 0.08803999 -0.16302387 -0.054944765 -0.062123854
-0.15628253 0.16164738 -0.17724615 -0.12973653 -0.14872925 -0.12975928 -0.01860774 -0.26780087
-2.0210378 0.36745426 0.39515212 -2.9751177 -2.854001 -0.12804079 0.36661142 0.02890629
0.49673545 -0.9130655 0.7286776 0.49769822 -2.4977276 -0.085486576 0.8697872 -0.19485973

ConstantFolding/StatefulPartitionedCall/model_1/gru_2/PartitionedCall/unstack-folded-1:0 f4 [48]
00000000: 8301 99be 8b5e 84be c4e2 b83d 8742 08bf
00000010: 328a 1fbe c67f 2ebe c72e 10bd 4a55 2fbe
00000020: 31b2 86bd 39d6 8fbe 98db 4ebe 5e9d 99bd
00000030: 8019 e1bc 800b f93d 27ee 6e3e 1e96 b5be
00000040: 3c05 e5bd 99b8 ce3d 1f41 0bbe df9a 45bd
00000050: 52e6 d7bc a130 6abd c8c4 4cbe 7279 2b3e
00000060: c657 99be fef5 2dbe 1ff2 a53d 0f41 e1be
00000070: 4a0b 0f3d a69e 27be cf23 c43d 2e42 3fbd
00000080: 1155 e33c be0f 483d d1a6 d8bd 09af 323e
00000090: b68a c93d 3b3c 5b3e a19d b1b9 de82 893d
000000a0: 0b72 1cbe 2e4f 2dbe 6fcf 9abd 1ab2 173e
000000b0: 973b 803e 1f8e 963b cb0c e8bd 5009 9dbe
-0.29883966 -0.2585338 0.09027627 -0.5322651 -0.15580061 -0.17040929 -0.03520086 -0.17122379
-0.06576956 -0.28093126 -0.20200956 -0.075007185 -0.02747798 0.121603966 0.23333035 -0.35466093
-0.11182639 0.10093803 -0.1359906 -0.0482434 -0.026354942 -0.057175282 -0.19996941 0.16745546
-0.29949778 -0.1698837 0.081028216 -0.43994948 0.034922875 -0.16369113 0.095771424 -0.046693973
0.027750524 0.048843138 -0.10578693 0.17449583 0.0984091 0.21409695 -0.00033877513 0.06714414
-0.15277879 -0.16924736 -0.07559096 0.14814034 0.25045463 0.004594579 -0.11330565 -0.30671167

ConstantFolding/StatefulPartitionedCall/model_1/gru_2/PartitionedCall/unstack-folded-0:0 f4 [48]
00000000: 8301 99be 8b5e 84be c4e2 b83d 8742 08bf
00000010: 328a 1fbe c67f 2ebe c72e 10bd 4a55 2fbe
00000020: 31b2 86bd 39d6 8fbe 98db 4ebe 5e9d 99bd
00000030: 8019 e1bc 800b f93d 27ee 6e3e 1e96 b5be
00000040: 3c05 e5bd 99b8 ce3d 1f41 0bbe df9a 45bd
00000050: 52e6 d7bc a130 6abd c8c4 4cbe 7279 2b3e
00000060: c657 99be fef5 2dbe 1ff2 a53d 0f41 e1be
00000070: 4a0b 0f3d a69e 27be cf23 c43d 2e42 3fbd
00000080: 97ea 223d 82a4 1f3c 8dd7 1fbc 78f9 44be
00000090: dad1 b43d 4f31 bc3e 35a2 eb3c d5bc 37bd
000000a0: 2685 ffbc af4b 96be c735 873e de63 04bd
000000b0: 1b64 6bbd 841c d83d 48ce 38bd e7fe 41bc
-0.29883966 -0.2585338 0.09027627 -0.5322651 -0.15580061 -0.17040929 -0.03520086 -0.17122379
-0.06576956 -0.28093126 -0.20200956 -0.075007185 -0.02747798 0.121603966 0.23333035 -0.35466093
-0.11182639 0.10093803 -0.1359906 -0.0482434 -0.026354942 -0.057175282 -0.19996941 0.16745546
-0.29949778 -0.1698837 0.081028216 -0.43994948 0.034922875 -0.16369113 0.095771424 -0.046693973
0.039774504 0.009743812 -0.009755981 -0.1923579 0.088290885 0.3675637 0.02876387 -0.04485782
-0.03119142 -0.29354617 0.26408216 -0.032321803 -0.057468515 0.10552314 -0.0451186 -0.011840559

ConstantFolding/StatefulPartitionedCall/model_1/gru_1/PartitionedCall/unstack-folded-1:0 f4 [48]
00000000: 0da7 babd 0573 7abe 2a69 d83d 28de 79bd
00000010: e4d3 843e 4e9d 88be 1b68 963e 9b4b 473f
00000020: 7973 ab3d 6da4 a63e f660 8f3e 4251 85be
00000030: a8a2 953e bccf 123e e6d1 b73d 1975 0b3d
00000040: 93b8 443e d1df 783e cebb b4bd 6209 83bd
00000050: 2691 d43c eeb0 c93e 440e ec3d 4009 10be
00000060: c78e 9dbd 5460 623d 976b d03d 67d2 1e3d
00000070: b3b6 a53e b557 b53e b3a0 b03d 292d 1a3e
00000080: b2f6 bfbe c9f1 07bc 1631 873c facc 0cbd
00000090: f7a2 893d bd9f 663d 2907 76bb 6b12 443f
000000a0: a741 b53d a92f 14bd b5fc 01bb 3b3f 7d3b
000000b0: 7158 9c3b 538b 933d a0d5 67bd fb81 b43b
-0.09113894 -0.24457939 0.105669335 -0.06100288 0.2594291 -0.26682514 0.293763 0.7784974
0.08371634 0.32547322 0.28003663 -0.26038557 0.2922566 0.14337057 0.08975582 0.03404722
0.19211034 0.24304129 -0.088248834 -0.06398274 0.025948118 0.393928 0.115261585 -0.14066029
-0.07693248 0.055267647 0.10176771 0.038774874 0.3236595 0.35418478 0.08624401 0.1505629
-0.374929 -0.008297392 0.016502898 -0.03437517 0.06720536 0.056304682 -0.003754089 0.76590604
0.08850413 -0.036178265 -0.0019834463 0.0038642425 0.004771285 0.07204308 -0.056600213 0.005508659

ConstantFolding/StatefulPartitionedCall/model_1/gru_1/PartitionedCall/unstack-folded-0:0 f4 [48]
00000000: 0da7 babd 0573 7abe 2a69 d83d 28de 79bd
00000010: e4d3 843e 4e9d 88be 1b68 963e 9b4b 473f
00000020: 7973 ab3d 6da4 a63e f660 8f3e 4251 85be
00000030: a8a2 953e bccf 123e e6d1 b73d 1975 0b3d
00000040: 93b8 443e d1df 783e cebb b4bd 6209 83bd
00000050: 2691 d43c eeb0 c93e 440e ec3d 4009 10be
00000060: c78e 9dbd 5460 623d 976b d03d 67d2 1e3d
00000070: b3b6 a53e b557 b53e b3a0 b03d 292d 1a3e
00000080: 864f a4be 87e9 4c3d a2de 91bb 5a3c 2dbd
00000090: cd1f 143d 02a9 223d e28d 03be 031f d6bd
000000a0: b69c 0a3e aa23 54bd 9716 dd3c 3a42 82bd
000000b0: efe6 283d b1e7 863d 1687 2abd d38c a23c
-0.09113894 -0.24457939 0.105669335 -0.06100288 0.2594291 -0.26682514 0.293763 0.7784974
0.08371634 0.32547322 0.28003663 -0.26038557 0.2922566 0.14337057 0.08975582 0.03404722
0.19211034 0.24304129 -0.088248834 -0.06398274 0.025948118 0.393928 0.115261585 -0.14066029
-0.07693248 0.055267647 0.10176771 0.038774874 0.3236595 0.35418478 0.08624401 0.1505629
-0.32091922 0.050027397 -0.0044515887 -0.042293884 0.03616314 0.03971196 -0.12847093 -0.10455134
0.13536343 -0.051791824 0.02698831 -0.06360288 0.04123586 0.065871604 -0.041632734 0.01984254

ConstantFolding/StatefulPartitionedCall/model_1/gru/PartitionedCall/unstack-folded-1:0 f4 [48]
00000000: c960 a2bf 25d4 213e 50be 90bd 843c fc3c
00000010: b065 9bbe 9598 32be 58aa 903e a0ba b5bd
00000020: 7749 963e 16d2 e5be e8c1 8f3e 0a64 97be
00000030: c110 e03e c9b9 0ebd 69f2 08be 775b 003f
00000040: 9b5b fc3d e5bc 913e 714f 913d d90b 3abe
00000050: 97ca 09be d704 a73d a175 b93d 7730 883d
00000060: bd60 07bd 08ef b7bd 0a9a 39be 9c67 bc3c
00000070: ad70 e73e 5105 87bd ef8e 08bd 49f3 b03d
00000080: fa8b 473d 6438 c33d e5d7 5f3e b747 a3be
00000090: e192 83be 32a3 693c b67c 00be 3051 783d
000000a0: 3423 4db9 d045 12be 3f3d 0a3b 36f1 1f3e
000000b0: 471e f23d 2592 133d f093 aabc 5833 fe3b
-1.2685786 0.15803583 -0.07067549 0.030790575 -0.3035102 -0.17441018 0.28254962 -0.088734865
0.29352924 -0.44886845 0.28077626 -0.2956851 0.43762782 -0.034845147 -0.13373722 0.50139564
0.1232216 0.28464428 0.0709523 -0.18168582 -0.13456188 0.0815522 0.09055639 0.06649869
-0.03305124 -0.089811385 -0.18125167 0.022998624 0.45203152 -0.06592811 -0.033339437 0.08640153
0.048717476 0.0953224 0.21859701 -0.31890652 -0.25697997 0.0142601 -0.12547573 0.0606243
-0.00019563438 -0.14284444 0.0021093634 0.15619358 0.11822181 0.036028046 -0.020822495 0.0077575855
