examples/emulator-training/scripts/saved_model/FNN-radscheme-128-128-128-hybridloss_new.onnx (onnx, 473127 bytes, 4 tensors)

StatefulPartitionedCall/sequential/dense_9/MatMul/ReadVariableOp:0 f4 [128, 128]
00000000: 61bc 8abd 96ce 69bd d5a1 84bd 8e87 dcbd
00000010: 34a1 123d d7e4 02be 916c b7bd 40eb 94bc
00000020: a0e7 cb3c 0795 193e 3832 033d b7f3 0a3e
00000030: fc6f 6a3d bba3 b8bd 424b ec3d 7b7f 1c3e
00000040: adf6 85bd 0a24 bbbd 1c92 a73d 045b ad3d
00000050: c0f8 7fbc 7e93 ce3d 70fc 18bc c611 08be
00000060: 2b99 d9bd 7828 88bc 48ed de3c c493 93bd
00000070: 7e58 26bd 083e 623d 82b6 3ebd 39ca 0e3e
00000080: 0aea 0ebe 27c1 e9bd 6f42 183e 2bbe 0cbe
00000090: 0a66 923d a596 f8bd 5e81 f03d 9601 f93d
000000a0: 1cb5 af3d 8092 f1bc 1086 81bc 6828 5ebd
000000b0: 5838 cb3c b2eb e73d 2a47 ffbd 5925 163e
000000c0: ecd0 613d 061c edbd 360a fb3d acb9 c7bd
000000d0: 0d72 003e ee33 e83d a02f 7fbd d8b8 5dbd
000000e0: 60a7 1abd c040 33bb 718b 063e 2e02 cd3d
000000f0: f2e2 f63d 7e69 dc3d ae19 a5bd 2213 dd3d
00000100: f8bf 19bd b05e 773c 6e4f 1bbd d282 07bd
00000110: 863f e23d 3ca7 143d 6049 aebc 6671 fa3d
00000120: c073 c0bc 4635 b83d 80ba 7a3b 2e34 993d
00000130: 201b 063c 105e c13d 70e7 943d 4087 47bd
00000140: caea dfbd 457f 103e a8a0 d1bc 5809 6b3d
00000150: b023 8e3d b00b 703d 1690 28bd 1a35 b43d
00000160: 687e ea3c 50a7 e4bc 7e4a db3d fd08 07be
00000170: b03f 0fbe 08e1 05be 4407 2cbd b2e9 c2bd
00000180: 9454 4fbd 90b6 77bc 10c4 5d3d a582 8ebd
00000190: 685c b7bc 629a 9c3d 7772 bfbd 86ec f13d
000001a0: 329e 7fbd 6891 323d f131 04be 5045 623d
000001b0: 6239 16be 8028 e33c 56fc a93d ecd3 16be
000001c0: a198 86bd a81f a93c 100e 1bbd 2067 9b3d
000001d0: 74d1 e3bd 2bc2 0d3e 3d50 eebd 5a6d ed3d
000001e0: a2ca 60bd b0f2 b13c 8217 e93d daf9 d73d
000001f0: 7e92 37bd c686 07be 56fa c9bd ac33 923d
00000200: 09f4 9cbd c010 9cbb e0fe fa3c c222 c33d
00000210: 6e55 2dbd 1d0f 163e 3064 503c 8005 edbb
00000220: 3625 993d c0e3 edbc a76a 01be 10c9 61bc
00000230: 8c34 0dbe 4828 973c a7a0 8ebd 5c9d f8bd
00000240: 3711 c7bd 90ed b7bc db54 fcbd 4230 0ebd
00000250: 106a 5f3c 30e1 e43c 863f 803d 5bc0 1abe
00000260: 4a92 ae3d 9dc7 0c3e 66d3 c03d aa46 e2bd
00000270: f07c 4cbc a852 db3c 0c57 043d 5c8b edbd
00000280: b471 1bbe fe8d 06bd 3193 083e effd 10be
00000290: f00b 693c ca2c 11be 3839 263d d811 efbd
000002a0: ec4a 923d 72e3 a0bd 2f58 b1bd e013 03be
000002b0: 5f6e 91bd 3455 773d f55a 0a3e bd49 06be
000002c0: 30fa c43c 4082 1abd d0b1 283d 3f43 14be
000002d0: 239a 14be d8cb c8bc a6d5 11be 65b7 053e
000002e0: d0c1 39bc 42ed d83d 7ad5 f1bd 2f58 b3bd
000002f0: 5c76 c0bd 5472 cebd 184e 7c3d c455 6d3d
00000300: 69f3 b2bd 0089 9cbb 3c37 89bd 8e90 66bd
00000310: d815 783d ae54 e3bd 7c95 0a3d a085 c13c
00000320: 0cde b7bd 82c1 c2bd 525e cdbd 3d94 ebbd
00000330: e85e c1bd 4a32 fb3d ccb8 b83d 7aad 853d
00000340: 92e9 dcbd 783b 02be 1a8e 02be c80e b83c
00000350: 0f10 1a3e 9890 bbbc 3fa5 19be 2a16 e73d
00000360: 9a4d 18bd 2078 86bc 2008 6d3c e090 cbbd
00000370: 204c 213c 00fd 00bb fbf1 133e 8c16 b73d
00000380: 1e0e f43d 2a92 8ebd 5f70 193e 5482 a2bd
00000390: 0c6b 193d 81ff 103e 19cb 103e 1d30 cebd
000003a0: b44e 49bd 082e c7bc 9413 233d f8eb 3ebd
000003b0: 19ae 033e 8017 3fbc 7469 323d f0a3 ff3c
000003c0: a2a0 12bd 58a4 3cbd 20cf 923b 9ec4 03bd
000003d0: e0ed ba3b 84ee 843d 00f7 883a 5c2d 8f3d
000003e0: 084e 99bd 30e0 573c e0c6 17bc 6b22 0d3e
000003f0: edcc 95bd 08c4 08be 182f 0cbd 94e0 3b3d
-0.06774212 -0.05708178 -0.064761795 -0.107680425 0.035798267 -0.12782608 -0.08956254 -0.018178582
0.02489072 0.14998256 0.032030314 0.13569532 0.057235703 -0.09015604 0.11537792 0.15283005
-0.0654119 -0.09137733 0.08182165 0.084646255 -0.015623271 0.10086726 -0.00933753 -0.1328803
-0.106249176 -0.01662086 0.027212754 -0.072059184 -0.040611736 0.05523494 -0.04656077 0.1394433
-0.13956466 -0.11413794 0.14869092 -0.13744418 0.07148369 -0.12138108 0.11743425 0.121585056
0.08579466 -0.029488802 -0.015810996 -0.054237753 0.02480714 0.11324252 -0.12464745 0.14662685
0.055130884 -0.11577611 0.12257807 -0.09752211 0.12543507 0.1133803 -0.062301278 -0.05413136
-0.037757277 -0.0027351826 0.1313913 0.10010181 0.12055005 0.107623085 -0.08061539 0.10794665
-0.03753659 0.015098259 -0.037917547 -0.033083744 0.110472724 0.0362923 -0.021275222 0.1222866
-0.023492694 0.08994536 0.0038258135 0.074806556 0.008185178 0.09441769 0.07270706 -0.04871297
-0.10933454 0.1411105 -0.025589302 0.057381958 0.069404006 0.058604896 -0.041153036 0.08799191
0.028624728 -0.027911812 0.10707568 -0.13187023 -0.13989139 -0.13074124 -0.041999117 -0.0951723
-0.05061777 -0.01511921 0.054142058 -0.06958512 -0.02238293 0.07646634 -0.09348004 0.118126914
-0.062406726 0.0435957 -0.12909676 0.055241883 -0.14670327 0.027729273 0.083000824 -0.1472928
-0.065720804 0.020644978 -0.037855208 0.07588029 -0.111239344 0.138436 -0.11636398 0.11593123
-0.054880746 0.021722168 0.11381437 0.10545702 -0.04481744 -0.13235006 -0.09862201 0.07138762
-0.076637335 -0.004762739 0.030639112 0.09528114 -0.0423178 0.14654203 0.012719199 -0.0072333217
0.074778005 -0.029039264 -0.12638341 -0.013780847 -0.13789576 0.018451825 -0.06964236 -0.12139389
-0.0972008 -0.022452146 -0.123208724 -0.03471399 0.013636127 0.027939409 0.06262116 -0.1511244
0.08523996 0.13748021 0.09415321 -0.11048634 -0.012480959 0.026772812 0.032309577 -0.11598846
-0.15180093 -0.032850258 0.13337399 -0.14159368 0.0142240375 -0.14177242 0.04058191 -0.11673325
0.071431965 -0.07855882 -0.08659398 -0.1280055 -0.0710113 0.06038399 0.1351126 -0.13114066
0.02404508 -0.037721872 0.0411852 -0.14478777 -0.14511923 -0.024511263 -0.14241657 0.1305824
-0.011337712 0.10592128 -0.118082955 -0.08757054 -0.09397575 -0.100804 0.061597914 0.05794312
-0.08737833 -0.004777074 -0.06699988 -0.0562902 0.060567707 -0.11100136 0.033833966 0.023623288
-0.08977899 -0.09509565 -0.10027756 -0.115028836 -0.0944193 0.12265451 0.09019622 0.06527229
-0.107867375 -0.12717998 -0.1274952 0.022467986 0.15045188 -0.022896096 -0.15004443 0.11283524
-0.03718338 -0.016414702 0.014467269 -0.09939742 0.00984481 -0.001968205 0.14447777 0.08939847
0.11916755 -0.06961472 0.14984272 -0.07935014 0.037455603 0.14159967 0.14139976 -0.10067771
-0.049147323 -0.024313942 0.039813593 -0.046611756 0.12859382 -0.011663318 0.0435576 0.031206101
-0.035797723 -0.046055168 0.0044802576 -0.03216993 0.0057046264 0.06490806 0.0010449588 0.069910735
-0.074855864 0.013176009 -0.009263724 0.1378266 -0.07314477 -0.1335603 -0.0342246 0.04586847

StatefulPartitionedCall/sequential/dense_8/MatMul/ReadVariableOp:0 f4 [542, 128]
00000000: 5802 8e3d 9892 683c 4034 213b 2c52 7a3d
00000010: 1a49 333d dcd8 193d 388b 7e3c a89c 4cbd
00000020: f03a 313d 50fc 813d 63a1 15bd f6f9 83bd
00000030: f080 b53c 0898 a7bc 7ca2 833d ee0a 833d
00000040: f842 733d 60ef a6bc 6e7d 8ebc 3497 573d
00000050: b4df 503d 2030 623d b2e7 423d 2069 333b
00000060: 2cf3 f53c d875 353c ac01 68bd 78e2 fe3c
00000070: f414 343d ccb4 623d f2cf 233d 34f7 933c
00000080: 0c05 d93c 34e7 4f3d 28d3 4bbc 188d 95bd
00000090: de37 983d 08cb 003d 10e4 bb3b d485 8cbc
000000a0: a384 5fbd 6446 933c 6036 c63b 7af9 383d
000000b0: 6a84 483d 1a40 853d ce4a bdbc e60a 7abd
000000c0: 18aa 43bd b6f7 f6bc b0ec cc3b 60fb 293b
000000d0: 6657 883d c83c 923c a0ca da3b 0c4f 7a3d
000000e0: f6dc 423d c0de 0c3d 9aeb 3ebd 60f1 293d
000000f0: 1899 2cbd 8ee5 053d e829 963c b418 753d
00000100: 08e0 473d 3833 283c 003c 823d b08c eebb
00000110: 5ee3 23bd 40fc 92bc 149d c23c d98f 1bbd
00000120: 7493 473d a05d 253b ac21 913c 201b ad3b
00000130: 40ec 03bb 0e0b 87bd 5ea8 f5bc 75ce 8ebd
00000140: a0cd da3c e51b 25bd 2029 6c3c e26e 463d
00000150: b37a 58bd 3858 5ebd c421 a13c 738a 3bbd
00000160: da3c 3a3d 8ce8 74bd 18b4 7ebd 24da 563d
00000170: e2dd 2a3d 528e 923d a831 22bc 507f 21bc
00000180: 244c 473d 38b6 c3bc e314 42bd 6eef 3d3d
00000190: a12e 7fbd d3bf 88bd f009 1dbd d862 543c
000001a0: bf44 22bd ca8f 4c3d aa71 64bd 6082 3c3c
000001b0: 5ea2 7dbd 885a 00bc b6f7 2c3d dcae 973c
000001c0: 669f 113d 6689 013d aeb8 3ebd b44e 5b3d
000001d0: 009c ca3b a87e 153d 9a13 48bd 70ba 063c
000001e0: c8a2 843d 5427 f53c 04a9 a23c 3624 843d
000001f0: 0e91 edbc 5801 473c 1467 3c3d f0d6 613c
00000200: ce44 8a3d 00a1 943a 3469 8cbd 60f6 77bb
00000210: 7cd8 81bd 7c7b 80bd d45e 6dbc 6b57 11bd
00000220: 945d 0b3d b426 80bc bc3f 8e3d 3cf3 7e3d
00000230: 22a7 3cbd 60c4 b33c 1ef8 21bd 4e85 8cbd
00000240: 9464 1f3d 746c 043d 08fb f93c d065 1bbd
00000250: 9ee5 283d 7043 e9bc d0ca 86bc 200b 0dbc
00000260: 1024 643d 8efd 903d 404c 663d 0898 05bd
00000270: c0d7 933a b084 d2bb 92a7 803d 6c5b 38bd
00000280: f867 3cbd 8ee2 b6bc 924b 8bbc c6f0 2d3d
00000290: 1b1b 0dbd 8010 643d e083 943b ce08 8f3d
000002a0: 3946 83bd 90c7 103c 3acf 073d 5468 cf3c
000002b0: 7834 0d3c 9ed1 103d 1f15 1fbd 8c73 be3c
000002c0: 60f9 5c3d fabb bfbc 1ae8 213d 8622 d3bc
000002d0: 4014 4abc b0b2 dc3b 3aad 83bd 4202 44bd
000002e0: a41a 3a3d 3c45 a9bc 5861 72bd 96b1 8fbc
000002f0: f8e0 5c3c 24bc 07bd e089 bb3b 4077 f03b
00000300: 60e0 b93c e97f 2cbd f8bf 0d3c e6f3 d9bc
00000310: 168a 4e3d 2ea9 53bd 3042 953c 2e4e 123d
00000320: d048 813b c051 2d3c 060b 463d 7f39 3ebd
00000330: 36ff 843d 802f 053a 8d22 1fbd b47e 8c3d
00000340: e68e 103d c00e 893c 8826 0e3d e025 133d
00000350: 80ad 5e3c 7c1d 28bd c07f 93bd df9e 2abd
00000360: 8076 963c 988e 883c 4070 90bb 947e d13c
00000370: 9d23 62bd b8dd 4f3c da74 66bd 2e1e 8bbd
00000380: 38c5 4abd c45d 593d b0de 793d becc b1bc
00000390: 6f93 95bd 302a 333d b8d2 7c3c 6ad0 4a3d
000003a0: a19b 02bd dcb3 0b3d 1084 c83b 0468 673d
000003b0: 78b0 723c 4f4e 28bd 8203 293d 7897 8a3d
000003c0: 083f 94bc 86a3 42bd 2e43 4dbd b0a1 d73c
000003d0: af95 1fbd ceae 133d d0fa 0d3c ab33 8abd
000003e0: d0e8 d63b f8b6 dabc e603 a4bc a86b 323d
000003f0: 6a87 143d f80b 6d3d deca 81bc 3dfe 97bd
0.06934041 0.014195107 0.0024597794 0.06111352 0.043770887 0.03756033 0.015536122 -0.049954087
0.043269098 0.06346953 -0.036530863 -0.06444161 0.022156209 -0.020458236 0.06427476 0.06398569
0.05939004 -0.020377815 -0.017393794 0.052634433 0.05099459 0.055221677 0.047584243 0.0027375892
0.03002318 0.011075459 -0.05664222 0.031113848 0.043965295 0.055348203 0.039993234 0.018062212
0.026491664 0.0507576 -0.01244048 -0.07302302 0.07432531 0.031443626 0.0057339743 -0.017153658
-0.05456985 0.0179779 0.0060489625 0.045159794 0.048954405 0.06506367 -0.023106959 -0.06104555
-0.047769636 -0.030147415 0.0062538013 0.0025937185 0.06657295 0.017851248 0.006676987 0.06111054
0.047574006 0.03439212 -0.046611406 0.04148996 -0.04213819 0.032689624 0.01833053 0.05983801
0.048797637 0.010266118 0.063591 -0.007279955 -0.040011756 -0.017942548 0.023756541 -0.03797898
0.048724607 0.0025232807 0.017716251 0.0052827746 -0.002012983 -0.065939054 -0.02998751 -0.06972972
0.026709378 -0.040309805 0.014414102 0.04844559 -0.05285139 -0.05428335 0.019669421 -0.045786332
0.04546819 -0.059792086 -0.06218347 0.05245413 0.04171551 0.07156052 -0.009899534 -0.009857014
0.048656598 -0.0238906 -0.0473832 0.046370916 -0.06230033 -0.066772126 -0.038339555 0.012963019
-0.039616343 0.049941815 -0.05577246 0.011505693 -0.061922424 -0.007834084 0.042228423 0.018515997
0.035552405 0.031625174 -0.046562843 0.053541854 0.0061831474 0.036497742 -0.04884682 0.008223161
0.064763606 0.02992598 0.019855984 0.06452219 -0.028999832 0.0121463165 0.04599674 0.013784155
0.06751405 0.0011339486 -0.068560034 -0.003783606 -0.06340119 -0.06273553 -0.014487941 -0.03548376
0.03402479 -0.015643455 0.0694575 0.062243685 -0.046057828 0.021944225 -0.039543264 -0.06861363
0.03891428 0.03232999 0.030515209 -0.037938893 0.041234605 -0.02847454 -0.01645413 -0.008608609
0.055698454 0.07079612 0.05622506 -0.03261569 0.0011279508 -0.006424509 0.062819615 -0.04500906
-0.04599759 -0.022324827 -0.017003808 0.042465948 -0.034449678 0.055679798 0.0045323223 0.06984101
-0.06409878 0.008836642 0.03315661 0.025318302 0.008618467 0.035356157 -0.038838502 0.023248456
0.05394876 -0.023405064 0.03952799 -0.025773298 -0.01233393 0.0067351684 -0.06429525 -0.047853716
0.045435563 -0.020662896 -0.059174865 -0.017540734 0.013481371 -0.03313841 0.005723223 0.0073384345
0.022689998 -0.042114172 0.008651726 -0.026605558 0.050424658 -0.051675014 0.018220037 0.03571909
0.0039454475 0.010578573 0.048350357 -0.04644155 0.0649399 0.00050806254 -0.03885131 0.06860104
0.03529253 0.016730666 0.034704715 0.035924792 0.01359117 -0.041043743 -0.07202101 -0.041655418
0.018367052 0.016669556 -0.0044079125 0.025573052 -0.055209745 0.012687139 -0.056263782 -0.06792866
-0.04950449 0.053067937 0.061003387 -0.021704074 -0.07303511 0.043741405 0.015431099 0.049515165
-0.0318867 0.034107074 0.0061192587 0.05649568 0.014812581 -0.041090306 0.04126311 0.067671716
-0.018096462 -0.04751923 -0.050112896 0.026322216 -0.03896111 0.03605538 0.008665755 -0.06748136
0.006558515 -0.026698574 -0.02002139 0.0435597 0.036261953 0.057872742 -0.015843805 -0.07421539

StatefulPartitionedCall/sequential/dense_11/MatMul/ReadVariableOp:0 f4 [128, 122]
00000000: d271 34bd 20c9 833c 004e 9cbb 9de9 9bbd
00000010: 1e31 b03d 5343 173e 582b 743d 62be f5bd
00000020: c645 d13d 054c 12be f0b1 863c 1c3f 5bbd
00000030: c009 4a3d e21b e73d 37aa 0d3e 4573 95bd
00000040: 029d c3bd 24dd f9bc 5090 f53c e073 4dbc
00000050: 7bed 013e 8840 63bd 0cf8 663d 9a3d dd3d
00000060: 80e2 8ebb 68b9 393d bf49 fbbd b8a8 a43d
00000070: 1976 a4bd be0a d0bd e827 96bc 4052 efbc
00000080: 2085 7abc 799c 123e eee3 15be 8e38 8b3d
00000090: 4e83 fc3d 60cd b03b 176b c6bd 7cbc 47bd
000000a0: f4da f3bd 6afe f5bd 2c3a 25bd ce4a a33d
000000b0: 3c57 fabc 2227 f53d cf48 133e ae71 f53d
000000c0: a4bc 79bd 47b8 18be 98dc 06be cee8 bfbd
000000d0: 63f1 8cbd be05 76bd 7abd 05be 0fa0 0d3e
000000e0: bcc7 fcbd a03b 1f3c 268e 5bbd 2c1e c9bd
000000f0: 4e3a da3d 4017 dfbd 745f 7a3d b51b 1b3e
00000100: 8038 fc3b fb52 1a3e dcbf 0e3d 0a96 09be
00000110: 9619 10bd 8025 c53d 3853 bd3c 000d c83c
00000120: 8ad7 eb3d ac4a 663d a454 693d 40fa 3abc
00000130: 5f7e 00be 0475 2f3d d478 8e3d b9c2 0e3e
00000140: 20a2 ba3d bc74 fcbd 80e8 f23c 9015 c9bc
00000150: 1092 013c d88d 9f3c 5847 483d a043 9c3c
00000160: f06e 693d 30dc 383d 095e 053e cf4c 013e
00000170: 3c09 543d 85aa 1b3e 12c6 0ebe 361e c53d
00000180: 9cee 9d3d 7b60 113e fe18 5bbd a686 943d
00000190: 9516 143e 71f2 11be 18f3 01be 3393 103e
000001a0: 2722 1b3e fdc7 033e 8c5c 4c3d d775 0dbe
000001b0: 00c1 333d 440e c13d 0078 83ba 06c0 e9bd
000001c0: 4ea7 fd3d f4ba 143d de35 b43d 347f f4bc
000001d0: feae d43d 3018 4e3c b2a5 fe3d c3b2 09be
000001e0: b545 063e 1b27 1a3e 396b 143e 6dbb 0e3e
000001f0: ed3e e7bd bf2e 06be dded b4bd de4b bd3d
00000200: e022 383c 80a1 5ebb c0ae 85bc e3a2 07be
00000210: 1d31 10be 20c7 033c 32cb 31bd 4593 023e
00000220: 709e 8dbc d1be 1b3e 00e0 c2bc 8edc d73d
00000230: f0f9 1f3d ce0c c8bd f8cc ccbc b332 0c3e
00000240: a870 b13c d946 1c3e 0010 b8bc f0bc 373c
00000250: 6eac 0bbe 01aa 183e 3a52 9b3d 9456 e9bd
00000260: 0050 c838 b31b 163e 2ea0 aa3d 18a6 d6bd
00000270: eb57 063e 47f8 143e 8c6c 5b3d 6fcd 073e
00000280: 886d 9d3d 4015 a8bb 66e2 c73d 9641 52bd
00000290: 6800 153d fc6b 8abd 78fe 91bc bae7 11be
000002a0: dce8 493d 9471 373d 92c4 a7bd a0a4 783c
000002b0: dc14 073d 64e7 193d ff36 133e 6260 acbd
000002c0: bafb fa3d e25d c63d 2cbc 1c3d 38b4 ddbc
000002d0: 4c1a b3bd 185c c83c fd06 cebd 30e7 07be
000002e0: 883b 943d 8261 e53d 960e 9e3d eb5b 03be
000002f0: 8cf4 b13d 8388 aabd e7e8 a6bd 62d2 6abd
00000300: a848 0cbd de20 f5bd c2ad f33d a068 1b3c
00000310: 60c6 893d 926d 06bd 0010 263d 0a68 e63d
00000320: 10d4 113d 1aa2 2ebd 108f 873c 163b dc3d
00000330: 0dde d8bd dfe7 19be 322c dcbd 40ae 353b
00000340: 10c8 d93c 1ece f73d c86c c8bc 0b67 acbd
00000350: dfa9 0c3e cae5 88bd 307a f4bd e0b6 25bc
00000360: 40bc 683b 80da 763d 1460 99bd 42de c13d
00000370: fed5 03bd 6ea1 c73d da3f c13d 4037 3abb
00000380: a0fc 43bc 4bec 1b3e e395 0b3e f0c9 ebbd
00000390: 4ada 8e3d d6a7 d2bd 3db7 d0bd c87d e03c
000003a0: ea71 1abe a01a f93b f426 d8bd b7f3 10be
000003b0: 000e 583b 4ef0 da3d 0039 00bb cc3a 6b3d
000003c0: e04d e83c bfd8 9ebd 9653 66bd 803a 0cbc
000003d0: ba24 18bd dc21 663d a276 a03d 106e 9dbc
000003e0: 0aa9 813d 52b7 b03d 196c 073e 34e2 4d3d
000003f0: b8c1 70bd 68db 8ebc fe4f c23d 42aa d3bd
-0.04405386 0.016087115 -0.0047700405 -0.076129176 0.08603118 0.14771776 0.05961165 -0.11999203
0.10218386 -0.14286812 0.01644227 -0.053526983 0.049325705 0.11284615 0.13834463 -0.072973765
-0.09551431 -0.030500956 0.02997604 -0.012539834 0.12688248 -0.055481464 0.0563889 0.10802765
-0.004360497 0.045342833 -0.12269925 0.08039993 -0.08030338 -0.10158299 -0.018329576 -0.029214025
-0.015290529 0.14317502 -0.1463773 0.06797896 0.12329732 0.0053955764 -0.096883945 -0.048763737
-0.11906996 -0.12011416 -0.04033868 0.07973252 -0.030559175 0.119703546 0.14383243 0.11984573
-0.060970917 -0.14914046 -0.13170087 -0.09370576 -0.06881978 -0.06006407 -0.13060561 0.13830589
-0.12342784 0.009718806 -0.05360236 -0.09820208 0.10655652 -0.108931065 0.061126187 0.15147288
0.007697165 0.15070717 0.03485094 -0.13436142 -0.03518065 0.09626293 0.02311097 0.024420261
0.1151572 0.056223556 0.056965485 -0.011412203 -0.12548207 0.042836204 0.0695664 0.13941468
0.09112954 -0.12326953 0.02965188 -0.024546415 0.007908359 0.019476816 0.048896164 0.019075215
0.056990564 0.045131862 0.13024153 0.12626956 0.05176662 0.15201767 -0.13942745 0.09624903
0.07711527 0.1419696 -0.05349063 0.07252245 0.1446174 -0.1425264 -0.12690389 0.14118652
0.15149747 0.12869258 0.049892947 -0.13814484 0.04388523 0.09426549 -0.001003027 -0.11413579
0.123854265 0.036311105 0.08799337 -0.029845811 0.103849396 0.012579009 0.124339476 -0.13447098
0.13112529 0.1505398 0.14494027 0.13938685 -0.11291299 -0.1310377 -0.08834431 0.09242986
0.011238784 -0.0033970773 -0.016318679 -0.1324573 -0.14081235 0.008043081 -0.043406673 0.12751491
-0.017287463 0.1520951 -0.023788452 0.10540114 0.03905672 -0.09768067 -0.02500008 0.13691215
0.021660164 0.15261401 -0.022468567 0.01121448 -0.13639995 0.14908601 0.07584043 -0.113934666
9.551644e-05 0.14659004 0.08331333 -0.104808986 0.13119476 0.14547835 0.053570315 0.1326196
0.07686907 -0.0051294863 0.09759979 -0.05133208 0.03637734 -0.06758878 -0.017821535 -0.14248553
0.049294338 0.04478605 -0.0819179 0.015175968 0.032978877 0.037574187 0.14376448 -0.08416821
0.12255044 0.096858755 0.038265392 -0.027063474 -0.0874525 0.024457976 -0.10059927 -0.13271785
0.07237917 0.11200239 0.07717626 -0.12828033 0.08689222 -0.08326819 -0.08149891 -0.057329543
-0.034248978 -0.119691595 0.11898376 0.009485394 0.0672729 -0.03281934 0.040542603 0.112503126
0.03560263 -0.04263506 0.01654771 0.10753457 -0.10589228 -0.15029858 -0.10750617 0.002772227
0.026584655 0.120998606 -0.024465933 -0.084180914 0.13736676 -0.06684454 -0.11937368 -0.010114402
0.0035512596 0.06026697 -0.074890286 0.094662204 -0.0321865 0.09747587 0.09436007 -0.002841428
-0.011962086 0.15226857 0.13631396 -0.11513126 0.06975229 -0.102859184 -0.101912 0.027403727
-0.15082517 0.007602051 -0.10554305 -0.1415547 0.003296733 0.10690366 -0.0019565225 0.05742912
0.028357446 -0.07756185 -0.056232058 -0.008558869 -0.0371444 0.056184635 0.078351274 -0.019217521
0.0633107 0.086287156 0.1322483 0.050264552 -0.058778495 -0.017438605 0.094879135 -0.103352085

StatefulPartitionedCall/sequential/dense_10/MatMul/ReadVariableOp:0 f4 [128, 128]
00000000: 419e 06be d738 e7bd 9043 45bd 2803 093d
00000010: 6ebe d03d bf41 99bd f8eb d6bc 4428 a73d
00000020: 8c8e 043d 56a1 7fbd 8072 2d3c 4718 123e
00000030: 403d 6c3b 499e 013e ab12 0f3e bf62 1c3e
00000040: f01b f6bd 4e3c cabd 6ccf a7bd 8e2a 84bd
00000050: 985b 413d 001e 71bb eb9d 163e f894 e53c
00000060: 746c 3fbd a3c0 d8bd a078 4f3c 8f29 013e
00000070: 08ef ae3d 94d1 fbbd cc74 653d c6d5 8abd
00000080: d063 22bc 1a2f a63d 14e4 08be f44e 113d
00000090: b106 093e d807 e8bd 28c1 4bbd f0ee 18bc
000000a0: 6e0d eebd 3ec4 a33d 9ce1 1d3d b010 d7bd
000000b0: 31c3 90bd 033b 82bd 44d0 96bd c679 953d
000000c0: aaaa afbd 72d1 f03d 9043 713c cca8 c33d
000000d0: c8e9 b03d 049e 563d a333 0cbe 867e fdbd
000000e0: 53d1 f1bd 001a 4abc 20b1 4f3d df72 003e
000000f0: 58b0 8c3d 5305 19be 087d 1cbe 64f5 18be
00000100: 2a7e 1fbd e222 a5bd 96a5 51bd ac23 7abd
00000110: d461 503d 00e6 013d 98d5 4e3d fe7d ff3d
00000120: 1048 523d e13b 113e e095 383c 18ba a03d
00000130: 50f7 433d 71fa 1a3e 9c36 79bd 78b4 993d
00000140: 5836 fc3c a2ab 42bd 0662 a0bd dbef ecbd
00000150: 9081 8b3c 94ae 86bd 4478 1b3d 081d 0d3d
00000160: d5a9 fdbd 0582 0c3e 6e51 02be a85b edbc
00000170: 3ab7 fdbd ae7a 60bd d8ae 7e3d a495 56bd
00000180: 7644 8f3d b071 f0bc 86d5 a33d 7712 0dbe
00000190: a27e df3d 3f5b 02be 6c31 bf3d c067 533d
000001a0: 607f 58bc 37a9 14be 4ecc 94bd 7058 f3bd
000001b0: d860 a43c b70c efbd 806d be3a 578e 123e
000001c0: db42 1b3e c83b 95bc 0098 fcb8 951d 08be
000001d0: 6454 313d d09f b3bc 9c73 8f3d 6441 4ebd
000001e0: d116 e9bd 3061 c7bd acd9 95bd 1f7e 1b3e
000001f0: 800b dd3c c5ed 0d3e 782e e03c b8b5 b33c
00000200: 7071 4d3c 1d09 043e f356 debd dad6 87bd
00000210: 4ab2 e03d cf2f 183e 86e7 17bd b0a9 71bc
00000220: a9ec 0bbe acfe cebd 5a23 a43d ab3e 163e
00000230: c528 c1bd 2806 debd 3157 b3bd befc bdbd
00000240: a98c 05be b8ef 4d3d 5d8f aebd 7067 d0bd
00000250: 830a 173e 8503 0ebe 80da 6a3d a99f 083e
00000260: 00c9 e3bc 06ec 9d3d baca d73d 90d2 b13d
00000270: c0f5 06bc 94ad 553d 7e3a fbbd 9ffc 8cbd
00000280: 9494 253d b9dd 083e 6024 eebd 16d6 9e3d
00000290: d045 13be ba3b c23d 4e91 16be a84e 9cbd
000002a0: f2d1 d13d 9ee7 a2bd 4439 8fbd b6ac e9bd
000002b0: d8e2 a7bd e021 0bbc 1a69 81bd 38fc f0bd
000002c0: 02d2 9c3d f073 053c e060 963d 268a e53d
000002d0: 36d1 913d 05ad febd b460 87bd 5055 73bc
000002e0: aa11 ed3d 8124 00be 4036 dc3c 3aed e53d
000002f0: bac7 8abd 5adb fa3d 58f5 7b3d bf63 b7bd
00000300: 8853 913c 986b ef3c 1ad8 803d a8e6 b53d
00000310: 00ca 843d 80d9 cabb 0b05 93bd 4636 d23d
00000320: 32df bb3d f9a1 163e 047d b43d 5235 1abd
00000330: dc35 4d3d 5833 e73c fe7b d43d f29d aabd
00000340: d829 fa3c 60e5 a93c 0048 723a a362 1c3e
00000350: 0595 073e 18cd d4bd 3ec2 e3bd 387d 52bd
00000360: 2620 8c3d b009 56bc 8064 6e3b 2070 83bd
00000370: d0dd f2bd a053 8cbd 0a00 f6bd 4de4 b1bd
00000380: e081 a3bc f259 6bbd 802e dabb b0cf 1c3d
00000390: 2828 dfbc 9811 f13c c087 e93b 5143 1a3e
000003a0: beee fdbd 0621 d1bd d41d 463d e647 ee3d
000003b0: 4a5d 863d c527 023e 8b8f 093e 202f 003d
000003c0: 2636 9f3d da2f f9bd 766f e73d c62c d03d
000003d0: 961c e33d d691 bcbd 18f8 d33c a131 043e
000003e0: a01b cb3c 9054 36bc d699 f43d e01b 7f3d
000003f0: baa2 da3d 40cb 563d 52b1 a33d f0be e6bd
-0.13146307 -0.11290138 -0.048160136 0.033450276 0.101925716 -0.07483243 -0.026235566 0.08161977
0.032362506 -0.06240972 0.010586381 0.14267074 0.003604725 0.12658037 0.13971965 0.15272044
-0.120170474 -0.098747835 -0.081938595 -0.06453429 0.04720649 -0.0036791563 0.14708678 0.028025135
-0.04673429 -0.105836175 0.012663037 0.1261351 0.08541685 -0.12295833 0.05601959 -0.06779055
-0.0099114925 0.08114453 -0.13368255 0.035475686 0.13381459 -0.11329621 -0.049744755 -0.009334311
-0.11623655 0.079964146 0.038545236 -0.1050123 -0.0706848 -0.06358912 -0.07363942 0.07298617
-0.085774735 0.117586985 0.014725581 0.0955368 0.0863834 0.05239679 -0.13691573 -0.12377648
-0.118075036 -0.0123353 0.05070603 0.1254382 0.068695724 -0.14943437 -0.1528207 -0.14937359
-0.03893868 -0.08063294 -0.051183306 -0.061069176 0.050874546 0.031713486 0.050496668 0.12475203
0.051338255 0.14182998 0.011266202 0.078479946 0.047843277 0.15134598 -0.060843095 0.07505125
0.030787632 -0.047526963 -0.078311965 -0.11569186 0.017029554 -0.06576267 0.03795649 0.034451514
-0.123859085 0.13721474 -0.12726375 -0.02897437 -0.12388463 -0.054804496 0.062178463 -0.052388802
0.0699548 -0.029351085 0.07999711 -0.13776575 0.10912825 -0.1273012 0.09335598 0.051612616
-0.013213962 -0.14517675 -0.072655305 -0.118821025 0.02006571 -0.11672347 0.0014528483 0.14312111
0.15162222 -0.018216982 -0.000120446086 -0.13292535 0.04329337 -0.02192679 0.070044726 -0.05035533
-0.11381305 -0.09735334 -0.07316908 0.1518483 0.026983023 0.13860233 0.027365908 0.021937236
0.012539253 0.12894101 -0.10856428 -0.066327766 0.10971506 0.14861988 -0.037086032 -0.014749929
-0.13664497 -0.101071686 0.08014555 0.14672343 -0.09431604 -0.10841018 -0.08756865 -0.09276722
-0.13041939 0.05027744 -0.08523438 -0.10175979 0.14750104 -0.1386853 0.057337284 0.13342156
-0.027805805 0.077110335 0.10536714 0.0868274 -0.008237302 0.05216749 -0.12267016 -0.06884121
0.0404249 0.1336583 -0.11628032 0.077556774 -0.143821 0.09484048 -0.14703867 -0.0763219
0.10245122 -0.07954334 -0.069933444 -0.11409895 -0.08197564 -0.008491963 -0.06318875 -0.11766857
0.07657243 0.008145317 0.07342696 0.1120799 0.07119982 -0.124353446 -0.066102415 -0.014851883
0.11575635 -0.12513925 0.026881337 0.11226888 -0.06776376 0.12248869 0.061513275 -0.08954572
0.017740026 0.02922611 0.06291218 0.08881885 0.06483841 -0.006190479 -0.07178696 0.10264258
0.091734305 0.14710225 0.08812907 -0.037648506 0.050100192 0.028222725 0.10375212 -0.08330907
0.03053753 0.020739257 0.0009242296 0.15272002 0.1324044 -0.10390681 -0.11121033 -0.05138895
0.06842069 -0.013063833 0.003637582 -0.064178705 -0.118587136 -0.06851888 -0.12011726 -0.08686123
-0.01995939 -0.057458825 -0.0066583753 0.038284004 -0.027240828 0.029427335 0.0071267784 0.15064742
-0.12399052 -0.10211377 0.04836829 0.11634807 0.06560762 0.12710483 0.13433664 0.031294942
0.07774 -0.1216733 0.11300556 0.1016479 0.11089437 -0.092075035 0.025875136 0.12909557
0.024793446 -0.01112856 0.119434044 0.062282443 0.10675569 0.052439928 0.079928055 -0.11266887
