examples/emulator-training/scripts/saved_model/levoutput_bigru_gru_24.onnx (onnx, 74096 bytes, 16 tensors)

StatefulPartitionedCall/model_1/dense_surface/MatMul/ReadVariableOp:0 f4 [25, 24]
0.4569405 0.01848864 -0.15922835 -0.12929143 -0.84965783 -0.6319934 0.30321103 0.42012998
0.714637 -0.4800819 -0.46798122 -0.36515284 -0.61943704 0.8767897 0.12691742 -0.84302807
-0.5664878 0.24607393 -0.1702189 0.03886419 -0.8557624 0.5282521 0.57296944 -0.4313133
0.25244558 -0.3454324 -0.0708109 0.22646917 -0.0053241523 -0.5728197 -0.0107168425 0.13402969
-0.26227015 -0.100503504 -0.27884033 0.18825111 0.030944694 0.60268235 -0.29237634 0.35958308
0.23390204 -0.17509472 -0.5156604 -0.045704868 -0.41935366 0.16552323 -0.19631372 0.0328369
0.23573719 0.2525369 0.22288151 0.34475562 0.05353782 -0.21532302 -0.1527564 0.098877765
-0.35768676 0.27862158 0.2710742 -0.14080799 0.41414395 -0.37293142 -0.42726618 0.109586425
-0.23382479 -0.084927045 -0.16216978 0.040628154 0.36390114 0.3058043 -0.3551313 -0.19201694
-0.21624257 -0.09430523 0.37683442 -0.42608446 0.4233792 -0.4741271 -0.05099503 -0.12707402
-0.54726774 0.099915504 0.28235978 0.054113396 0.1628725 0.55679595 -0.012525097 0.43168843
-0.18844447 0.1731227 -0.4968209 0.3324597 0.7571518 0.16721505 -0.08282877 0.49770308
-0.08250069 0.34209508 -0.06424995 -0.10109561 -0.3047727 0.43301713 -0.22006366 -0.113433406
0.07008311 -0.18811972 0.2899313 0.04520335 -0.19984108 -0.20990553 -0.0024386246 0.12746544
0.017153267 0.04953665 0.0960997 -0.14194736 0.1859394 0.23484929 0.034111124 0.03671808
-0.3422595 0.19709297 0.29570693 0.41218948 -0.050515965 -0.068817064 -0.09486864 -0.104964584
0.2043447 0.11548113 0.077454634 0.038269702 0.2647404 -0.10668817 -0.8503656 0.41813144
0.15216492 0.423566 0.023082353 0.3218506 -0.33728915 0.032690436 -0.22162166 -0.04328152
-0.037225414 0.12716772 -0.36953697 0.021786483 0.13813786 0.28953302 -0.37847558 -0.009379609
-0.25703433 0.27082083 0.3370607 0.06286946 0.23647545 -0.099277064 0.46892875 0.51983935
-0.28926855 -0.29506764 0.10269332 -0.0805349 0.13913207 -0.07855217 0.4960785 -0.2099605
0.32324353 0.19739226 0.16107967 0.46216273 -0.18635951 -0.2807297 0.24357523 -0.07032863
0.10676204 0.17819041 0.08099039 0.15705173 -0.29336828 -0.09298798 -0.45462474 -0.35981205
-0.14563741 -0.13603748 -0.23317981 -0.12621807 -0.4647747 0.35743806 -0.09171113 0.14399667
0.56164175 0.3039956 0.13951576 -0.12361027 0.29255733 -0.2196509 0.30150574 0.2518179
-0.48555544 -0.3960558 0.3214649 -0.08934595 -0.17914319 0.08521158 0.14599606 -0.3116966
0.118405454 -0.15351363 -0.0016477196 -0.1351352 0.23179501 -0.061157398 0.12149706 0.008042916
0.03197972 -0.004635285 0.17378038 0.14457425 0.26489663 -0.113865934 0.0070719966 0.2688376
-0.35464296 0.22165804 -0.35905686 -0.26784837 0.24570943 0.23634677 -0.55541617 -0.13198136
-0.36165386 0.07708675 -0.08432691 0.08412815 0.17251544 -0.34477067 -0.37116572 0.18867733
0.14039448 0.022951793 -0.34038326 -0.054080363 0.35059318 0.09373747 -0.25853592 -0.28273156
0.4129572 0.18891251 -0.19250768 -0.023029199 -0.40433875 0.09142258 0.39198288 -0.3862718
00000000: 1bf4 e93e 7d75 973c c20c 23be f964 04be
00000010: 2d83 59bf 52ca 21bf 7a3e 9b3e 471b d73e
00000020: 73f2 363f 4bcd f5be 3c9b efbe 50f5 babe
00000030: 6d93 1ebf 4a75 603f a4f6 013e b0d0 57bf
00000040: 5805 11bf cefa 7b3e dd4d 2ebe 0f30 1f3d
00000050: 3f13 5bbf 883b 073f 20ae 123f 19d5 dcbe
00000060: 8c40 813e 84dc b0be 4e05 91bd 89e7 673e
00000070: 3a76 aebb 50a4 12bf b295 2fbc 143f 093e
00000080: 4648 86be c8d4 cdbd 29c4 8ebe e6c4 403e
00000090: ba7f fd3c 6449 1a3f 5ab2 95be 461b b83e
000000a0: 0484 6f3e 084c 33be 5202 04bf 0735 3bbd
000000b0: 86b5 d6be ec7e 293e 7706 49be fc7f 063d
000000c0: 1765 713e 844c 813e 0d3b 643e cf83 b03e
000000d0: 794a 5b3d a37d 5cbe 2c6c 1cbe 6d80 ca3d
000000e0: b822 b7be 7da7 8e3e 3dca 8a3e f82f 10be
000000f0: ad0a d43e def0 bebe a2c2 dabe d96e e03d
00000100: c46f 6fbe 3bee adbd d60f 26be b569 263d
00000110: 4051 ba3e 6292 9c3e c5d3 b5be 17a0 44be
00000120: b16e 5dbe 1a23 c1bd 71f0 c03e be27 dabe
00000130: 29c5 d83e cac0 f2be 2ae0 50bd b11f 02be
00000140: bd19 0cbf 80a0 cc3d 7691 903e 02a6 5d3d
00000150: 0cc8 263e 2e8a 0e3f 1036 4dbc 4406 dd3e
00000160: 96f7 40be 1447 313e 4f5f febe 2838 aa3e
00000170: b3d4 413f 6c3a 2b3e 21a2 a9bd f0d2 fe3e
00000180: 1ff6 a8bd 1627 af3e 7a95 83bd 370b cfbd
00000190: 2b0b 9cbe 6cb4 dd3e 5e58 61be c64f e8bd
000001a0: bc87 8f3d 75a2 40be e071 943e 2627 393d
000001b0: 24a3 4cbe 7af1 56be 55d1 1fbb 4d86 023e
000001c0: 0285 8c3c f1e6 4a3d ebcf c43d a65a 11be
000001d0: e666 3e3e 557c 703e 1bb8 0b3d b365 163d
000001e0: a33c afbe bdd2 493e e666 973e 800a d33e
000001f0: d4e9 4ebd f6ef 8cbd 7d4a c2bd acf7 d6bd
00000200: bd3f 513e 5f81 ec3d 89a0 9e3d b1c0 1c3d
00000210: 0e8c 873e 547f dabd 8fb1 59bf 5315 d63e
00000220: 1fd1 1b3e a5dd d83e 3417 bd3c 9ac9 a43e
00000230: 2ab1 acbe 68e6 053d caf0 62be f747 31bd
00000240: ad79 18bd 4138 023e f333 bdbe 9179 b23c
00000250: 0374 0d3e ac3d 943e 8dc7 c1be eeac 19bc
00000260: 019a 83be 07a9 8a3e 3893 ac3e b4c1 803d
00000270: 9f26 723e c651 cbbd 6e17 f03e 3114 053f
00000280: 021b 94be 1b13 97be e050 d23d 7bef a4bd
00000290: a378 0e3e f6df a0bd 00fe fd3e e3ff 56be
000002a0: 2d80 a53e 3221 4a3e 12f2 243e 98a0 ec3e
000002b0: 07d5 3ebe cebb 8fbe c96b 793e 7508 90bd
000002c0: 0ea6 da3d 8c77 363e 4ade a53d 2bd2 203e
000002d0: 5e34 96be 7b70 bebd 93c4 e8be 4939 b8be
000002e0: f921 15be 694d 0bbe b0c6 6ebe 4f3f 01be
000002f0: f3f6 edbe 1f02 b73e 0cd3 bbbd dd73 133e
00000300: c1c7 0f3f 50a5 9b3e 38dd 0e3e 6227 fdbd
00000310: 13ca 953e 2aec 60be f65e 9a3e 47ee 803e
00000320: b99a f8be d3c7 cabe 0c97 a43e 02fb b6bd
00000330: 5071 37be 6983 ae3d fe7f 153e b296 9fbe
00000340: 8f7e f23d ad32 1dbe 4cf8 d7ba e260 0abe
00000350: ac5b 6d3e 2e80 7abd 73d3 f83d 6fc6 033c
00000360: 2bfd 023d 97e3 97bb 7cf3 313e 460b 143e
00000370: 88a0 873e 8b32 e9bd 35bc e73b 15a5 893e
00000380: c393 b5be 53fa 623e 4dd6 b7be 6c23 89be
00000390: 419b 7b3e e304 723e c12f 0ebf 1f26 07be
000003a0: b22a b9be a8df 9d3d 96b3 acbd 614b ac3d
000003b0: e3a7 303e c885 b0be 6f09 bebe a134 413e
000003c0: 92c3 0f3e 6605 bc3c b746 aebe 5f83 5dbd
000003d0: f380 b33e 6ef9 bf3d d25e 84be 31c2 90be
000003e0: 206f d33e 4872 413e bc20 45be bba7 bcbc
000003f0: 7d05 cfbe c33b bb3d fbb1 c83e 6bc5 c5be

StatefulPartitionedCall/model_1/dense_surface/BiasAdd/ReadVariableOp:0 f4 [24]
-0.022083798 0.00849844 0.11703122 0.19694097 -0.071723826 -0.2422542 0.06243898 0.027034983
-0.08294732 0.04739087 0.022219798 -0.0508387 0.04930466 -0.075923935 -0.2937913 -0.06658039
-0.10583172 -0.079274856 -0.20091578 -0.042868838 -0.117904685 0.049755987 -0.124657825 0.099495366
00000000: 15e9 b4bc 0a3d 0b3c 10ae ef3d e5aa 493e
00000010: f1e3 92bd 7c11 78be 04c0 7f3d 7878 dd3c
00000020: 49e0 a9bd ee1c 423d 4b06 b63c 3e3c 50bd
00000030: aff3 493d 027e 9bbd d06b 96be 4d5b 88bd
00000040: 4dbe d8bd db5a a2bd debc 4dbe 3c97 2fbd
00000050: 0378 f1bd efcc 4b3d 9a4c ffbd 3ac4 cb3d

StatefulPartitionedCall/model_1/dense_output/dense/MatMul/ReadVariableOp:0 f4 [24, 2]
0.25480634 -0.34908378 -0.06831821 -0.06034369 0.9614497 0.080647215 1.0216926 -0.0037836675
-0.31811842 -0.42528355 -0.050153688 -0.92878026 -0.8025745 0.11031039 -0.021038402 0.43982425
-0.52640986 -0.060321525 -0.2924466 -0.024261612 0.5446734 -0.34694874 -0.004602049 0.7223433
0.3468489 0.8298922 0.9591225 0.6648623 -0.24422239 0.1279161 -0.015602181 0.3474004
0.5369047 -0.35020238 -0.0026993135 0.1562597 0.53432393 0.20568119 -0.054632407 -0.0915889
-0.058230493 -0.006878034 -0.4726886 -0.36932254 -0.60526764 -0.40810233 0.38389355 -0.3540262
00000000: fa75 823e 1cbb b2be 6bea 8bbd f22a 77bd
00000010: 9121 763f 5e2a a53d d3c6 823f 68f7 77bb
00000020: 6be0 a2be c4be d9be f46d 4dbd 8bc4 6dbf
00000030: 8675 4dbf 6aea e13d ba58 acbc a530 e13e
00000040: ccc2 06bf b413 77bd 90bb 95be 4ac0 c6bc
00000050: b76f 0b3f 44a3 b1be c9cc 96bb 7eeb 383f
00000060: 2e96 b13e d173 543f 0d89 753f 6a34 2a3f
00000070: 6f15 7abe 70fc 023e 4aa0 7fbc 77de b13e
00000080: 9672 093f ba4d b3be f7e6 30bb 8b02 203e
00000090: 74c9 083f 179e 523e 3bc6 5fbd f692 bbbd
000000a0: 1983 6ebd 2261 e1bb 3d04 f2be d817 bdbe
000000b0: d2f2 1abf caf2 d0be b28d c43e ec42 b5be

StatefulPartitionedCall/model_1/dense_output/dense/BiasAdd/ReadVariableOp:0 f4 [2]
0.3584109 -0.10118458
00000000: a281 b73e dc39 cfbd

Func/StatefulPartitionedCall/model_1/gru_2/PartitionedCall/input/_38:0 f4 [24, 72]
0.44278276 0.1750299 0.14275713 -0.0016566897 0.35695168 0.17826355 -0.71758 0.21289548
0.109210044 -0.08872075 0.039888803 0.3565039 0.023080662 0.04915428 0.20194158 -0.27373084
0.16088703 0.008639613 0.096957274 0.8016348 -0.23696971 0.00864791 0.20857765 0.17053096
0.031853873 0.28513157 -0.22587736 0.031640124 0.5253401 0.35358784 0.2686117 -0.49477792
0.034508307 0.16971098 -0.30907696 0.070564896 0.019220855 -0.140643 0.3861595 0.06610105
0.4415649 0.37021405 0.14759634 0.1753229 0.34110576 0.1737954 0.8522092 0.17528373
0.28024775 0.121976055 -0.123353586 -0.09921225 0.0988542 0.25017536 0.022786345 0.26481616
0.091643736 0.15923323 0.11782562 -0.25509822 0.099011354 0.002739663 0.20574082 -0.23027079
0.037557583 0.13845125 -0.057701334 0.034643665 -0.1471667 0.28644618 0.012713436 0.11090265
-0.3713009 0.054035727 -0.011508535 0.18386778 -0.29228258 -0.510404 -0.96657586 -0.30668887
-0.053586427 -0.42144388 -0.36463258 -0.33110362 0.053411275 -0.31738007 -0.16120584 -0.14000322
-0.44676104 -0.177592 0.008871856 -0.47759762 0.16492632 -0.6050446 -0.08570018 0.14587487
0.16961464 0.073333904 0.5769078 0.038702108 0.5077692 0.60227776 -0.15905063 -0.2039439
0.2548633 -0.07984161 -1.2510319 0.7247629 0.26610345 -0.27231202 0.47821346 0.24442932
0.04706036 -0.16488245 -0.9440894 0.22713742 -0.15451956 0.39626563 0.37641174 -0.18852378
0.26172093 0.4573865 -0.22915272 -0.09639164 0.2055642 0.52111804 0.2600182 0.14236695
-0.23538636 0.17812774 0.08441241 -0.6657061 -0.15586506 -0.094120264 0.12753733 -0.29403228
0.25792265 -0.27049196 -0.14039283 0.3787571 -0.12862203 0.38807732 0.07863986 0.050810404
0.17703615 0.16777144 -0.5384885 -0.1959791 0.13866705 0.059029866 -0.17150354 0.46924877
-0.37949228 -0.056630436 0.27298167 0.6832647 0.31513172 0.21377152 0.1430342 0.35820252
0.10920546 0.021269055 0.09487756 0.32993236 0.1323654 0.11320921 0.3582869 -0.048574276
-0.07599558 0.0033318885 -0.47371605 0.032915313 0.12674725 0.23165302 -0.00430705 -0.008816506
-0.21213156 0.18210842 0.28689048 0.1954277 -0.2676217 0.11676094 -0.43850935 -0.27302992
-0.255244 -0.3155023 -0.44133452 -0.020174328 0.14439456 -0.07179641 0.47833037 0.06481749
0.011894092 0.085104674 0.30009484 0.13059342 0.056985404 0.083135046 -0.32348487 -0.2545547
0.016334647 0.17786188 -0.14043972 0.14705251 -0.29873547 0.289282 -0.0790496 -0.1672097
0.11133979 -0.2507333 0.14006975 -0.22359139 -0.0077229855 0.13237527 -0.39007524 0.069513984
0.10540203 0.42886063 -0.012727905 -0.16134317 0.06260675 0.8211173 -0.30733883 0.6299677
-0.053269282 0.053994752 0.49200198 0.92838293 0.40535492 0.27650952 0.045648858 -0.002242007
0.48292598 0.5520763 0.3524675 -0.24803288 0.04680963 0.34154636 0.79846245 0.19928654
0.3052622 0.35567576 -0.6980082 0.75715375 -0.18449396 0.232481 0.41589698 0.15304393
0.11618445 0.21317324 -0.13858065 0.30466607 -0.107785046 0.06725037 0.076539665 0.12509285
00000000: 6cb4 e23e 0a3b 333e ed2e 123e 4825 d9ba
00000010: 5fc2 b63e b88a 363e 53b3 37bf 4601 5a3e
00000020: 84a9 df3d 39b3 b5bd 7162 233d ae87 b63e
00000030: a813 bd3c 0056 493d c6c9 4e3e 7326 8cbe
00000040: 92bf 243e 2a8d 0d3c 8991 c63d f037 4d3f
00000050: 30a8 72be f7af 0d3c 6195 553e ab9f 2e3e
00000060: 3579 023d c4fc 913e 654c 67be 1399 013d
00000070: b07c 063f 7709 b53e 7987 893e 8853 fdbe
00000080: 9558 0d3d b7c8 2d3e 563f 9ebe 5484 903d
00000090: 0e75 9d3c b804 10be b3b6 c53e fd5f 873d
000000a0: cb14 e23e b28c bd3e 7f23 173e d987 333e
000000b0: 6aa5 ae3e 6cf7 313e 622a 5a3f 947d 333e
000000c0: a27c 8f3e 95ce f93d cea0 fcbd cb2f cbbd
000000d0: 1274 ca3d fc16 803e 6eaa ba3c fc95 873e
000000e0: b6af bb3d 090e 233e 8f4e f13d 3c9c 82be
000000f0: 77c6 ca3d eb8b 333b b9ad 523e 1bcc 6bbe
00000100: fbd5 193d 2ac6 0d3e 3c58 6cbd 84e6 0d3d
00000110: deb2 16be 13a9 923e 044c 503c ee20 e33d
00000120: 271b bebe 9154 5d3d 4b8e 3cbc d647 3c3e
00000130: 10a6 95be d6a9 02bf 8471 77bf 5306 9dbe
00000140: 717d 5bbd 7ec7 d7be 1fb1 babe 6a86 a9be
00000150: c8c5 5a3d a47f a2be 2513 25be 015d 0fbe
00000160: ddbd e4be adda 35be 435b 113c ad87 f4be
00000170: 72e2 283e 34e4 1abf 9383 afbd 3960 153e
00000180: 76af 2d3e 1630 963d 3bb0 133f 1a86 1e3d
00000190: 2afd 013f e02e 1a3f 2bde 22be abd6 50be
000001a0: 717d 823e ff83 a3bd d021 a0bf 108a 393f
000001b0: b63e 883e 7b6c 8bbe 65d8 f43e ae4b 7a3e
000001c0: 5dc2 403d f2d6 28be d8af 71bf b696 683e
000001d0: 603a 1ebe 54e3 ca3e 0ab9 c03e 610c 41be
000001e0: 4900 863e 902e ea3e 03a7 6abe fb68 c5bd
000001f0: 6c7f 523e fe67 053f 1b21 853e a4c8 113e
00000200: 1f09 71be 1e67 363e 6ae0 ac3d b76b 2abf
00000210: 179b 1fbe 20c2 c0bd 2599 023e 668b 96be
00000220: 700e 843e ec7d 8abe 23c3 0fbe 73ec c13e
00000230: 7eb5 03be 12b2 c63e ef0d a13d 921e 503d
00000240: f748 353e 47cc 2b3e 62da 09bf bfae 48be
00000250: bcfe 0d3e 4dc9 713d a09e 2fbe 6041 f03e
00000260: d04c c2be 51f5 67bd 41c4 8b3e 6fea 2e3f
00000270: f258 a13e ece6 5a3e 8f77 123e 5266 b73e
00000280: 1da7 df3d 713c ae3c 2b4f c23d e5ec a83e
00000290: cc8a 073e 3bda e73d 6171 b73e d2f5 46bd
000002a0: 92a3 9bbd d05b 5a3b e98a f2be 35d2 063d
000002b0: 08ca 013e 7336 6d3e 2722 8dbb 1b73 10bc
000002c0: 0439 59be a17a 3a3e 4fe3 923e 331e 483e
000002d0: b605 89be 5c20 ef3d 4c84 e0be 94ca 8bbe
000002e0: 57af 82be 8489 a1be 99f6 e1be a244 a5bc
000002f0: 2bdc 133e ff09 93bd b8e7 f43e 08bf 843d
00000300: 70df 423c 5c4b ae3d 08a6 993e 48ba 053e
00000310: 8769 693d b542 aa3d cf9f a5be fe54 82be
00000320: 3dd0 853c 6d21 363e 6ecf 0fbe ef94 163e
00000330: dbf3 98be c51c 943e c2e4 a1bd 0539 2bbe
00000340: 1e06 e43d 1d60 80be 726e 0f3e 24f5 64be
00000350: 1911 fdbb 628d 073e f1b7 c7be 595d 8e3d
00000360: 05dd d73d 9f93 db3e b488 50bc 2537 25be
00000370: f837 803d be34 523f 845b 9dbe 9045 213f
00000380: e430 5abd 9a29 5d3d afe7 fb3e 81aa 6d3f
00000390: ae8a cf3e a892 8d3e 4cfa 3a3d a3ee 12bb
000003a0: 1342 f73e df54 0d3f 9f76 b43e 55fc 7dbe
000003b0: 74bb 3f3d 2adf ae3e 0968 4c3f c511 4c3e
000003c0: 544b 9c3e 221b b63e aab0 32bf d4d4 413f
000003d0: fceb 3cbe 800f 6e3e 73f0 d43e 8cb7 1c3e
000003e0: 1df2 ed3d 164a 5a3e 16e8 0dbe 31fd 9b3e
000003f0: 68be dcbd 90ba 893d d4c0 9c3d 5718 003e

Func/StatefulPartitionedCall/model_1/gru_2/PartitionedCall/input/_37:0 f4 [48, 72]
-0.110686235 0.9623733 -0.862781 -1.1284916 -0.28702968 -0.6144198 -0.28227907 -0.65968466
-0.16555429 0.06561368 -0.26231954 -1.5359445 -0.7664573 -1.6806339 -0.3011057 -0.17016836
-0.13912928 -1.7443979 0.21393028 -1.1530563 -0.23640649 -0.59621763 0.08686649 -1.1231099
0.3740604 -0.41481906 2.3147666 -0.38991266 -0.96683437 -0.88817734 1.0714471 0.031560536
0.3446433 -0.170232 0.8573333 0.18052292 0.40685156 0.468757 -0.6298821 -0.76777416
-0.032617718 0.51067704 -1.3142363 0.9375042 0.16427998 -0.9595936 -0.92722267 0.4277251
-0.048473187 -0.21082005 -0.6141608 -0.22400673 -0.02225411 -0.20475195 0.04503739 0.41899297
0.29604656 -0.10440281 -0.07185427 0.14514677 -0.0054197735 -0.09711608 0.43202293 0.0024702954
0.2546899 -0.41877362 0.090743266 0.17322303 0.06736959 -0.44369796 -0.0150166 0.17050509
0.3012987 0.5808962 1.225961 -0.7853593 0.5039827 0.7860324 0.059575282 0.7774826
-0.31568992 0.33152536 1.4856124 0.4839372 0.45632958 -0.43868458 -0.042842872 0.6510386
0.7674281 0.759321 0.20325194 0.3721633 0.66073906 -0.5778149 1.5020195 0.06496046
-0.30718416 -0.23090951 -0.77020407 0.23619993 -0.0064323214 -0.4346383 0.78095824 0.17568445
0.29800472 0.45845577 0.025984362 -0.09422137 0.0042784316 0.69122106 -1.1184969 -0.067046225
-0.1335048 -1.7343688 0.10177423 1.2639294 -0.64880824 -1.5066246 0.100294404 -0.8788952
-0.03539725 -0.09231643 0.1795865 -0.28479016 0.16906585 0.08841414 0.48374677 0.15315004
-0.14287567 0.12914772 0.077356234 -0.088711895 0.04501801 -0.022410197 -0.0733452 0.19247656
0.1103455 -0.21508586 -0.0015381591 -0.63600343 0.085400335 0.1157677 0.12074811 -0.31588095
0.052011795 0.051838364 -0.07755081 -0.035667386 0.3757535 0.014108843 -0.46933934 0.18210424
0.35417652 0.2399184 0.24507077 -0.0907949 -0.33737305 0.045842905 -0.18612549 0.1639508
0.3176023 -0.00037442814 0.21209332 0.13507843 0.32562962 0.38251707 -0.29641998 0.32312518
0.16947336 0.27331403 -0.11473462 0.2857877 -0.033716645 -0.5308319 -0.14168727 0.2552359
-0.5042358 0.1191326 -0.45469925 0.17573962 -0.22641158 -0.29448417 0.55479664 0.28338382
-0.16982007 0.5489043 0.43050015 -0.18123455 -0.28601992 -0.06472515 -0.01730877 1.0602914
0.035723858 -0.10180128 -0.18164302 0.064904615 0.050226714 -0.089052185 -0.12263265 -0.21499713
0.2334286 -0.113119505 0.019009337 0.2954062 -0.035104517 -0.30081004 -0.1899571 0.25130525
-0.32474685 -0.041376065 -0.12836468 -0.092157625 -0.01608788 0.034919165 -0.1515561 0.7901257
0.105930686 0.7078048 -2.7271261 -0.34662712 0.01831216 -0.48477978 0.5162928 0.5345003
-0.18849397 0.5097729 0.5269287 -0.52511054 0.3911894 0.16499716 -0.26576132 -0.07475667
0.29338887 0.8165475 0.0794528 0.16586272 -0.23124766 0.17158121 -0.107967116 0.00723418
-0.57961714 -0.3263444 0.5406316 0.6186182 0.0023655244 0.059251722 -0.968498 -0.6137445
0.46195817 -0.8476178 -0.70143634 1.2344067 -0.6447525 0.002080687 1.0226092 0.3402677
00000000: 77af e2bd 195e 763f 37df 5cbf 6a72 90bf
00000010: 8ef5 92be 9e4a 1dbf e286 90be 18e1 28bf
00000020: 1087 29be 7760 863d bf4e 86be d499 c4bf
00000030: 8c36 44bf 031f d7bf 872a 9abe 9d40 2ebe
00000040: e877 0ebe 6e48 dfbf 8a10 5b3e 5997 93bf
00000050: 8b14 72be b8a1 18bf 0fe7 b13d 11c2 8fbf
00000060: d884 bf3e 2a63 d4be 2325 1440 a2a2 c7be
00000070: 7582 77bf 975f 63bf 2e25 893f 9f45 013d
00000080: 1675 b03e 4c51 2ebe 327a 5b3f 00db 383e
00000090: d94e d03e eb00 f03e f43f 21bf d98c 44bf
000000a0: 289a 05bd bbbb 023f e538 a8bf 4600 703f
000000b0: 0339 283e eda7 75bf 775e 6dbf c9fe da3e
000000c0: d28b 46bd 36e1 57be a439 1dbf 0562 65be
000000d0: 404e b6bc 7faa 51be 2079 383d 3f86 d63e
000000e0: 6a93 973e 24d1 d5bd 5528 93bd 5ba1 143e
000000f0: 5b98 b1bb cce4 c6bd 1c32 dd3e aee4 213b
00000100: b766 823e 7f69 d6be 9bd7 b93d 6161 313e
00000110: 11f9 893d 612c e3be 2f08 76bc e398 2e3e
00000120: d343 9a3e 9db5 143f 4aec 9c3f 4f0d 49bf
00000130: 0305 013f 6b39 493f 3605 743d 1a09 473f
00000140: 1ca2 a1be b1bd a93e 8c28 be3f 9ec6 f73e
00000150: 08a4 e93e 449b e0be 027c 2fbd 77aa 263f
00000160: 2b76 443f dc62 423f 4721 503e 308c be3e
00000170: 3226 293f adeb 13bf 2d42 c03f fd09 853d
00000180: 3e47 9dbe 8b73 6cbe 182c 45bf 65de 713e
00000190: 39c6 d2bb e988 debe e1ec 473f a0e6 333e
000001a0: 1394 983e b7ba ea3e 28dd d43c 22f7 c0bd
000001b0: 1632 8c3b ddf3 303f e82a 8fbf 884f 89bd
000001c0: 7bb5 08be ccff ddbf 026f d03d 70c8 a13f
000001d0: 4c18 26bf 13d9 c0bf 2767 cd3d 47ff 60bf
000001e0: b5fc 10bd 6510 bdbd 86e5 373e 04d0 91be
000001f0: 991f 2d3e 7912 b53d a8ad f73e 5dd3 1c3e
00000200: 004e 12be 4d3f 043e f26c 9e3d 95ae b5bd
00000210: ce64 383d 9795 b7bc 0236 96bd 9318 453e
00000220: d2fc e13d 783f 5cbe 0e9c c9ba 1fd1 22bf
00000230: 5fe6 ae3d 9e17 ed3d c94a f73d 26bb a1be
00000240: 520a 553d 7754 543d f6d2 9ebd f717 12bd
00000250: c362 c03e c728 673c 3f4d f0be 8979 3a3e
00000260: a056 b53e 2bad 753e d5f3 7a3e adf2 b9bd
00000270: 29bc acbe c5c5 3b3d ae97 3ebe b8e2 273e
00000280: c59c a23e e54e c4b9 fe2e 593e 0052 0a3e
00000290: edb8 a63e 47d9 c33e 5cc4 97be aa70 a53e
000002a0: 6d8a 2d3e d1ef 8b3e fcf9 eabd c452 923e
000002b0: 771a 0abd 99e4 07bf 7816 11be 48ae 823e
000002c0: 9915 01bf cbfb f33d 57ce e8be 16f5 333e
000002d0: 70d8 67be a1c6 96be 2707 0e3f af17 913e
000002e0: 50e5 2dbe fe84 0c3f 846a dc3e 8d95 39be
000002f0: 3471 92be 9f8e 84bd 1fcb 8dbc a1b7 873f
00000300: 2e53 123d 317d d0bd a100 3abe b6ec 843d
00000310: 87ba 4d3d fe60 b6bd d426 fbbd 3528 5cbe
00000320: e807 6f3e 33ab e7bd 78b9 9b3c 7b3f 973e
00000330: c1c9 0fbd c603 9abe 1d84 42be 15ab 803e
00000340: 3845 a6be f379 29bd 0872 03be 23bd bcbd
00000350: bbca 83bc 6607 0f3d 8631 1bbe ae45 4a3f
00000360: 30f2 d83d b232 353f 3c89 2ec0 1c79 b1be
00000370: 6203 963c 0e35 f8be c42b 043f 03d5 083f
00000380: 9004 41be 7a80 023f cde4 063f a56d 06bf
00000390: fa49 c83e 04f5 283e de11 88be 061a 99bd
000003a0: 1137 963e 4209 513f 26b8 a23d ebd7 293e
000003b0: 30cc 6cbe fcb2 2f3e dd1d ddbd b30c ed3b
000003c0: ca61 14bf 9d16 a7be d566 0a3f c35d 1e3f
000003d0: ea06 1b3b efb1 723d 7cef 77bf 5c1e 1dbf
000003e0: c885 ec3e 7bfd 58bf 5591 33bf 0a01 9e3f
000003f0: 800e 25bf 235c 083b dce4 823f 9137 ae3e

Func/StatefulPartitionedCall/model_1/gru_1/PartitionedCall/input/_29:0 f4 [24, 72]
-0.15952706 0.23163374 -0.22806986 0.077365026 -0.51756287 0.28210774 -0.24843578 -0.008298327
0.16627203 -0.6333151 -0.57281965 0.05312002 0.55627763 0.10766669 -0.35812742 -0.7395703
-0.2452684 -0.20749477 -0.22212917 -0.14564602 -0.2326017 -0.21468788 -0.41162202 -0.054418165
0.06072685 0.02803648 -0.06457867 -0.17326692 0.15483433 -0.0675078 -0.07559488 -0.08294306
-0.25981796 0.08885477 0.32116565 -0.28187183 0.2124043 -0.11922465 0.3645782 0.42817473
-0.026640255 -0.19320765 0.16582514 -0.070529625 -0.17656474 0.28968856 -0.15270859 0.30419898
0.19405045 0.13249366 0.17838629 -0.12913105 0.02635245 0.11555326 0.023440966 -0.04483009
-0.13090011 -0.3755501 0.09257482 0.15896049 -0.270638 -0.14628811 -0.028668359 -0.2971626
0.17726351 -0.090550005 -0.22380972 0.038494986 -0.011250393 0.035667688 -0.09313986 -0.03112537
-0.16147156 0.044311065 -0.257367 -0.37812844 -0.9619156 -0.32420918 -0.21779393 -0.58918
0.21307349 0.096616745 -0.34820297 0.47741824 0.09678309 -0.013840011 -0.60781616 0.25977182
-0.23122415 0.4309986 -0.61025333 -0.104362406 -0.05655304 0.18913348 0.4617565 -0.19730279
-0.23670167 0.04791528 0.028282272 -0.3758557 -0.26029214 -0.5518491 0.19623758 0.026913706
-0.3389983 0.1131713 -0.17180678 -0.8180934 0.013893869 -0.23236144 0.019711668 0.5130211
-0.25399607 -0.16716604 0.4282845 -0.339486 -0.362587 0.15607409 0.11757682 0.40828955
-0.15246828 -0.32268003 0.08611247 -0.21481071 0.10758624 -0.26966304 0.0917463 0.047131743
0.49052793 -0.15975541 -0.37012216 -0.15090352 -0.25356677 0.124099895 0.1490648 -0.40492815
0.35849106 0.03726913 -0.49729723 0.07982118 0.32665682 -0.0115475 0.073365204 0.023104839
-0.007580105 0.0005804023 0.033368394 -0.6747892 -0.13387503 -0.108517274 -0.45622155 -0.17708747
-0.18962838 0.24357562 -0.24958152 -0.49319777 -0.18416137 0.41284472 -0.070305616 -0.94297063
0.021224048 -0.20836018 -0.11715263 0.067073874 -0.1380268 0.02426959 -0.41008425 -0.25828594
-0.96475184 -0.27526188 -0.015489783 0.3000007 0.20889543 -0.4609616 -0.6821568 -0.3774376
-0.19771653 -0.5959117 0.34697166 0.20090863 -0.66780454 -0.26708248 0.18380061 -0.2625931
-0.6245324 0.13706885 0.09397577 0.10087395 0.017868243 -0.09819478 -0.040055458 0.4357073
0.042570945 0.15950267 -0.077882275 0.028114397 -0.006922473 0.08063707 0.07588478 -0.015147795
0.0146547975 -0.336952 0.25745204 0.07201138 -0.002931249 0.37472862 0.10011351 -0.032258842
0.23193924 0.20299946 0.24485397 -0.045209974 -0.039788246 -0.041749988 0.25450134 -0.24192253
-0.011418629 0.292217 0.22072707 -0.69152015 0.23643617 -0.4032341 -0.4180078 -0.38890806
-0.07003669 -0.11996474 -0.26159906 0.050229575 0.7292516 -0.43254462 -0.060126875 0.42997575
0.1595362 0.42100537 0.0055856057 -0.12074625 0.3509517 0.35059705 0.7719077 0.23156355
0.43475056 0.034782913 -0.27994025 -0.05377409 0.29947665 0.27030763 0.021827431 0.11518473
0.5631778 -0.22958507 -0.43791062 -0.51613826 0.010256398 0.45951614 -0.12618011 -0.15535566
00000000: 105b 23be 6531 6d3e 258b 69be 8e71 9e3d
00000010: 007f 04bf 6d70 903e f365 7ebe b5f5 07bc
00000020: 3743 2a3e f020 22bf 4fa4 12bf 6194 593d
00000030: 3668 0e3f 5b80 dc3d 7a5c b7be 7b54 3dbf
00000040: a427 7bbe 8279 54be d475 63be 3b24 15be
00000050: 242f 6ebe 24d7 5bbe 1fc0 d2be 95e5 5ebd
00000060: b8bc 783d c3ac e53c d241 84bd e26c 31be
00000070: e48c 1e3e 8841 8abd 7dd1 9abd 0dde a9bd
00000080: dc06 85be 7df9 b53d d36f a43e 8151 90be
00000090: 8380 593e 0e2c f4bd fea9 ba3e b839 db3e
000000a0: aa3c dabc 3ad8 45be 11ce 293e d671 90bd
000000b0: 63cd 34be 0f52 943e a45f 1cbe f8bf 9b3e
000000c0: 29b5 463e 6bac 073e e5aa 363e ee3a 04be
000000d0: 18e1 d73c 30a7 ec3d 4507 c03c c29f 37bd
000000e0: ae0a 06be 1a48 c0be de97 bd3d 8ac6 223e
000000f0: 1091 8abe 8dcc 15be e8d9 eabc b225 98be
00000100: 9184 353e 4872 b9bd 602e 65be ebac 1d3d
00000110: 9253 38bc 4818 123d 1cc0 bebd a2fa febc
00000120: cd58 25be 857f 353d 9cc5 83be 0d9a c1be
00000130: 1a40 76bf bffe a5be 5f05 5fbe 80d4 16bf
00000140: f02f 5a3e 00df c53d a947 b2be 2a70 f43e
00000150: 3636 c63d 37c1 62bc d799 1bbf d000 853e
00000160: 06c6 6cbe d9ab dc3e 9039 1cbf f5bb d5bd
00000170: 29a4 67bd 35ac 413e 596b ec3e be09 4abe
00000180: ec61 72be d042 443d 39b0 e73c 2970 c0be
00000190: 0345 85be fc45 0dbf 81f2 483e 227a dc3c
000001a0: 2f91 adbe 5bc6 e73d 1eee 2fbe 926e 51bf
000001b0: 1ca3 633c 28f0 6dbe 5d7a a13c 5a55 033f
000001c0: c60b 82be 932d 2bbe 1b48 db3e 1cd1 adbe
000001d0: 01a5 b9be e3d1 1f3e 1ecc f03d 540b d13e
000001e0: a520 1cbe 5136 a5be bc5b b03d 57f7 5bbe
000001f0: 2d56 dc3d 4611 8abe 7ce5 bb3d 370d 413d
00000200: 7a26 fb3e ec96 23be a780 bdbe 7486 1abe
00000210: 81d3 81be 1628 fe3d 71a4 183e be52 cfbe
00000220: 248c b73e 84a7 183d be9d febe 4979 a33d
00000230: 903f a73e ba31 3dbc 7f40 963d 5c46 bd3c
00000240: 8862 f8bb 2426 183a 4cad 083d fcbe 2cbf
00000250: 8916 09be 4e3e debd df95 e9be 6b56 35be
00000260: f12d 42be e36b 793e 4c92 7fbe 6b84 fcbe
00000270: cc94 3cbe 6260 d33e 64fc 8fbd 8666 71bf
00000280: 0ede ad3c 5f5c 55be b8ed efbd 075e 893d
00000290: e656 0dbe 05d1 c63c 90f6 d1be 0e3e 84be
000002a0: faf9 76bf 20ef 8cbe dcc8 7dbc b199 993e
000002b0: afe8 553e 2903 ecbe d4a1 2ebf 803f c1be
000002c0: 3476 4abe ab8d 18bf 45a6 b13e feba 4d3e
000002d0: 3df5 2abf 09bf 88be 3a36 3c3e 9a72 86be
000002e0: 5be1 1fbf c75b 0c3e 5e76 c03d 0097 ce3d
000002f0: 6c60 923c 581a c9bd 3111 24bd 0715 df3e
00000300: df5e 2e3d ab54 233e be80 9fbd 2a50 e63c
00000310: ead5 e2bb 0c25 a53d 7b69 9b3d 752e 78bc
00000320: ad1a 703c f984 acbe c1d0 833e b47a 933d
00000330: 331a 40bb 6edc bf3e 5008 cd3d d921 04bd
00000340: 7b81 6d3e 17df 4f3e 00bb 7a3e 182e 39bd
00000350: 00f9 22bd 0902 2bbd 004e 823e 8aba 77be
00000360: 3415 3bbc 779d 953e 4706 623e 7707 31bf
00000370: 531c 723e b374 cebe 1e05 d6be f51e c7be
00000380: 656f 8fbd 13b0 f5bd 50f0 85be 87bd 4d3d
00000390: 3cb0 3a3f 7d76 ddbe 9947 76bd c825 dc3e
000003a0: 755d 233e 048e d73e 7507 b73b cf49 f7bd
000003b0: f1af b33e 7581 b33e be9b 453f ff1e 6d3e
000003c0: a097 de3e 8778 0e3d 5454 8fbe 3842 5cbd
000003d0: 0155 993e c365 8a3e 71cf b23c f9e5 eb3d
000003e0: 6c2c 103f 5918 6bbe d235 e0be a321 04bf
000003f0: 730a 283c b345 eb3e 5c35 01be 8e15 1fbe

Func/StatefulPartitionedCall/model_1/gru_1/PartitionedCall/input/_28:0 f4 [24, 72]
0.48516876 0.14808954 0.040772658 -0.42968297 -0.5250446 0.15748186 0.57179254 0.035064854
1.0584999 1.2615578 0.09886019 0.35182732 0.05235097 -0.6859724 -0.005536018 0.018112315
0.2222388 0.036826413 -0.2325835 1.0318261 -0.11626301 -0.6018105 -0.5935344 -0.2620995
-0.39235485 0.2834558 -1.1960212 -1.2251289 -0.10118641 -0.43881634 0.7847348 1.1270156
-0.25379503 -0.59371465 0.20812762 0.50441545 0.46432853 0.72422665 0.14269838 0.47479612
-0.47454807 0.6288342 0.030714083 0.5748451 -0.052801434 0.68493533 0.24955437 0.3940239
-0.2516424 -0.013890384 0.27394176 -0.38736174 0.5663567 -0.025007077 -0.10209472 0.45631045
-0.68318486 -0.10580215 -0.022892209 -0.32703254 0.16046043 -0.02454601 0.5145134 1.929601
-0.22872058 0.071161404 0.056587406 -0.37461925 0.5280174 0.066828646 -0.33369055 -0.34885615
-0.41318524 0.07779611 0.122404605 1.020359 -0.16689289 -0.19714469 -0.24495344 -0.6914492
-0.097119175 -0.6251851 -0.6957826 0.06910979 -0.17794219 -0.17881809 -0.18153603 -0.30343828
0.09067963 -0.5455596 -0.3598133 0.09561167 0.119874574 0.07622749 -0.121551424 -0.0443575
0.4485795 0.1533927 0.21800321 0.098000474 -0.508993 0.2724782 -0.6128646 -0.27660084
0.40395346 1.0107758 -0.0464858 0.041618787 -0.51381123 0.15367557 -0.4702693 -0.009584468
0.35636976 -0.02216067 -0.7006567 0.16367035 0.14426745 0.11407039 -0.53469664 -0.99020976
-0.0436771 -0.46666232 -0.09084402 0.47091955 0.25617626 0.06606527 0.22515261 -0.2126568
-0.10262963 0.020722358 0.12090182 0.2205945 0.01519594 -0.027086204 0.18297996 -0.15864578
-0.16027586 -0.37493736 0.34782928 -0.062077668 -0.13449682 -0.3577908 -0.11082905 0.10176484
0.24238268 -0.18445374 -0.05754813 0.54283345 0.12968935 0.046788573 0.17783271 0.030701565
-0.58116406 -0.21125804 0.63087887 -0.49679762 0.17000036 -0.34779608 -0.20030682 -0.39830962
-0.066187955 -0.19909655 -0.027259054 -0.18254599 -0.054200765 -0.37765014 0.13622932 -0.2300673
0.38516033 -0.21625187 -0.11899999 -0.12891345 -0.0428372 -0.15113954 -0.19845502 -0.27430254
0.29634959 0.19668633 -0.07087803 -0.1108313 -0.29046452 -0.33192465 0.0997419 -0.062389668
0.13734157 0.16974373 0.69301695 0.034186468 0.02659682 -0.15923238 0.040352903 -0.055059195
-0.28955972 -0.17056169 0.24401794 0.19279303 0.015617967 0.2670386 -0.11455305 0.10901129
0.18497062 -0.19987957 -0.054572538 0.032421388 0.36906213 -0.19989796 -0.15870571 0.01411692
-0.09559757 -0.15122919 -0.012943826 -0.3459998 -0.2589437 0.33832964 -6.070496e-05 -0.106713705
-0.10636714 0.04120099 -0.32413518 0.0016527581 0.2202259 -0.459637 0.2856199 -0.3388848
-0.8518844 -0.39911467 -0.45904446 -0.5298992 0.004388167 -1.2946829 0.05492433 -0.17503452
0.008422462 -0.4776001 0.29197142 -0.6712334 0.25481278 -0.31373513 -0.0016291639 -0.13487364
0.43816167 -0.36070904 -0.25759968 -0.10891731 0.7575944 -0.12143016 -0.27614474 0.18195496
-0.5344464 0.034274813 -0.29697004 -0.017553663 -1.1168212 -0.46224028 -0.04017679 -0.33681086
00000000: 0a68 f83e c9a4 173e 3b01 273d 68ff dbbe
00000010: 5369 06bf ed42 213e ff60 123f 2aa0 0f3d
00000020: ed7c 873f ba7a a13f 3677 ca3d b622 b43e
00000030: f96d 563d e39b 2fbf 7c67 b5bb 4760 943c
00000040: 9192 633e 4bd7 163d 5e2a 6ebe e112 843f
00000050: 4d1b eebd 4110 1abf dff1 17bf e831 86be
00000060: bce2 c8be 1e21 913e 3917 99bf 06d1 9cbf
00000070: d23a cfbd 89ac e0be 61e4 483f 0c42 903f
00000080: 6cf1 81be affd 17bf 681f 553e 5f21 013f
00000090: 78bc ed3e eb66 393f 861f 123e 7a18 f33e
000000a0: f7f7 f2be 47fb 203f 1a9c fb3c 0c29 133f
000000b0: 5146 58bd ec57 2f3f 2e8b 7f3e 80bd c93e
000000c0: 46d7 80be 7e94 63bc 1842 8c3e 4754 c6be
000000d0: c1fc 103f a4db ccbc 0917 d1bd 86a1 e93e
000000e0: 34e5 2ebf ccae d8bd 7188 bbbc cf70 a7be
000000f0: bd4f 243e b714 c9bc 26b7 033f 2afd f63f
00000100: ba35 6abe 12bd 913d 32c8 673d 18ce bfbe
00000110: 262c 073f 75dd 883d 7dd9 aabe 469d b2be
00000120: 048d d3be 9153 9f3d 44af fa3d 209b 823f
00000130: f8e5 2abe 4ce0 49be 13d5 7abe d102 31bf
00000140: 6be6 c6bd 210c 20bf cf1e 32bf 6f89 8d3d
00000150: 7a36 36be 171c 37be 95e4 39be 435c 9bbe
00000160: 3eb6 b93d cba9 0bbf 7339 b8be 0dd0 c33d
00000170: cd80 f53d 291d 9c3d f4ef f8bd 36b0 35bd
00000180: 36ac e53e fa12 1d3e 3c3c 5f3e 79b4 c83d
00000190: 5e4d 02bf 4382 8b3e b2e4 1cbf a09e 8dbe
000001a0: fdd2 ce3e 1a61 813f e567 3ebd 7678 2a3d
000001b0: 2289 03bf 215d 1d3e 23c7 f0be 2c08 1dbc
000001c0: 1976 b63e 4b8a b5bc 3d5e 33bf 3399 273e
000001d0: d9ba 133e bd9d e93d e1e1 08bf 637e 7dbf
000001e0: c2e6 32bd 5dee eebe 6e0c babd 5e1c f13e
000001f0: 8929 833e 3a4d 873d 688e 663e b4c2 59be
00000200: 7c2f d2bd efc1 a93c 609b f73d 86e3 613e
00000210: 64f8 783c e3e3 ddbc 195f 3b3e 0a74 22be
00000220: 5b1f 24be caf7 bfbe ae16 b23e 2745 7ebd
00000230: 89b9 09be 5b30 b7be 57fa e2bd 166a d03d
00000240: 2a33 783e 71e1 3cbe 97b7 6bbd 22f7 0a3f
00000250: 49cd 043e 60a5 3f3d c719 363e d981 fb3c
00000260: 2bc7 14bf 0754 58be 4781 213f 425c febe
00000270: 9314 2e3e 5412 b2be 3b1d 4dbe 3def cbbe
00000280: 8d8d 87bd f7df 4bbe 614e dfbc 56ed 3abe
00000290: 9f01 5ebd 5c5b c1be b37f 0b3e c396 6bbe
000002a0: bc33 c53e 2171 5dbe 44b6 f3bd e301 04be
000002b0: 0f76 2fbd 53c4 1abe cb37 4bbe 6271 8cbe
000002c0: 22bb 973e 2468 493e 8028 91bd 85fb e2bd
000002d0: c4b7 94be 07f2 a9be 7b45 cc3d 4f8c 7fbd
000002e0: 45a3 0c3e 4dd1 2d3e 8f69 313f 1c07 0c3d
000002f0: 93e1 d93c d00d 23be 1649 253d c085 61bd
00000300: 2c41 94be b9a7 2ebe d7df 793e 896b 453e
00000310: 80e2 7f3c 49b9 883e ca9a eabd 5041 df3d
00000320: f068 3d3e 3bad 4cbe 7487 5fbd 4acc 043d
00000330: b6f5 bc3e 0db2 4cbe c083 22be a74a 673c
00000340: a9c8 c3bd d3db 1abe 5712 54bc e326 b1be
00000350: 4594 84be 8b39 ad3e 749d 7eb8 b78c dabd
00000360: 04d7 d9bd 5fc2 283d 0cf5 a5be 5ca1 d83a
00000370: e682 613e 8a55 ebbe c63c 923e 4f82 adbe
00000380: 1915 5abf c258 ccbe e007 ebbe 79a7 07bf
00000390: 9dca 8f3b 2bb8 a5bf 56f8 603d 403c 33be
000003a0: 5efe 093c 0088 f4be 477d 953e f4d5 2bbf
000003b0: d276 823e e4a1 a0be ab89 d5ba 511c 0abe
000003c0: ba56 e03e dbae b8be 1be4 83be 0a10 dfbd
000003d0: b5f1 413f 60b0 f8bd d862 8dbe 6752 3a3e
000003e0: 7bd1 08bf bf63 0c3d 750c 98be b3cc 8fbc
000003f0: fff3 8ebf c2aa ecbe 6b90 24bd 7972 acbe

Func/StatefulPartitionedCall/model_1/gru/PartitionedCall/input/_20:0 f4 [24, 72]
-0.31641394 -0.84521335 -0.13068137 -0.8232412 -0.21474384 -0.9718502 -0.7341724 0.62856597
-0.5402688 0.11203956 -1.6766142 0.24190484 -0.7612609 -0.878496 -0.5459149 -0.4134929
-0.61676615 0.46612793 -1.3137645 -0.8304794 -1.6015415 0.9684236 0.38943264 -0.90748197
-1.0015036 0.3261544 -0.21141641 -0.24472089 -0.16245992 0.580349 0.5664932 0.10185645
0.2982526 -0.16964296 0.010097768 0.016044661 0.5912135 -0.16415974 -0.3911286 -0.049286123
-0.2928385 0.1061442 -0.21612495 -0.20541406 0.044679146 -0.646375 -0.114198014 -0.24192087
0.29263705 0.034548413 -0.1566919 -0.30194786 -0.3249594 -0.04588574 0.38729388 0.0296173
0.036447 0.1316446 0.08020149 -0.07919572 0.057808857 -0.15255095 0.16148399 -0.022769686
0.066935934 -0.10690717 -0.12001164 -0.14164872 0.040156182 -0.091596425 -0.21991734 -0.1822608
0.12240847 0.51054007 0.041520536 -0.3576578 0.4017322 0.36268312 -0.26658276 0.18529324
0.013236084 0.27045155 -1.6378291 0.9125504 0.49813765 0.08105152 0.124724 0.5077349
0.19889921 0.41991484 -0.2522723 0.1746512 -0.17895234 0.15589933 0.27478144 -0.6127727
-0.5588477 -0.14168033 0.12902094 -0.28005907 -0.25046328 0.61429316 0.67905146 -0.3000017
0.16760945 0.261511 -0.013360146 0.30402634 0.49832994 0.29000938 -0.23929629 -0.01641339
0.4307989 -0.21281308 0.8691313 0.37621436 -0.08137265 0.31716534 -0.10825144 -0.18078554
0.1574857 -0.03657921 0.017366348 -0.09346617 0.048980966 -0.2325679 0.7016689 -0.0015970158
0.54673827 0.14751135 0.20087959 -0.21155138 -0.12219219 0.16197546 0.25546002 0.15445572
-0.4478072 -0.06639107 0.2633857 0.3620757 0.20738614 -0.46713588 0.049209535 -0.13726424
1.0092852 -0.10895511 0.11095964 0.71413505 0.2734365 0.22015618 -0.68589675 0.25409776
-0.49086457 -0.47617385 -0.13163725 0.1677778 0.258362 -0.08933829 0.2076625 0.11402229
-1.206454 0.18809314 0.13470933 0.014266216 0.16705534 0.09506402 -0.004874561 0.09443792
1.9728506 0.1405035 -0.06509224 0.15578943 -0.005472862 -0.11151382 -0.046446763 -0.15618403
-0.13756289 0.23486663 -0.39731702 0.06752027 -0.012222361 -0.06751669 0.21334094 0.03263588
0.21718338 -0.48031682 0.03266273 -0.010643989 -0.02317324 0.43663666 0.26720846 0.01544079
0.09066309 -0.16149954 0.27960137 -0.09763433 0.03838694 0.0061316197 -0.21635248 0.02900125
0.21863994 -0.05536389 -0.39734063 -0.08154324 0.23816468 0.21631572 0.048961245 0.08883865
0.03984929 -0.021254135 0.0063114823 0.3092323 0.07079317 0.12947674 -0.06226911 -0.055129692
-0.95731646 0.056117963 0.06681928 -1.3329958 -0.34535983 0.12935977 0.016744725 0.2672395
0.25964257 -0.18271714 0.0677024 1.0886861 0.28093106 -0.1423406 0.30579603 0.45511556
-0.33147284 0.21226765 -0.88450915 -0.012721591 0.11260874 -0.111440234 -0.2536459 0.09447544
-0.092397995 -0.46222335 0.6303709 -0.08372726 0.050642516 -0.33874446 0.36732224 0.16627279
-0.032499928 -0.026008612 -0.1908314 0.59997773 -0.10007353 0.6682309 -0.007576321 -0.5017106
00000000: 0201 a2be e75f 58bf 56d1 05be efbf 52bf
00000010: cfe5 5bbe 2dcb 78bf b9f2 3bbf b3e9 203f
00000020: 0e4f 0abf ff74 e53d 4b9b d6bf e7b5 773e
00000030: ffe1 42bf 1de5 60bf 14c1 0bbf 57b5 d3be
00000040: 63e4 1dbf 52a8 ee3e 6f29 a8bf 4c9a 54bf
00000050: 50ff ccbf 9cea 773f b763 c73e bd50 68bf
00000060: 4531 80bf b6fd a63e 8b7d 58be 1d98 7abe
00000070: e55b 26be c191 143f b305 113f 1d9a d03d
00000080: 91b4 983e e2b6 2dbe 1c71 253c 1870 833c
00000090: c559 173f 7e19 28be 0242 c8be 3fe0 49bd
000000a0: eeee 95be 2162 d93d dc4f 5dbe 1058 52be
000000b0: 7b01 373d d578 25bf a6e0 e9bd 1bba 77be
000000c0: 86d4 953e a382 0d3d d773 20be e998 9abe
000000d0: 1461 a6be b0f2 3bbd 624b c63e fb9f f23c
000000e0: 7349 153d d8cd 063e ae40 a43d 5e31 a2bd
000000f0: fbc8 6c3d 5136 1cbe 0f5c 253e 7e87 babc
00000100: b515 893d 25f2 dabd aac8 f5bd 5d0c 11be
00000110: cf7a 243d e896 bbbd 0332 61be 93a2 3abe
00000120: 4bb1 fa3d c1b2 023f 7011 2a3d ec1e b7be
00000130: d8af cd3e 9ab1 b93e 897d 88be 83bd 3d3e
00000140: 29dc 583c a078 8a3e 62a4 d1bf e79c 693f
00000150: e60b ff3e 57fe a53d 4c6f ff3d eafa 013f
00000160: 3cac 4b3e 14ff d63e d629 81be c4d7 323e
00000170: 483f 37be 13a4 1f3e 27b0 8c3e acde 1cbf
00000180: a510 0fbf a614 11be 111e 043e e763 8fbe
00000190: b93c 80be 5142 1d3f 51d6 2d3f d399 99be
000001a0: d0a1 2b3e c5e4 853e 84e4 5abc 57a9 9b3e
000001b0: 1a25 ff3e 1c7c 943e 160a 75be 6075 86bc
000001c0: ac91 dc3e aceb 59be 647f 5e3f 2b9f c03e
000001d0: b4a6 a6bd 7f63 a23e eeb2 ddbd d81f 39be
000001e0: ee43 213e 15d4 15bd df43 8e3c 316b bfbd
000001f0: 44a0 483d 4826 6ebe 93a0 333f f552 d1ba
00000200: 0af7 0b3f 370d 173e 61b3 4d3e eda0 58be
00000210: e63f fabd e5dc 253e a8cb 823e a429 1e3e
00000220: fc46 e5be 0bf8 87bd 7eda 863e fc61 b93e
00000230: 085d 543e 6f2c efbe f08f 493d ff8e 0cbe
00000240: 4230 813f db23 dfbd cf3e e33d 8ed1 363f
00000250: deff 8b3e 9f70 613e ee96 2fbf 1a19 823e
00000260: 9a52 fbbe 0fcd f3be eacb 06be f2cd 2b3e
00000270: 0648 843e fef6 b6bd 7aa5 543e 8584 e93d
00000280: 166d 9abf 7d9b 403e 3ef1 093e d9bc 693c
00000290: 8e10 2b3e edb0 c23d c8ba 9fbb ab68 c13d
000002a0: 5e86 fc3f 26e0 0f3e 154f 85bd 4487 1f3e
000002b0: b255 b3bb 5c61 e4bd f63e 3ebd b5ee 1fbe
000002c0: 49dd 0cbe e180 703e 236d cbbe 1148 8a3d
000002d0: 4c40 48bc 3146 8abd 0c76 5a3e 33ad 053d
000002e0: 5265 5e3e 16ec f5be 5bc9 053d 2064 2ebc
000002f0: ced5 bdbc d78e df3e 8ccf 883e 5efb 7c3c
00000300: 92ad b93d 2360 25be e927 8f3e 82f4 c7bd
00000310: a03b 1d3d c1eb c83b 818b 5dbe 0894 ed3c
00000320: 26e3 5f3e 3fc5 62bd 3b70 cbbe 2400 a7bd
00000330: 71e1 733e de81 5d3e 968b 483d 0af1 b53d
00000340: 0239 233d 271d aebc 8dd0 ce3b b253 9e3e
00000350: 02fc 903d 8d95 043e e50d 7fbd accf 61bd
00000360: b112 75bf f3db 653d 8cd8 883d 9b9f aabf
00000370: 01d3 b0be e376 043e 3c2c 893c 9ed3 883e
00000380: dfef 843e 341a 3bbe 8ea7 8a3d 115a 8b3f
00000390: 32d6 8f3e bcc1 11be 4c91 9c3e e804 e93e
000003a0: cfb6 a9be b15c 593e 316f 62bf 386e 50bc
000003b0: 699f e63d c73a e4bd e0dd 81be 577c c13d
000003c0: 293b bdbd 8aa8 ecbe fd5f 213f 3379 abbd
000003d0: 876e 4f3d ea6f adbe a911 bc3e 6a43 2a3e
000003e0: a51e 05bd 0310 d5bc 4e69 43be 2498 193f
000003f0: 5af3 ccbd 2e11 2b3f c942 f8bb 1b70 00bf

Func/StatefulPartitionedCall/model_1/gru/PartitionedCall/input/_19:0 f4 [11, 72]
0.007963022 0.04704402 0.057043612 -0.5838006 0.07300895 0.23979515 -0.26223502 0.15491793
-0.65647626 -0.3014492 -0.30338424 -0.21310103 -0.005448141 0.04288411 0.055165995 -0.116422094
-0.12134736 0.14210366 -0.21361299 -0.065613024 0.1425183 0.14580628 0.0015563401 -0.36420456
0.1249967 -0.012851614 0.07199759 -0.11941983 0.13670224 0.43637317 -0.1564487 -0.26264647
0.14794475 -0.16108887 0.6486924 0.058490224 0.23398453 -0.1673289 0.15831262 -0.15907963
0.3012888 -0.18304436 0.069084056 0.4746179 -0.14908731 0.10949064 0.052041873 0.10248123
0.010299059 0.18803564 0.12689674 -0.071601786 0.134143 0.07383591 0.015799994 -0.06633147
0.024612833 -0.11895885 0.07936334 -0.23829778 0.118693314 0.1706053 -0.121754885 0.08428714
0.17963189 -0.0356583 0.103150256 0.067571834 -0.0629338 0.16180837 0.14075918 -0.12775284
0.5761479 -0.26717794 0.1520744 -0.6944946 0.457091 0.167049 -0.40806133 0.20086797
-0.5854601 0.0056876354 -0.48302242 -0.12344715 -0.12977847 0.22122638 0.29564345 -0.2325238
-0.5549003 0.18207142 -0.395523 0.26677436 0.045614615 0.20603517 0.343359 -0.32509723
-0.119908355 -0.2557519 -0.23013666 0.25135505 -0.10006605 0.08585066 0.01603658 0.2917864
0.32677588 0.25918216 0.25070295 0.12806301 0.44393986 -0.06403842 -0.053595062 -0.007970478
0.054001614 -0.28488094 -0.27466106 0.14805754 -0.11690938 0.11466256 -0.05150145 0.110514075
-0.09932554 0.2330638 -0.16339755 0.13422428 -0.2506098 -0.114836864 0.0039578793 0.095052175
-0.08940785 0.33630753 -0.10566365 0.19794047 0.114610896 0.29892954 -0.14679982 -0.1761787
0.061108816 0.17910543 -0.27534825 -0.16316666 0.19803871 -0.09522562 -0.18784627 -0.037943207
-0.26268646 0.09110772 -0.060676903 -0.029911762 0.3044155 -0.20851868 -0.64125997 -0.188421
-0.94052535 0.19330002 -0.35474733 0.43789953 0.55616736 0.12190116 0.11661082 -0.5134897
-0.3500932 -0.03624039 0.23801143 -0.07101594 0.10999915 0.30512202 -0.5881884 -0.21704425
0.7088615 -0.15911649 0.07628652 -0.3422039 -0.11474051 0.34677932 0.39371264 0.41507873
0.27935505 -0.141039 0.3011006 0.19874637 0.082034566 -0.2047858 0.56623715 0.012905018
0.38350677 0.41589648 0.0297716 0.42668658 0.1035858 0.116460666 -0.06429195 -0.29070687
0.18111767 -0.025088087 0.11778957 0.21503626 -0.08217791 0.29148757 -0.207371 0.46229944
-0.12512381 0.14513199 -0.112809084 -0.14313623 -0.12146678 -0.33637214 0.088152684 -0.3354425
-0.0428996 0.27622336 -0.10779789 -0.12827909 0.023009408 -0.1997335 0.34958696 -0.11501818
-0.041966792 0.041337315 0.101098925 -0.57070225 0.3190155 0.030866534 -0.22101241 0.11733821
-0.33598256 -0.4501797 0.80236375 0.33071938 -0.5648488 0.4639532 0.11035836 -0.18745513
-0.5524643 -0.13066608 0.08724296 0.1976542 0.28244424 0.32509685 0.056957528 -0.39490563
0.47646046 -0.021326529 -0.2753058 0.04300518 0.2237273 0.3837142 0.10724151 -0.20692486
0.17978224 0.29075927 0.097808994 -0.34794998 -0.7734163 -0.36858574 -0.14578022 -0.10699368
00000000: 5677 023c 3bb1 403d 90a6 693d f573 15bf
00000010: b785 953d dc8c 753e ab43 86be cea2 1e3e
00000020: d40e 28bf 8d57 9abe 2e55 9bbe 2837 5abe
00000030: 5286 b2bb 40a7 2f3d bdf5 613d b56e eebd
00000040: f784 f8bd 9f83 113e 5dbd 5abe 1f60 86bd
00000050: 51f0 113e 3e4e 153e 1cfe cb3a 0579 babe
00000060: 45fe ff3d 938f 52bc 7973 933d 6292 f4bd
00000070: acfb 0b3e 4e6c df3e 1734 20be 9979 86be
00000080: d47e 173e 7bf4 24be b510 263f 7293 6f3d
00000090: a499 6f3e 4458 2bbe b41c 223e c5e5 22be
000000a0: 8742 9a3e fb6f 3bbe f17b 8d3d 1e01 f33e
000000b0: 58aa 18be a13c e03d dc29 553d aee1 d13d
000000c0: 62bd 283c 6a8c 403e 38f1 013e f5a3 92bd
000000d0: c85c 093e 4837 973d fd6e 813c cbd8 87bd
000000e0: daa0 c93c b3a0 f3bd 3f89 a23d 5504 74be
000000f0: 7b15 f33d 28b3 2e3e a05a f9bd bc9e ac3d
00000100: 6cf1 373e 700e 12bd 7140 d33d 1a63 8a3d
00000110: 70e3 80bd 18b1 253e 2d23 103e a4d1 02be
00000120: 6e7e 133f 8ccb 88be 64b9 1b3e 66ca 31bf
00000130: d507 ea3e e50e 2b3e 6aed d0be 55b0 4d3e
00000140: b7e0 15bf 585f ba3b b74e f7be dcd1 fcbd
00000150: a6e4 04be 2b89 623e 945e 973e b81a 6ebe
00000160: f20d 0ebf ee70 3a3e fe81 cabe a696 883e
00000170: 64d6 3a3d e2fa 523e c0cc af3e 2573 a6be
00000180: 8392 f5bd eaf1 82be f2a8 6bbe 9cb1 803e
00000190: 6eef ccbd 79d2 af3d 255f 833c 0765 953e
000001a0: 2b4f a73e 86b3 843e 235c 803e f322 033e
000001b0: 164c e33e 9326 83bd 7f86 5bbd 9c96 02bc
000001c0: cc30 5d3d eadb 91be 60a0 8cbe 659c 173e
000001d0: 2f6e efbd 34d4 ea3d 2ff3 52bd 3455 e23d
000001e0: 306b cbbd 47a8 6e3e b051 27be 1772 093e
000001f0: ed4f 80be 972f ebbd 19b1 813b b7aa c23d
00000200: 761b b7bd 8030 ac3e 2f66 d8bd e8b0 4a3e
00000210: 1eb9 ea3d 4b0d 993e b152 16be 3068 34be
00000220: 3d4d 7a3d 6a67 373e 72fa 8cbe 2915 27be
00000230: a9ca 4a3e a605 c3bd c65a 40be 566a 1bbd
00000240: d77e 86be af96 ba3d 5888 78bd 8309 f5bc
00000250: 59dc 9b3e ec85 55be 9d29 24bf 6ff1 40be
00000260: 45c6 70bf 71f0 453e 71a1 b5be 5e34 e03e
00000270: fc60 0e3f 51a7 f93d a7d1 ee3d 1074 03bf
00000280: 6a3f b3be ce70 14bd 45b9 733e ce70 91bd
00000290: 3c47 e13d f438 9c3e 8493 16bf d940 5ebe
000002a0: f277 353f 6fef 22be 1b3c 9c3d 5935 afbe
000002b0: 13fd eabd 0f8d b13e b494 c93e 3385 d43e
000002c0: a007 8f3e 876c 10be dc29 9a3e 2b84 4b3e
000002d0: bd01 a83d 5eb3 51be ebf4 103f 926f 533c
000002e0: 005b c43e 62f0 d43e 92e3 f33c aa76 da3e
000002f0: cb24 d43d ee82 ee3d 7fab 83bd 88d7 94be
00000300: e976 393e 8885 cdbc a83b f13d 7732 5c3e
00000310: e44c a8bd dc3d 953e 1059 54be 83b2 ec3e
00000320: 7520 00be 7b9d 143e 7308 e7bd 4e92 12be
00000330: 93c3 f8bd f838 acbe 6589 b43d 1fbf abbe
00000340: 7eb7 2fbd 266d 8d3e 24c5 dcbd 985b 03be
00000350: 3a7e bc3c f086 4cbe 10fd b23e a78e ebbd
00000360: 5fe5 2bbd 5151 293d f40c cf3d 8b19 12bf
00000370: 0056 a33e d0db fc3c 1451 62be 044f f03d
00000380: e805 acbe f47d e6be b667 4d3f 0d54 a93e
00000390: ee99 10bf 468b ed3e 9003 e23d 3df4 3fbe
000003a0: 4d6e 0dbf 54cd 05be 70ac b23d dd65 4a3e
000003b0: 889c 903e 1873 a63e 4c4c 693d 1231 cabe
000003c0: a0f2 f33e f9b4 aebc e2f4 8cbe 3326 303d
000003d0: c518 653e 3076 c43e 70a1 db3d 1ce4 53be
000003e0: d618 383e 66de 943e 1550 c83d 8026 b2be
000003f0: 9cfe 45bf 45b7 bcbe 6947 15be 811f dbbd

ConstantFolding/StatefulPartitionedCall/model_1/gru_2/PartitionedCall/unstack-folded-1:0 f4 [72]
-0.087678395 -0.095771834 -0.2987382 0.026970921 0.016500644 -0.11755399 -0.12218211 -0.015395245
0.18177179 0.1687631 0.039359897 -0.034358744 -0.048914976 -0.22684674 -0.19468912 -0.060832024
-0.012545364 0.19023548 0.056474563 -0.25373048 -0.12588966 -0.1313893 0.048255816 -0.16192687
-0.057143975 -0.1500963 0.0014100001 0.06272726 0.048560403 -0.18753678 -0.023166029 -0.007873247
0.0077957297 0.094280146 0.21980222 -0.09505303 -0.012043652 0.050062917 0.00065847643 0.0071805906
-0.02897034 0.086892635 0.06703786 0.0070634047 -0.035521008 -0.11845817 0.034537733 0.089483485
0.054623906 -0.09412632 -0.043407816 -0.042455103 0.018805929 0.02420333 -0.050271656 -0.11589944
-0.14182156 0.018207366 0.20444816 -0.10455685 -0.057019588 -0.01914714 -0.14485186 0.008119894
0.0009991326 -0.115122885 -0.02074506 -0.057881784 -0.043004464 -0.022863938 0.08854915 0.49130976
00000000: bb90 b3bd 0624 c4bd 37f4 98be 1ff2 dc3c
00000010: 5c2c 873c 25c0 f0bd 9d3a fabd 563c 7cbc
00000020: 6222 3a3e 3cd0 2c3e d837 213d c1bb 0cbd
00000030: 125b 48bd 834a 68be 965c 47be 002b 79bd
00000040: 128b 4dbc 17cd 423e df51 673d f6e8 81be
00000050: 38e9 00be eb8a 06be e4a7 453d 28d0 25be
00000060: cd0f 6abd d8b2 19be c1cf b83a 2677 803d
00000070: 46e7 463d a409 40be afc6 bdbc cbfe 00bc
00000080: 5273 ff3b f315 c13d d513 613e 2aab c2bd
00000090: bd52 45bc c60e 4d3d 9b9d 2c3a 294b eb3b
000000a0: 3553 edbc c4f4 b13d 254b 893d 2274 e73b
000000b0: 7a7e 11bd 329a f2bd 7077 0d3d 1e43 b73d
000000c0: 51bd 5f3d 4dc5 c0bd 65cc 31bd 67e5 2dbd
000000d0: e40e 9a3c 1046 c63c a7e9 4dbd b05c edbd
000000e0: ac39 11be 9d27 953c dc5a 513e e721 d6bd
000000f0: 5f8d 69bd 77da 9cbc 0c54 14be 4e09 053c
00000100: 54f5 823a 8cc5 ebbd 8bf1 a9bc 7315 6dbd
00000110: 7325 30bd 274d bbbc 4259 b53d f48c fb3e

ConstantFolding/StatefulPartitionedCall/model_1/gru_2/PartitionedCall/unstack-folded-0:0 f4 [72]
-0.087678395 -0.095771834 -0.2987382 0.026970921 0.016500644 -0.11755399 -0.12218211 -0.015395245
0.18177179 0.1687631 0.039359897 -0.034358744 -0.048914976 -0.22684674 -0.19468912 -0.060832024
-0.012545364 0.19023548 0.056474563 -0.25373048 -0.12588966 -0.1313893 0.048255816 -0.16192687
-0.057143975 -0.1500963 0.0014100001 0.06272726 0.048560403 -0.18753678 -0.023166029 -0.007873247
0.0077957297 0.094280146 0.21980222 -0.09505303 -0.012043652 0.050062917 0.00065847643 0.0071805906
-0.02897034 0.086892635 0.06703786 0.0070634047 -0.035521008 -0.11845817 0.034537733 0.089483485
0.097876765 -0.07237817 0.13304514 0.021306993 0.0025883531 0.04259851 -0.13155058 -0.07823871
-0.13618322 0.026589502 0.13352215 -0.024151865 -0.04678331 -0.005708236 -0.053847056 -0.010295604
0.1351238 -0.100437544 -0.006366809 -0.026892764 0.031106172 0.01913711 0.10355918 0.065981835
00000000: bb90 b3bd 0624 c4bd 37f4 98be 1ff2 dc3c
00000010: 5c2c 873c 25c0 f0bd 9d3a fabd 563c 7cbc
00000020: 6222 3a3e 3cd0 2c3e d837 213d c1bb 0cbd
00000030: 125b 48bd 834a 68be 965c 47be 002b 79bd
00000040: 128b 4dbc 17cd 423e df51 673d f6e8 81be
00000050: 38e9 00be eb8a 06be e4a7 453d 28d0 25be
00000060: cd0f 6abd d8b2 19be c1cf b83a 2677 803d
00000070: 46e7 463d a409 40be afc6 bdbc cbfe 00bc
00000080: 5273 ff3b f315 c13d d513 613e 2aab c2bd
00000090: bd52 45bc c60e 4d3d 9b9d 2c3a 294b eb3b
000000a0: 3553 edbc c4f4 b13d 254b 893d 2274 e73b
000000b0: 7a7e 11bd 329a f2bd 7077 0d3d 1e43 b73d
000000c0: 9d73 c83d 023b 94bd fc3c 083e 018c ae3c
000000d0: 5ca1 293b c67b 2e3d 32b5 06be 9e3b a0bd
000000e0: 9d73 0bbe 3ad2 d93c 08ba 083e 22da c5bc
000000f0: db9f 3fbd 270c bbbb bb8e 5cbd e5ae 28bc
00000100: e55d 0a3e 33b2 cdbd aaa0 d0bb 374e dcbc
00000110: 5fd2 fe3c 6ec5 9c3c d616 d43d 7c21 873d

ConstantFolding/StatefulPartitionedCall/model_1/gru_1/PartitionedCall/unstack-folded-1:0 f4 [72]
0.25855225 -0.048676427 0.1005933 0.22194487 0.38855553 -0.0331061 0.25159645 -0.04258423
-0.024434855 0.046733856 0.03135858 -0.19110113 -0.2133958 -0.24829338 0.23922576 0.50032467
0.22096097 -0.20608246 0.04403928 0.09505629 0.15274586 0.0036101975 -0.03471251 -0.05345535
0.2049436 -0.028907485 -0.04353132 0.07595288 -0.05073996 0.07733813 -0.21369141 -0.0029002018
0.20034994 0.075207636 0.02573874 0.2803718 0.10025577 0.081098296 -0.056798544 -0.067863055
0.06337928 0.114554286 -0.025803063 0.060674272 0.120639734 -0.08026303 0.1613837 -0.12677753
-0.124220416 -0.012885382 -0.08100595 0.049196832 0.059321187 -0.0061512073 -0.034095332 -0.04323542
0.15537821 -0.04327617 -0.06827933 -0.059172384 0.20098369 -0.09086399 0.02462155 -0.10855386
-0.08592719 0.04766727 0.06493251 -0.0037244163 -0.021673078 -0.033106428 -0.005705903 -0.004805666
00000000: f660 843e ef60 47bd dc03 ce3d 8445 633e
00000010: c0f0 c63e 439a 07bd 40d1 803e cd6c 2ebd
00000020: 9b2b c8bc 006c 3f3d db71 003d 04b0 43be
00000030: 6e84 5abe 9f40 7ebe 99f7 743e 4715 003f
00000040: 9843 623e 4807 53be 8862 343d dfac c23d
00000050: 6969 1c3e 1099 6c3b b42e 0ebd fff3 5abd
00000060: bcdc 513e 64cf ecbc e64d 32bd 2f8d 9b3d
00000070: b4d4 4fbd 7463 9e3d ecd1 5abe 5011 3ebb
00000080: 8928 4d3e 7606 9a3d 0dda d23c e48c 8f3e
00000090: e652 cd3d dd16 a63d 97a5 68bd c9fb 8abd
000000a0: ffcc 813d 709b ea3d f260 d3bc 9685 783d
000000b0: f711 f73d f260 a4bd c541 253e f8d1 01be
000000c0: 4667 febd 361d 53bc 73e6 a5bd 9e82 493d
000000d0: c6fa 723d 1190 c9bb 8ca7 0bbd a017 31bd
000000e0: 771b 1f3e 5a42 31bd 09d6 8bbd be5e 72bd
000000f0: abce 4d3e e616 babd 22b3 c93c 7c51 debd
00000100: 98fa afbd c13e 433d 56fb 843d 5615 74bb
00000110: bd8b b1bc 9b9a 07bd 95f8 babb d978 9dbb
