examples/emulator-training/scripts/saved_model/levoutput_bigru_gru_16.onnx (onnx, 48167 bytes, 16 tensors)

StatefulPartitionedCall/model_1/dense_surface/MatMul/ReadVariableOp:0 f4 [17, 16]
00000000: 4bc3 613f bc3a 3dbf 5f32 ef3d e5a7 023e
00000010: 0a9e 463e 46d8 ac3e 1999 493d 80b8 cfbd
00000020: 2657 143f 6d86 00be b2fb 8a3e dd51 33bf
00000030: a4b9 073e 7841 383e e25f c23e 40e2 a4bd
00000040: 51f6 eb3e 5368 133e 5281 8e3e 4d47 8e3c
00000050: c26f 8b3e 351d 073f bc7e cb3d f8a2 cebe
00000060: be3c 1ebd bab9 84bc 25c4 0bbf 887a 1c3f
00000070: 6709 b13e 6732 673d ffbd 8abc ceef 5fbf
00000080: e9ed 023f 7d5f 4f3f 6ec8 f2be df1f 693e
00000090: eab8 b83e 04cd e73e 0407 a4bc f9cf 793d
000000a0: 0db2 da3e f2fd 09bd 3b3d 1c3e 3031 333e
000000b0: b397 ce3d be14 d23c 4d23 093e f862 5f3d
000000c0: f173 c03d 8cc7 83be 36b5 04be d842 9b3e
000000d0: 7c72 e03e 7b01 443d 11e9 303e b9f3 103e
000000e0: d0d5 1ebe 202f adbd b26a 0a3c 215c b73e
000000f0: 838c 3b3e 2100 5bbe 94a7 133f 5aa0 bebf
00000100: 32bb ff3e b42a 36be 721b 82be 5088 edbb
00000110: 7223 553e 3826 bc3e 70a8 de3d 221f c7bd
00000120: 2f1a 123f af8e 19be afc3 3dbe 3958 bf3e
00000130: a41f cf3e 02ec 913e c2ed 533d 4d2c 62bf
00000140: b509 fcbe ae28 cabe ddbc bb3d 4000 6b3b
00000150: d002 97be 0957 28bf bef0 f8bd e288 59be
00000160: 5202 243c fe09 113f d9ec c0be deb9 0fbe
00000170: 8dee fdbe 753b 053e 02ac c23e e2c5 4f3f
00000180: 6666 a63e 2d02 c7be f978 86bc 3725 9fbd
00000190: 916e 933e 6576 09be 359d 26bf 46df b0bd
000001a0: c047 f63d a2ac a2be 61a4 75be d47d 3a3e
000001b0: 49dd 17be bc5e f2be 21ae ae3e 792e 0bbf
000001c0: fcb3 973e 58ef 90be 5d46 003e d903 093e
000001d0: 2aa8 ac3e 70ab 87be 423e 213f e859 943e
000001e0: 34c8 ad3e 3008 28be 48d1 b93d d5fb 9d3e
000001f0: 393c f6be 8e74 3dbd 3edd 72be 7bc6 46bf
00000200: cb34 4ebd 28f1 48bf 2157 9f3e 7319 b03d
00000210: b76f 983e 815a c6be 52ed 11bf 66d9 2abd
00000220: 16eb 07bf cfc7 a3bd 1552 dfbe 4688 b83e
00000230: f5ed 05bf 6157 7bbd 29b4 9a3d 3604 1a3e
00000240: ef6d 2d3c ebbf 1e3f 209e 3b3e 1794 91be
00000250: e2e2 183e e8a1 5c3e c539 b1be 9fd6 25bd
00000260: a85b 0b3f bd62 923e 67d5 a9be d441 7c3e
00000270: 72ec 74be b53d 623e 49f9 4c3e 518b 21bf
00000280: 404e b13e 4707 a63e 9e3e 7d3e 430d f5bd
00000290: 1809 293e ad9f 823e 8f0f a1bd 69ab f7bd
000002a0: bda6 4fbf 5021 11bd 91e4 4e3e de55 403f
000002b0: adeb 813e 21d0 243e 3a2f e53e 5af8 3bbe
000002c0: ffb7 adbe b37e 98bd 98b2 b23c a4a0 44be
000002d0: 932e 2d3e 88ed d0be d820 a83d 4d1a ad3e
000002e0: b61f 293e 4e10 0ebe 571c 033e 14b4 ecbe
000002f0: 52d0 9dbe 6681 b73d c3fa 803e d67e 503e
00000300: 7faf 94bd a87f b5be 31f2 343e 2532 e0be
00000310: a241 4e3e c975 02bf 9db3 093f c28f c43b
00000320: 0e14 cbbe a95a b1bd 52a7 09be d9b2 23be
00000330: e1be 623e ea5e e4be 5f6a 7dbe 22ce 973e
00000340: 8d85 5d3f 6a4a 6ebe 26cb 5bbe ce83 14bc
00000350: 64f8 ff3e d188 653e 411e 243f bc0b 56be
00000360: 14ad 593c e5d3 21bd cb08 413e 6e0c a9be
00000370: 77a9 693d 4e7e 053f 4107 0c3f cf73 44bf
00000380: 937e 8ebe dfb1 2bbf 2029 2c3e f951 3bbe
00000390: 5dfe b0be 50ec d9be f8ab c43e 7d0e 743e
000003a0: d5d4 8c3e ca47 dbbe 7bd7 11bf e415 343e
000003b0: 6011 d0be dd5c ad3e e9cb 7f3e c7d6 51be
000003c0: 0454 063f b48a 2f3f a68b e33d c82e a23d
000003d0: d964 df3e 0fe5 fb3e e8af 40be 9d76 6a3e
000003e0: f39f 08be e20f 24bb 34e9 d6be 214a 163f
000003f0: 41b7 3e3c 868c c23e cfcb 993e 2a25 9fbf
0.8818862 -0.73917747 0.116795294 0.12759359 0.19396225 0.33758754 0.04921827 -0.101426125
0.5794548 -0.1255128 0.27145153 -0.7004679 0.1325441 0.17993724 0.37963778 -0.08050966
0.46086362 0.14395265 0.2783304 0.017367983 0.27233702 0.5277894 0.09936282 -0.4035871
-0.038632147 -0.016201843 -0.5459617 0.6112447 0.34577486 0.05644455 -0.0169363 -0.8747529
0.5114427 0.8100508 -0.4741854 0.22766064 0.36078578 0.45273602 -0.020022877 0.060989354
0.42713967 -0.033689447 0.15257733 0.17499232 0.10087528 0.025644656 0.13392372 0.054537743
0.09397114 -0.2573818 -0.12959751 0.30324435 0.43837345 0.047852974 0.17276408 0.14155473
-0.1551125 -0.08456254 0.00844829 0.35812476 0.1831532 -0.21386768 0.5767758 -1.4892685
0.49947506 -0.17789727 -0.25411564 -0.0072489157 0.20814303 0.3674791 0.10871971 -0.09722735
0.57071203 -0.14995836 -0.18531679 0.37371996 0.40453827 0.28500372 0.051740415 -0.8834885
-0.49226156 -0.3948416 0.09166882 0.0035858303 -0.29494333 -0.65757805 -0.12155293 -0.21243623
0.010010319 0.5665587 -0.376807 -0.14035746 -0.49596062 0.13010962 0.38021857 0.8116132
0.325 -0.38868847 -0.016415106 -0.0777077 0.28795293 -0.1342407 -0.6508363 -0.08636336
0.12025404 -0.31772333 -0.23988487 0.18212062 -0.14830507 -0.47337902 0.34117225 -0.54367787
0.29629505 -0.28307605 0.12526841 0.13380374 0.3372205 -0.26497984 0.6298562 0.28974843
0.33941805 -0.16409373 0.0907312 0.30856195 -0.4809282 -0.046253733 -0.2371721 -0.7764661
-0.050343316 -0.78492975 0.31121162 0.08598604 0.29772732 -0.38740924 -0.5700275 -0.041711234
-0.5309309 -0.07997095 -0.4361731 0.36041468 -0.5231622 -0.061362628 0.07553894 0.15040669
0.010585292 0.62011594 0.18322039 -0.28433296 0.14930299 0.21546137 -0.34614387 -0.04048788
0.5443673 0.28590956 -0.33170626 0.24634486 -0.23918322 0.22093852 0.2001697 -0.63103205
0.34630013 0.32427427 0.24730918 -0.1196542 0.16507375 0.25512448 -0.07864296 -0.12093241
-0.811138 -0.03543216 0.20204379 0.7513102 0.2537512 0.1609502 0.44762594 -0.18356457
-0.3392944 -0.07446041 0.021813676 -0.19201905 0.16912298 -0.40806222 0.082093894 0.33809128
0.16516003 -0.13873407 0.1280378 -0.4623114 -0.30822998 0.08960228 0.25191316 0.20360884
-0.07260036 -0.35448956 0.17670514 -0.43788257 0.20142224 -0.50960976 0.53789693 0.0059985826
-0.39663738 -0.0865987 -0.13442734 -0.15986194 0.22143127 -0.44603664 -0.24747609 0.29649454
0.8653191 -0.23270574 -0.21464214 -0.009064628 0.49994195 0.22415473 0.64108664 -0.20902914
0.013285894 -0.03950872 0.1885101 -0.33017296 0.05704638 0.5214585 0.5469857 -0.7673921
-0.27830943 -0.67068285 0.16812563 -0.18292989 -0.34569064 -0.42563105 0.38412452 0.23833652
0.27506128 -0.42828208 -0.5696942 0.17586476 -0.40638256 0.33859912 0.2498013 -0.20492087
0.5247195 0.6857102 0.1111062 0.07919079 0.43631628 0.49198195 -0.18817103 0.2289681
-0.13342266 -0.002503388 -0.41974795 0.5870686 0.011640371 0.37997836 0.30038306 -1.2433217

StatefulPartitionedCall/model_1/dense_surface/BiasAdd/ReadVariableOp:0 f4 [16]
00000000: be3a 483e 7ae3 f83e 1083 fb3b 92d1 a03d
00000010: 5524 ab3d 56fe 823e 12d4 a1be e0bb d5bc
00000020: 24d4 5d3d 468b a53d ff6e 033e d928 4a3e
00000030: b257 863d dcc6 853d ea5f 943d a4eb a33d
0.19553658 0.4861105 0.007675536 0.07852472 0.08356539 0.25584668 -0.3160711 -0.026090562
0.05415739 0.08083205 0.1283531 0.19742145 0.06559695 0.0653207 0.07244857 0.08003929

StatefulPartitionedCall/model_1/dense_output/dense/MatMul/ReadVariableOp:0 f4 [16, 2]
00000000: 2115 b13e 55eb 573f 0d41 603e 9d95 a03e
00000010: 2379 24bd 89ee 22bf 70b5 2e3f 6bcb e53e
00000020: f7ea 243e 5048 3c3f 9708 c8bf 9c4a fa38
00000030: 7281 50be 7eb0 943f 1f97 353f cd43 5f3d
00000040: 701a 82bf ccc3 473f 52a6 c7bd 669f a6be
00000050: 6c3d c6bf fa26 d83d e5d7 b63e df80 a6be
00000060: 8719 023f c281 173f 8a86 8ebe e0f3 f3be
00000070: 493e 7b3e c435 473f 92e1 cbbe b12d 0c3f
0.34586433 0.84343463 0.21899815 0.31364146 -0.040154587 -0.63645226 0.682456 0.44881758
0.16105257 0.7354784 -1.5627621 0.00011934826 -0.2036188 1.1616361 0.7093372 0.05450802
-1.0164318 0.7803314 -0.0974852 -0.32543486 -1.5487494 0.10554309 0.3571159 -0.32520196
0.508202 0.5918237 -0.2783702 -0.47647 0.24535479 0.77816415 -0.39820534 0.5475722

StatefulPartitionedCall/model_1/dense_output/dense/BiasAdd/ReadVariableOp:0 f4 [2]
00000000: a691 c53e 008a 6ebe
0.38587683 -0.2329483

Func/StatefulPartitionedCall/model_1/gru_2/PartitionedCall/input/_38:0 f4 [16, 48]
00000000: c782 bf3e 5120 683e 75b8 c43e 36b7 e23b
00000010: 8097 6f3e 7f7d 0d3e d226 6b3f f064 20be
00000020: 27bf a93f 7569 653d 09db d8be 7f5b 68be
00000030: 3e8a 133f 03be bb3c 5a24 bf3e 9406 2b3e
00000040: 6bae 08bf 061d 53be c092 273e b3d9 07bf
00000050: 909c 103d a2e6 d83e 3cbb fcbf f001 193d
00000060: 7ca3 c7be 942f 0abf ca12 90be 2ce6 afbd
00000070: 1f09 9bbf ed12 3cbf 35e9 acbf 0082 873d
00000080: 7439 e13e e2c2 a13e 5353 d53d 7e45 753e
00000090: 13cd 0bbd 31bd 08be 5a3e 8c3e 14af 293f
000000a0: 34e2 1dbe 858a 35be 18d7 dabd 1601 863e
000000b0: 14db 423f 8231 15be 02a1 a33d ce72 8e3d
000000c0: 2cb9 3fbf 2222 c13f 9958 8fbe 321a 423f
000000d0: e4a7 65be 692f 843e 2df1 553f 81ba fe3f
000000e0: 22aa bf3f cb93 7dbd c151 643f 453b af3e
000000f0: 7199 c23e c70f b63e 2171 d53f 83c1 933e
00000100: e328 1cbe 10e9 56bf bd02 d0bc 8a3d 683f
00000110: deec 0d3f dd66 88be c76e 13c0 8e08 4cbe
00000120: 4808 45bf 5611 9bbf cc9e 1cbf bffe 52bf
00000130: e018 ebbe 372c 893e 1e5a 7dbf d016 283f
00000140: d6a3 e93e 74e9 4abe ff89 33bf d292 323f
00000150: a155 e23e 1e58 28bf c068 1040 a566 243f
00000160: f90d b2be 1f83 e2be e712 81bf 9400 44bf
00000170: 83c5 df3f 6d47 b7bf 4fb3 7940 63bc a5be
00000180: fd5e 1a3f 2feb 82be f42c 593e 0d66 723e
00000190: ea10 a13e a335 d03e 6a9c 8d3e 2ae4 a73e
000001a0: 670a 5e3d 3a00 c4bd 83f9 e93e 986a 563e
000001b0: c70a 7e3e 1399 923d 962f fbbd 1eb3 f13d
000001c0: 5394 c5bd aab7 08bf bae0 e93d 852d 993e
000001d0: 1bf1 2c3e bebf 34bf a956 0f3e 156c 23bd
000001e0: 268c a5bd c278 41be 817e cb3d 980b 943d
000001f0: e2a5 a33d 05fd 843e b42f 033e 1b8e 8dbe
00000200: 2bac 7e3d 66fa 5ebe 13a6 673d 509d e9be
00000210: 49d6 dbbe 7cdc c6bd 6c72 f1bd fec8 afbe
00000220: 6f5e 42be e119 3abd 9614 b63d 6ecf eb3d
00000230: 522b d0bd 5de8 d83d ebdd b73e 7029 0abe
00000240: 666e 0a3f 8720 51be 4190 36bc d016 8a3d
00000250: 8701 3b3e a048 7cbe f81d 1a3f abbb 87bf
00000260: 21dd ab3f a0cf 98bd f56b a4bf 0499 6fbd
00000270: 730e 8f3e 2db1 10be b015 e83d 9579 b53d
00000280: f483 afbe 1c1c ed3d 1d9d 2f3e 5a57 a03e
00000290: d24a 92be 7923 833e 084a bfbe 91f7 9cbe
000002a0: 3a5e bcbe b9bd 81bd 32af 9b3e c2a7 1cbf
000002b0: ec84 07bf 7ded 4abe 3eb4 2abe 006b 97bd
000002c0: e532 be3e 4990 63bd 4bcd 543e 7ad4 753e
000002d0: 0317 843c 9492 27bf 9b28 c33d 018f 8b3e
000002e0: 8270 013f 753e b5be f16b a53e d1b4 16bd
000002f0: 1391 1d3f d02c a23d b269 a03e 7be7 4abe
00000300: 8359 023f 51a2 643f 439d 2abd db87 203f
00000310: 0dad 283e e971 16bf 355b ee3e 6d17 dfbe
00000320: 0939 ad3d 0186 1a3e 0a33 9fbd 5b00 fe3b
00000330: ec62 eb3e e04c cc3e 5678 213f b6e7 10be
00000340: df24 b2be acbc 4e3e 02ec 54be 573b b9bc
00000350: a21e e4be 323b c83d 6a7a 0dbe e4ba 97bc
00000360: 8d8e 093d 2ec8 abbe 3466 423f fb0f 023e
00000370: 9cd4 8abe 8d92 26bd 106a 51be 38e2 55be
00000380: 016c cbba cd5e 853e 5571 22bd 9ed3 dd3e
00000390: b3bb dc3e 3cea 8abe cba6 1d3f 5593 913d
000003a0: 3bfc 343e 02d3 77be 4990 b8be 5141 99bd
000003b0: 745c 6ebd 1528 153c 9870 3abe f268 b53e
000003c0: 53f1 7cbe acad 3b3d fe2e b4be 8f1d cdbe
000003d0: c199 12bf 7779 ba3e 3014 a4be 62b0 42bf
000003e0: e485 59bf f3c5 9abe 16e0 c7bc dc0b 0d3c
000003f0: f2ad 1dbe c630 073e d392 5cbe 4d7f f0be
0.37404463 0.22668578 0.3842198 0.006918813 0.23397636 0.13817404 0.9185611 -0.15663505
1.326146 0.056008775 -0.4235461 -0.22691153 0.57632816 0.022917753 0.37332422 0.16701728
-0.5339114 -0.2061654 0.16364574 -0.5306656 0.03530556 0.4236346 -1.9744639 0.037355363
-0.38991916 -0.5397885 -0.28139335 -0.08588824 -1.2112159 -0.7346638 -1.3508669 0.066165924
0.43989146 0.31593996 0.104162835 0.2395229 -0.03413112 -0.13353421 0.2739132 0.66282773
-0.15418321 -0.17728622 -0.10685557 0.26172704 0.76115537 -0.14569667 0.07989694 0.06955491
-0.74891925 1.5088542 -0.27997282 0.7582122 -0.22427326 0.2581742 0.8357113 1.9900666
1.4973795 -0.061908524 0.89187247 0.34224907 0.38007692 0.35558912 1.6675149 0.28858575
-0.15249972 -0.83949375 -0.02539193 0.907189 0.55439556 -0.26640978 -2.3036363 -0.19925138
-0.7696576 -1.2114666 -0.61179805 -0.8241996 -0.45917416 0.26791546 -0.9896563 0.6565981
0.4563281 -0.19815618 -0.7013244 0.6975528 0.44205955 -0.65759456 2.2563934 0.64219123
-0.34776285 -0.44240662 -1.0083894 -0.7656338 1.7482151 -1.4318672 3.9015691 -0.3237029
0.6030119 -0.25570056 0.21208555 0.23671742 0.31458217 0.40665922 0.27658397 0.32791263
0.05420914 -0.09570356 0.45698175 0.209391 0.24808799 0.07158103 -0.12264936 0.11801742
-0.09647431 -0.5340525 0.11419816 0.2991754 0.1688885 -0.70605075 0.13997902 -0.039897997
-0.08083372 -0.18893722 0.09936238 0.07228774 0.07990624 0.2597429 0.12811166 -0.2764748
0.06217591 -0.21775207 0.056554865 -0.45627832 -0.42936924 -0.09710023 -0.11789402 -0.34333032
-0.18981336 -0.045434836 0.08890645 0.115141734 -0.10164513 0.10591195 0.35911497 -0.1349237
0.54074705 -0.20422564 -0.011142791 0.067426324 0.18262301 -0.24637079 0.6020198 -1.0604147
1.3426858 -0.07461476 -1.2845446 -0.058495536 0.2794071 -0.14130087 0.113322616 0.088610806
-0.3428036 0.11577627 0.17149778 0.31316644 -0.28572708 0.25613 -0.3736117 -0.30657628
-0.3679064 -0.06335015 0.304071 -0.6119348 -0.529372 -0.19817157 -0.1667032 -0.073934555
0.37148204 -0.055557523 0.20781438 0.24006835 0.016124254 -0.65458035 0.09529229 0.2725754
0.505623 -0.35399213 0.32308915 -0.036793534 0.6154949 0.079187036 0.3133064 -0.19814865
0.50917834 0.89310175 -0.041653883 0.627073 0.16472264 -0.58767563 0.4655396 -0.4357256
0.08458144 0.15090181 -0.07773407 0.007751507 0.4597391 0.399024 0.63074243 -0.1415089
-0.34793755 0.2018916 -0.20793155 -0.022611303 -0.4455462 0.097769156 -0.13816229 -0.018521734
0.033583213 -0.33551162 0.759372 0.12701409 -0.27115333 -0.040667105 -0.20450616 -0.20887077
-0.0015519859 0.2604889 -0.039658863 0.43325514 0.43111953 -0.27131832 0.6158263 0.071081795
0.17674343 -0.24201587 -0.3604758 -0.07483161 -0.05819364 0.009103795 -0.18207014 0.3543163
-0.24701433 0.045819923 -0.35192102 -0.40061614 -0.5726586 0.36420795 -0.32046652 -0.7605039
-0.84969926 -0.30229148 -0.024398845 0.0086087845 -0.15398386 0.132022 -0.21540384 -0.46972123

Func/StatefulPartitionedCall/model_1/gru_2/PartitionedCall/input/_37:0 f4 [32, 48]
00000000: bc59 4c3f 8f4d a83f e225 7f3e b3d2 803f
00000010: 64dc 5c3f 34f3 2640 d01c c53e ca50 2bbf
00000020: b90b f8be ebcd 443d a7ea 3d3f b135 993e
00000030: a4cd 603e ad7c 1a3f 3eca 9d3e 7aa5 8e3f
00000040: ce52 01bf cecb 55c0 8eee 28bf 056c 41bf
00000050: 95e7 bdbc 777d 97bf ca4b 8ebd 1566 c03e
00000060: 821d 113f 676e 723f e256 33bf 5180 e53d
00000070: 6645 3bbf d339 c33e ea87 923e f4e2 f3bc
00000080: 5458 b13e 487a b93e df2a 823e c0fa 393e
00000090: 542f 65be cc76 9c3e 25e9 f93d cf6d cb3d
000000a0: aed1 873e 3af6 dc3d a9e8 223c 0cf6 0d3f
000000b0: d334 c0be 4bdc 46be b7d8 1a3f ce5d 153f
000000c0: cf44 593f b44c 2c3f 99e3 373f 1569 813d
000000d0: fb32 bbbd 1624 7f3f d952 113f 61c7 15be
000000e0: 41fe 833f 7abd a63f 4a75 393f e3e4 b73e
000000f0: 07b6 5e3f 0376 5f3f a151 593f d2a4 acbe
00000100: 41c7 f13e c223 163f 9547 58be 2b46 d63e
00000110: 0279 d23e 6e6a fc3e 09d9 1fbd 2c3d 25be
00000120: 2aff b13c 2548 013c a4da ccbf dd06 5e3d
00000130: 8e69 573f 0fe6 76be f24d a0bf 3059 76bf
00000140: 6be3 13be 43d0 4bbd a3b3 c83d fda0 c7bd
00000150: d82e 8d3e bc0f 993e 7ae0 263d 13d9 b4be
00000160: 8ab7 cdbe a82a ffbd 937d 143f 256f 37bf
00000170: 4a4f 9c3e 6e9e 1ebe 35df c9be 8940 a6be
00000180: acaa 81be 46bf c73e d350 ecbe b1a4 43be
00000190: a4d8 8fbe a838 b73f 8794 d3be 77cf 5ebe
000001a0: 10f9 c03e 819f 4fbe dbc8 4f3f 7b44 48bd
000001b0: 258f 02bd 6ee9 f2be 9482 473e e389 5cbd
000001c0: e8e6 853d 5c35 4dbe 864c a23e d231 d1be
000001d0: c00a c3bd f5bd 71be 7918 96be eae6 fb3d
000001e0: 5bbc e7bd 9828 5abd fb8b 7e3e 1ab8 fc3d
000001f0: fc63 8abf 4986 d5bc f4ac 98bc 2a2f 3c3e
00000200: f9fb afbd b371 3c3e a3ea 33be 3d03 46bc
00000210: 459f db3c c98c 0abe 8402 483e d494 a2be
00000220: 5739 e43e 5c60 953d fae8 823e 6d97 a3bd
00000230: 8cfd eebd 21e1 6b3e f0f7 7d3c 9fe9 23bf
00000240: 5942 993e 89d8 833e 7314 18be 85ee 3f3e
00000250: 5362 9d3e 69c3 9a3e 1325 a7be b4b8 a1bf
00000260: 9e65 26be 9e48 c53e 8077 083f 60b8 dfbd
00000270: 34df f03e 24f5 013d 81ab 5c3e 2a01 50bd
00000280: 90b2 c73e d005 03c0 5dc6 403e c9f9 293e
00000290: 2e12 a0bd c644 1bbd 21e0 8bbe 4446 0fbf
000002a0: db32 d83c dc78 f63e c89b ca3e 49b8 b4bd
000002b0: 7ced c3be b283 fcbc 700d 0dbf 42b5 fcbd
000002c0: d53e 133e 488e 143e 4263 823e 6ecf e0bd
000002d0: ab3f bb3d 2c9a 02bd fecc 91bb 40f9 9bbe
000002e0: 6028 91bd ae79 4e3d 72ad bdbe 5e52 003e
000002f0: d059 99be 212a 80be 00e9 1b3e c242 18be
00000300: 8acd f3be fab4 b03e b071 d23d 5400 9d3c
00000310: 79ef 433f 0a91 d8bd a7cc 46be 8e6b d5be
00000320: 6aa8 373e cd23 b2be 0367 32be b980 f3bc
00000330: 03ca e23e a956 a7bd 4a49 47be b440 2b3e
00000340: 8441 043e 1d4c b7bf 11a1 453e 29f0 223f
00000350: 17f8 1d3f a458 703f 381a 823f 29ea ffbe
00000360: cb78 8a3e 923f dd3f b8eb 043f 2245 a63e
00000370: 7cb0 c4be 4578 d9bd cf2d e9be a7bf b7bd
00000380: c8c7 da3d b61e 373e b654 f33e d93a 30bc
00000390: 99da 793e 81cf f23b d31a d63d 7c69 99be
000003a0: a856 e3bd b9b7 243f c72b 563d dd9c 76bd
000003b0: 8ab1 bdbe c8dd 143d 0866 cdbc 3e61 23be
000003c0: 79d8 663f 2c40 213f 4379 0bbe d9ec 0a3f
000003d0: 033c c0bd b9f0 de3e 613a 0a3f 50f4 e73f
000003e0: 22d1 e83e e6ce 1f3e f77b 5d3e caf8 473f
000003f0: 0b5f 793e 78f3 083f 6615 003d ba46 78bc
0.79824424 1.3148669 0.24916795 1.00643 0.8627379 2.608594 0.38498545 -0.6692015
-0.48446444 0.04804794 0.74186176 0.29923776 0.21953446 0.6034649 0.3081836 1.114425
-0.50516975 -3.3405643 -0.65989006 -0.7555545 -0.023181716 -1.1835164 -0.06948049 0.37577882
0.5668565 0.9469971 -0.7005445 0.11206115 -0.7315277 0.38130054 0.2861932 -0.029771306
0.34637702 0.36226106 0.25423333 0.1816206 -0.22381335 0.30559385 0.12202672 0.09933054
0.2652716 0.107891515 0.009943166 0.5545356 -0.37540302 -0.19419973 0.6048693 0.5834626
0.8487062 0.6730454 0.7183166 0.06318871 -0.09140583 0.9966444 0.5676704 -0.14626838
1.0311967 1.3026574 0.72444594 0.35916814 0.869965 0.87289447 0.8489018 -0.33719498
0.4722233 0.5864831 -0.21121056 0.4185041 0.41107947 0.4929995 -0.03902534 -0.16136616
0.021728117 0.007890736 -1.6004224 0.054205764 0.8414544 -0.24111198 -1.2523787 -0.9622984
-0.14442222 -0.04975916 0.09799888 -0.09747503 0.275748 0.29894817 0.04074142 -0.35321864
-0.40179092 -0.12459308 0.5800411 -0.7165397 0.30529243 -0.15490124 -0.39428106 -0.3247111
-0.25325525 0.39013118 -0.46155414 -0.19105794 -0.2809497 1.4314165 -0.41324255 -0.21758829
0.3769002 -0.2027569 0.81165856 -0.048893433 -0.031874795 -0.47443718 0.19483405 -0.053842437
0.065381825 -0.20039886 0.31699008 -0.40858322 -0.09523535 -0.23607619 -0.29315546 0.12299903
-0.11315223 -0.05326137 0.24858086 0.12339802 -1.0811763 -0.026065009 -0.018637158 0.18377367
-0.08592982 0.18402748 -0.17569976 -0.012085733 0.026809344 -0.13530268 0.1953221 -0.31754172
0.44574997 0.0729377 0.25568372 -0.079878666 -0.11669454 0.23035099 0.015501007 -0.6402835
0.29933432 0.2575114 -0.14851551 0.18743332 0.30739078 0.3022721 -0.32645473 -1.2634492
-0.16249701 0.38531965 0.5330734 -0.109238386 0.4704529 0.031727925 0.21549799 -0.05078236
0.3900342 -2.0472298 0.1882567 0.16599192 -0.078159675 -0.037907384 -0.27319434 -0.5596659
0.026391437 0.48139083 0.39571977 -0.08824212 -0.38267124 -0.030824516 -0.5509863 -0.1233926
0.14379437 0.14507401 0.25466353 -0.10977064 0.09143003 -0.03188531 -0.004449486 -0.304636
-0.07087779 0.05040901 -0.3704639 0.1253142 -0.29951334 -0.25032142 0.15225601 -0.14869216
-0.4761775 0.34513074 0.102755904 0.019165196 0.7653728 -0.10574539 -0.19414006 -0.4168362
0.17935339 -0.3479294 -0.17422108 -0.029724466 0.44294748 -0.08170826 -0.19461551 0.16723901
0.12915617 -1.4320103 0.19299723 0.63647705 0.6170668 0.93885255 1.0164251 -0.49983338
0.27045283 1.7285025 0.5192218 0.3247462 -0.38415897 -0.10618643 -0.45542762 -0.08972102
0.106826365 0.17882809 0.47525567 -0.010756218 0.24399795 0.0074099903 0.10454335 -0.2996329
-0.11100513 0.6434284 0.052287843 -0.06020819 -0.37049514 0.03634432 -0.025073066 -0.15955064
0.9017406 0.62988544 -0.13620476 0.5426765 -0.09386446 0.43543032 0.5399533 1.8121433
0.45472056 0.15606269 0.2162932 0.78113997 0.24352662 0.53496504 0.031270407 -0.015153581

Func/StatefulPartitionedCall/model_1/gru_1/PartitionedCall/input/_29:0 f4 [16, 48]
00000000: bafa e7bb 40a8 f1bd 69b4 563e 9247 96b9
00000010: 0685 673f 96e2 a43e db03 f4bc 0583 4b3f
00000020: 0ea2 b3be 4f30 b13e 3c20 4ebe b37d f63d
00000030: 6c2d 4d3e 435b cbb9 9f46 ae3e eafd 3a3d
00000040: d6ed 063e 3367 9ebf 1351 64be b4cb 083f
00000050: 4896 983e da11 2ebf f33c 3d3e c681 be3e
00000060: 25b7 8dbf 4096 d53e 1e92 18bf 2f39 1abd
00000070: 7198 80bc 0055 45bc acde e93e df0c e2be
00000080: f19c 5c3d 844a e33e 5800 51be b832 6cbd
00000090: f9e7 0e3e ffad 10be dcb9 aebe 17a5 c23c
000000a0: 5c71 b5be 4baf 76be 3142 22be 1308 323d
000000b0: 6609 67be ea2e 993c 1e0d dbbc 9a86 90be
000000c0: 412c 1e3f 0fb9 a7bd a207 f13e b2c6 ba3e
000000d0: 9ca0 843f 0ab4 aa3e 482a 563f 9340 0a3e
000000e0: 924b 6c3f 4dc0 8f3d 17f5 433f 7e1f 4e3f
000000f0: 1862 a93f 5908 a13f a165 c03f 3683 8d3e
00000100: 9662 adbd e455 1ebe 93b6 dd3d 30db 193f
00000110: 6004 bf3d aed3 e7bc 6c8f 3d3e 8135 3bbe
00000120: d8e5 8e3e e906 8d3f c3b7 833e bde3 68be
00000130: ed1d acbf 9cae 623e 8dea 593d 924f 513e
00000140: 76e5 42be f855 933e 7b11 85be fd57 0abd
00000150: 0ed0 03bd d932 203e 394b 673e 2b7c ac3e
00000160: c45e 8d3d 725d 413d 948e a1bc 6abb 55bd
00000170: bf75 94bc 310a a03e 2f60 593e f36d 2cbd
00000180: 3c43 70be a966 ed3e b69b 7fbe 22f1 b3bd
00000190: 1c01 92be 1550 ea3c f225 033e 6ce7 0dbf
000001a0: 5a0a 81be e68d 48be 81e7 03bf a925 21bf
000001b0: 4fe2 b4be ec67 03bf 8534 3c3b 9e53 d4be
000001c0: 6dcf f8be 23a2 923e a8df bfbd d4ea 9e3e
000001d0: d702 2cbe a07d 22bd 5459 9d3e 95df 943f
000001e0: dd8b 83be 43d5 693f dfa0 38be 4f03 573f
000001f0: 6765 aabe 9fe4 3bbd 557d 2f3e 3019 8d3e
00000200: 8b22 d43d 5e0a f93c a2aa a3be 0247 283e
00000210: 48e3 a8bd d711 503e ea3c 5cbd 4ac2 9d3e
00000220: 2e5f 223e 15f7 6abe bb9e fd3c 8b4a b9be
00000230: e1c0 50bf e2d2 b7be d998 e53d d623 243d
00000240: 5610 6fbe fc30 8ebe aa94 c2be d29d acbe
00000250: fba4 6b3e 3194 323e 7000 d73d 595b 1ebf
00000260: 4f02 a53e 605e 153e 8f13 b53e 3d85 10bf
00000270: 1c88 f3bd a5a9 c2be 01e3 a5be 24da 09bd
00000280: e32b 93be ed4a 043f 73aa ab3e 6317 073f
00000290: b306 843e 64d2 4c3d 6b7b 6dbe 5246 d53d
000002a0: c9d8 af3f 8152 08bf 4a4c 423f 786d 383f
000002b0: 4ee7 d43e f205 063d cdce 883e bb7b ff3e
000002c0: 1389 31be 2871 13be 3bfa 6c3e ba24 96bd
000002d0: 5403 663e bbd6 c1be 3eab 493d a56a 7c3f
000002e0: 9559 61bd f178 893d ab75 333f e830 71be
000002f0: a6d1 873e 58c7 843d d5af f9be 6fdd f13d
00000300: 50a7 353f 1cc4 203d 8f76 ec3e baf3 bdbe
00000310: 0134 c73e 668d f23e 4f0d d23d ca95 753d
00000320: 5111 d13e 7038 9d3e 1e36 ed3e 2991 823e
00000330: afff 17be d18a f8bb b9cd 3ebe 7bbb 653e
00000340: d84d 333e 3b23 683e e478 953e 4be3 f3be
00000350: 52b1 843f 1a4c 273f 3d23 08be 6f6e 033d
00000360: e700 a73f 1706 31bf e72d 67bf f4d5 3a3c
00000370: 8c06 27bf 1f23 863e 7f3e e13e 204f d03e
00000380: 035e 443e 35fa 393f 96bc 023e 5bf6 803d
00000390: ddda debb cf24 7b3e 4916 25bf 77cc f83e
000003a0: 49d1 76be e1a4 74bd 067b e0be 8d26 55be
000003b0: 305b 2e3e 0b8f 8e3e 1023 d3be e61b 543d
000003c0: aee5 f3bc 94a7 f0bd 8ac2 2f3f 20d9 bd3e
000003d0: 3dd4 11be 5405 903e e1ee 9f3e 9296 983e
000003e0: abae 363f 51c3 003f e857 443f 4ae5 a73e
000003f0: f0ed 523f 5501 74bd a496 8f3e b6ea f43e
-0.0070794495 -0.11799669 0.20967259 -0.00028663554 0.9043735 0.3220412 -0.029786995 0.79496795
-0.35084575 0.3460717 -0.20129484 0.12035694 0.20036858 -0.00038787173 0.34038255 0.045652308
0.13176665 -1.2375244 -0.22296552 0.53435826 0.29802155 -0.6799599 0.18480282 0.37208384
-1.1071516 0.41716194 -0.5959796 -0.03765219 -0.01569769 -0.012044191 0.45677698 -0.44150445
0.05386061 0.44392788 -0.20410287 -0.057665557 0.13955678 -0.14128874 -0.34126174 0.023760362
-0.3543805 -0.24090306 -0.15845563 0.04346473 -0.22562179 0.018699128 -0.026739653 -0.28227693
0.61786276 -0.08189594 0.47076136 0.36479717 1.0361514 0.33340484 0.83658266 0.13501196
0.9230281 0.070191 0.7654585 0.80516803 1.3233061 1.2580673 1.5031015 0.27639169
-0.084660694 -0.15462452 0.10825839 0.6010008 0.09327006 -0.028299179 0.18511742 -0.18282129
0.27909732 1.1017734 0.25726137 -0.22743125 -1.3446633 0.2213692 0.0532022 0.2044051
-0.19032845 0.28776526 -0.259899 -0.03377532 -0.03218084 0.15644397 0.22587289 0.33688483
0.06902841 0.047208257 -0.019721307 -0.052180685 -0.018122552 0.31257775 0.21228097 -0.042097043
-0.23463148 0.46367386 -0.24961743 -0.08786227 -0.2851647 0.02860264 0.12807444 -0.55431247
-0.2520321 -0.1958538 -0.5152512 -0.6294809 -0.3532891 -0.5133045 0.0028717828 -0.41470045
-0.48595753 0.28639325 -0.09368831 0.31038535 -0.16797958 -0.039670587 0.30732214 1.1630732
-0.25692645 0.91341037 -0.18030117 0.83989424 -0.3328049 -0.045872327 0.17137654 0.2755828
0.10358151 0.030400451 -0.3196612 0.16433337 -0.082464755 0.20319305 -0.05376903 0.30812293
0.1585662 -0.22945817 0.030959478 -0.36189684 -0.8154431 -0.35903078 0.11210794 0.04007324
-0.23346075 -0.27771747 -0.38004047 -0.33714157 0.23012154 0.17439343 0.1049813 -0.61858135
0.32228324 0.14586782 0.35366485 -0.56453305 -0.11891195 -0.38020054 -0.32399753 -0.0336553
-0.2874442 0.5167683 0.3352848 0.5277006 0.2578636 0.05000533 -0.23191611 0.10413803
1.3738033 -0.5325089 0.7589766 0.72042036 0.4158272 0.032720514 0.26720276 0.49899086
-0.17337446 -0.14398634 0.2314233 -0.07331224 0.22462207 -0.3785914 0.049235575 0.98600227
-0.055017073 0.06712521 0.7010142 -0.23553813 0.26527137 0.06483334 -0.48766962 0.11809813
0.70958424 0.039249524 0.46184203 -0.3710001 0.38906863 0.47373503 0.10256445 0.059957303
0.40833524 0.3070712 0.4633035 0.25501373 -0.1484363 -0.0075849076 -0.18633164 0.224348
0.17510164 0.2266969 0.29193795 -0.47634348 1.0366614 0.65350497 -0.13294692 0.03208774
1.304715 -0.6914992 -0.90304416 0.011403549 -0.65244365 0.2619867 0.43992993 0.40685368
0.19176488 0.7264741 0.12767252 0.062969886 -0.006800993 0.2452576 -0.6448713 0.48593494
-0.24103273 -0.059727553 -0.4384386 -0.20815487 0.17026973 0.27843508 -0.41237688 0.05178442
-0.029772606 -0.11750713 0.6865622 0.37079716 -0.14241119 0.28129065 0.31236938 0.29802376
0.7136027 0.5029803 0.76696634 0.3279212 0.82394314 -0.059571583 0.28044617 0.4783532

Func/StatefulPartitionedCall/model_1/gru_1/PartitionedCall/input/_28:0 f4 [16, 48]
00000000: 8cec 00bf 11a8 babd f447 18bf 1e9a d6be
00000010: a7c1 133d ddd6 b4be f166 51bd f460 aebe
00000020: 68b8 fabe adac 91bf 79f7 32bf 2200 c4be
00000030: 563f ba3d 8b29 d0be 1fa9 abbe 9b59 1ebf
00000040: 4387 123f cacf 92bf a876 933d 7c21 463e
00000050: d64f 8b3d 2636 a1be 8239 f33d f266 97bf
00000060: 550c e2be 31a4 f03d 1aa7 fabe 4eba 07bf
00000070: c008 a1be dabc b3bd 0c5c 9ebe 58af 043f
00000080: 243d bd3e dbb5 34be 0c8b b4be 994d ebbd
00000090: 0e50 bbbe 6176 863e 4268 a5bd 9db4 cc3e
000000a0: 74e3 2cbe 1e1a 4bbe cf46 9f3d 781f f13d
000000b0: 2cd8 5fbe 01d7 75be 5af8 d03c 00c8 723e
000000c0: 5e3f 17be 5bf1 623e 9da7 5cbe 4a69 1abd
000000d0: 6821 0a3d da1f b6be b9e3 b2bd 7cde 90be
000000e0: 9385 a83d 1e5f 003e e474 17bf 7300 65be
000000f0: 5cdc 08be 99ac d2bd 0b2d 99be b845 4e3e
00000100: 5df0 45be cee6 6fbe 190d fcbc 01cd d83f
00000110: 1b8d 8bbf 2331 37bf bec8 143e 92a8 4abd
00000120: 9a26 8fbf 4e5b 8a3f d62d 093f be77 16bf
00000130: 7dbd 83bf 4d37 0a3e e0a5 4abf 71d6 9abf
00000140: 04dc bf3d 3402 7c3f e55d f93d 9d9c 0ebd
00000150: 5ab1 89be bdde ce3d e642 e7be 70a1 1bbe
00000160: 6d5c dabc 04b1 b03e 660d 333f 02cf a1be
00000170: 3313 29bf e816 4ebe 4340 913e 2e1a a03d
00000180: 45d7 183f 4831 cdbd 19e0 c3bd 62f7 423c
00000190: 563e 4c3e 98ae 773e 4da3 583e 1e74 843e
000001a0: 369a 0c3f 98d2 aa3e aba6 223d 8fff 893f
000001b0: 132e a13e fdfb a93e 75c6 adbd 2727 4d3f
000001c0: 8219 903e 2a4d 893e 133b 1a3f 3fca 8abe
000001d0: 2ba8 af3e 1780 f03e b989 57be 8335 8e3c
000001e0: c4eb 0b40 2627 6cbf 4cd6 97be 8e0d 213e
000001f0: 12d1 eebb 43b1 803d 017b e03c 3dbc 1b3f
00000200: b53e e1bd 021a c03e c435 873e b345 b33e
00000210: 7309 983e b20b 6abc 384a 4d3d 4e18 66be
00000220: 5258 253e 784f 5d3e efc0 2ebe 6631 4b3e
00000230: 9e1c 003e 5dcf 003e 3ca6 163e b1b0 253d
00000240: 5730 b43e e740 d4be 7a40 30be de30 783e
00000250: 7201 4fbe fbf3 c93d ef5e ae3d 4e74 833e
00000260: a24c 173f 2052 a7be d15b 853e 7af6 073f
00000270: cdfe 7f3e c596 1fbf fcf3 ef3e 2de8 a8bd
00000280: 8156 18be 84c0 383f f846 adba b077 2f3f
00000290: 3170 b43e f946 80bd d139 9abe 55bc 84bf
000002a0: b455 793f 4353 573f 80c7 1b3f 9a6c 28bf
000002b0: c194 21bf 0fcb c33e 634d c0be d576 0f3f
000002c0: 9695 23bd 9d7d 243f ddbd 1ebd d34a 98bb
000002d0: 9038 92be 5ee1 e6bd 4949 463e c20f 40be
000002e0: a585 6fbe 3d0c 43be 896e c03d 4686 71be
000002f0: 80a2 3dbf 9dae 0a3e a3f1 3f3e c8dc 98bd
00000300: fa3e bb3e 63aa 2bbd 8816 b53e 2f9e 07be
00000310: dc11 cebe ab79 b8be 59ed 7dbc 886c 41be
00000320: 1b5f 2dbf fd07 66be 9765 a43e b6b5 b5be
00000330: 3c12 28bf 8a11 e8be c0de 2b3e d992 b8be
00000340: ccb9 6bbf de01 583f 2415 3f3e 99cc 363f
00000350: c6d4 84be f9b5 9c3d a0be 033f abe7 863e
00000360: ca21 a0bf 319a 7a3f 238a ae3e ebdf 08be
00000370: 62e3 a8bf ecd0 af3f d308 5dbf 13a1 94be
00000380: e86b 973e 3810 353e ad37 cebd 537d 83be
00000390: 3e62 cc3a 7116 1c3e 8090 a3be 429d c03e
000003a0: 70c7 95be e3e3 38bf f090 103e 432e 9f3e
000003b0: 913b cc3d cdb5 453d c17a 663d aa1b 923d
000003c0: fb78 2dbf e03f 2b3f 155c 3d3d 3c20 d7be
000003d0: 67a9 37bd 70bd dcbd d3db 45bf e6dd 4bbf
000003e0: 7017 56bf 2574 93be 03c6 c5bf 4eb7 0c3b
000003f0: 6109 81bf 6628 0a3e 6104 0fbf 0fdb 7e3e
-0.5036094 -0.091140874 -0.5948479 -0.41914457 0.036073353 -0.35320178 -0.051123563 -0.34058344
-0.48968816 -1.1380821 -0.69908863 -0.3828135 0.090941116 -0.40656695 -0.33527467 -0.6185548
0.57237643 -1.1469662 0.07200366 0.19348711 0.06802337 -0.31486624 0.11876203 -1.1828291
-0.44150034 0.11750067 -0.48955613 -0.53018653 -0.31451988 -0.08776255 -0.309296 0.51830053
0.3696071 -0.17647497 -0.35262334 -0.1148941 -0.36584514 0.2626219 -0.08076526 0.39981547
-0.16883641 -0.19834182 0.077771775 0.1177358 -0.21859807 -0.24007799 0.025509048 0.23709106
-0.14770266 0.22162382 -0.21548314 -0.037698068 0.033723265 -0.35571176 -0.08734841 -0.28294742
0.08228602 0.12536284 -0.59162736 -0.22363453 -0.1336531 -0.10286827 -0.29917178 0.20143783
-0.19329973 -0.23427889 -0.030767964 1.6937562 -1.0902437 -0.7155935 0.14529702 -0.049477167
-1.1183655 1.0809114 0.53585565 -0.5877646 -1.0292202 0.13497658 -0.79159355 -1.2096692
0.093681365 0.9844086 0.12176112 -0.034817327 -0.2689312 0.10101078 -0.45168227 -0.15198302
-0.0266554 0.34510052 0.6994232 -0.31603247 -0.6604492 -0.20125926 0.2836934 0.078174934
0.59703475 -0.10019165 -0.095642276 0.011899801 0.19945654 0.24187696 0.21156044 0.2586984
0.5492281 0.33363795 0.03970973 1.0781115 0.31480464 0.33200064 -0.08485118 0.80137867
0.2814446 0.26816684 0.6024639 -0.27107427 0.3430799 0.46972725 -0.21048631 0.0173595
2.186265 -0.92247236 -0.29655683 0.15727827 -0.0072881067 0.0628381 0.027402403 0.60834104
-0.109982885 0.37519842 0.26408207 0.35014114 0.2969471 -0.014285015 0.05011961 -0.22470209
0.16146973 0.21612346 -0.17065786 0.19843063 0.12510917 0.12579103 0.14711851 0.04045171
0.3519313 -0.41455767 -0.17212096 0.24237391 -0.20215395 0.09860989 0.08514201 0.2567467
0.5910131 -0.32679844 0.26046613 0.5311047 0.24999543 -0.6233943 0.46865833 -0.08247409
-0.14876749 0.72168756 -0.0013220003 0.68542004 0.35241845 -0.06263537 -0.30122235 -1.0369974
0.973964 0.8411142 0.6085129 -0.6579071 -0.63117605 0.3824086 -0.3755904 0.560407
-0.03993758 0.6425417 -0.038755286 -0.0046475916 -0.2855878 -0.11273454 0.19363894 -0.18756011
-0.23390825 -0.19047637 0.09396083 -0.23586378 -0.7407608 0.13543172 0.18744521 -0.07463986
0.36571485 -0.04191054 0.35368752 -0.13243936 -0.40248 -0.36030325 -0.015498483 -0.18889058
-0.67723244 -0.22463985 0.32108757 -0.35490197 -0.65652823 -0.4532588 0.16784191 -0.36049536
-0.9208038 0.8437785 0.18660408 0.7140594 -0.25943583 0.07651896 0.51462746 0.26348624
-1.2510312 0.9789153 0.34089765 -0.13366668 -1.3194392 1.3735633 -0.8634159 -0.2902914
0.29574513 0.17681968 -0.10069213 -0.25681552 0.0015593243 0.15242936 -0.31946182 0.37619978
-0.2925372 -0.7222273 0.1411779 0.31089982 0.09972299 0.04826908 0.05626941 0.07134183
-0.67762727 0.6689434 0.046230394 -0.4201678 -0.04483929 -0.1077832 -0.7728855 -0.79635465
-0.8362951 -0.2879955 -1.5451053 0.0021471563 -1.0080987 0.13491973 -0.55866057 0.24888252

Func/StatefulPartitionedCall/model_1/gru/PartitionedCall/input/_20:0 f4 [16, 48]
00000000: 02f8 9cbf 0bc4 00bf e0e1 7b3f e0f0 9c3f
00000010: 2d1b 6a3f 74dc 473e 5da3 2cbe 35a4 53bf
00000020: 19c7 133e 4656 4e3f c59e 91bf 94a3 a4be
00000030: 1341 78bf 6a18 11bd 2e52 41bf d5db 723e
00000040: ecc8 ad3e d4ac dc3d e484 acbd 1918 1a3e
00000050: c1d3 703f 1235 a13e 4c92 fe3f 31c5 763f
00000060: 1d2c 513f b431 32bf 1b71 66bf f706 af3f
00000070: e4ad 75be 10c9 8f3f 2e1d 2d3e 768e 8f3f
00000080: e326 2d3f c8a8 c0bd 26e1 f8bd b3c1 cdbe
00000090: 5ee8 f2be faa1 9fbe 4bcf e53d af30 eabe
000000a0: e461 1a3f 6528 d43e 4d6e 11bf 1523 d3be
000000b0: 0a5e 23be 42da bd3e 7c4a 85be 5bf2 2d3e
000000c0: 07cf 843f a719 973e 2c36 99bf 5839 9b3e
000000d0: 55ee f73e 821d 8e3f d13e c23f 19e0 a83f
000000e0: ce71 013f 4651 013f 57f3 5c40 3c54 143f
000000f0: 13fd 303f 8d66 0e3f f371 3bbf 7aa8 4b3f
00000100: 2675 68bf 4d6e 0bbe e022 c33e 5211 60be
00000110: bc65 c8be e100 26bf 40f2 04be 162f 1ebf
00000120: 38b2 1cbf 2ee1 69bd 862f 17bf daa3 40be
00000130: f629 a5be 818a 363f e622 a03e 8454 47be
00000140: aa33 123d d234 c93e 7e84 af3e f5de 133f
00000150: cb4c 843e 1748 b93e d44f b4be 77ac dbbb
00000160: c6eb 23be baac 3b3e b4d4 973e 6915 15bf
00000170: 3fc2 103e f733 55be ef26 b93e 4403 3abe
00000180: f1c9 b6bd db4f 54be 83ae 46bf 9f14 8b3e
00000190: 3d09 a8bf add9 f4bf 1d96 c13d 4a82 fd3e
000001a0: 31b6 d13e a68b 6b3f bbe6 d23e 9c10 a0bd
000001b0: 5d5f 373e b40b 3cbc 614a 1d40 0d12 debe
000001c0: 6972 de3e f4cb 2a3e b21f 0a3e a980 97be
000001d0: 6de1 19be bc4a a7bd 8248 30bc db83 fa3d
000001e0: cd43 ab3e 85ba 66be b947 803e 279a 0bbe
000001f0: 4a17 9fbe 76d1 143f 82e8 5d3c d2df f4bd
00000200: 41a4 bbbd b71a 97bd 170c 053c 66e2 05bd
00000210: 5ae4 24bc 223c ab3d 3025 e9bc 6ce6 8c3e
00000220: ed3a 65be 5cae debd 987e 33bc eb39 46bd
00000230: f732 e33d e70e 133e 157f e53b 9772 a4bd
00000240: 9f34 2e3f d3d5 1abe 737b 223f 87ce 2ebe
00000250: b099 74bf e4f1 e83e ee95 80bd 9cda d73e
00000260: f4da f43e 509d f03e acb8 843e c98b 553f
00000270: 3dde bd3e 81e7 d43d 2792 91bf 4f8e bf3e
00000280: 7a57 c4be 8e15 89be 737f f1be 7315 12be
00000290: 5012 26be 1772 febe e368 343e 6f2f 3e3e
000002a0: 98cf 25be 36f9 a7be 0efa 3e3d ba90 103f
000002b0: 3e4b 00be c8f0 d13e 9fb2 69bf 9830 2ebf
000002c0: b441 913d 6a5b 533e 1f7c bb3e d80e 463e
000002d0: 7ce9 d1bc 620e d53e f941 a63e f27b 253e
000002e0: 1275 b43c 4179 983f 3e31 303e 7041 ef3d
000002f0: 777f 7fbd ffd3 dd3e 65f1 003e df64 bbbe
00000300: f71d 053e 31d1 6a3e 1002 f33f ccae f1bd
00000310: 0b1b c8be d71d fabe 3d8b acbe a632 f2be
00000320: 9d07 db3d 320b d53e 4c12 b4be 56a1 91bd
00000330: 8ac0 34bf cdca 31be dc11 f5be 61b2 82bf
00000340: b4f0 013f b70e 173f fa60 e2bc 8e91 65be
00000350: 7116 e9be 8827 babe 63e3 793f 756c 0dbe
00000360: d9ed abbe cba1 e03e fdf8 0dbe a025 283f
00000370: 5b5c ea3d aaf5 cb3d 78d7 703e d38d 81bf
00000380: 2da3 793e 2ba2 cfbc 6e38 cf3e b91c 743e
00000390: 486b 47bc 7142 523e 6171 5e3e f2a3 9f3e
000003a0: 2a74 363e ebab 7e3e 4dff b6be e0dc f7bd
000003b0: 2d05 163e f27c 283d 6a31 123f d253 be3e
000003c0: 43c1 143f f7ec df3d 83a8 da3f c209 c23e
000003d0: 1b50 febe 63bd bdbe 29a2 0e3f df61 f63b
000003e0: 5202 853e 5c63 0cbf 5ad2 f53e 2b63 7e3f
000003f0: d814 1fbf 2578 07be 7699 1f3f 11c5 a23f
-1.2263186 -0.5029914 0.9839153 1.2261009 0.91447717 0.1951769 -0.16859193 -0.82672435
0.14431418 0.8060039 -1.1376578 -0.3215605 -0.96974295 -0.035423674 -0.7551602 0.23716672
0.33942354 0.10775152 -0.084237844 0.15048255 0.9407311 0.31485802 1.9888396 0.9639464
0.81707937 -0.6960709 -0.90016335 1.3674 -0.23992115 1.1233234 0.16905662 1.1215351
0.6763746 -0.094071925 -0.12152319 -0.40186843 -0.47442907 -0.31178266 0.112211786 -0.45740268
0.6030562 0.4143707 -0.5680893 -0.41237703 -0.15953842 0.3708058 -0.2603339 0.16986983
1.037568 0.2951176 -1.1969657 0.30317187 0.4842402 1.1102755 1.517542 1.3193389
0.5056428 0.5051464 3.4523523 0.5794103 0.6913616 0.5562523 -0.7322075 0.7955395
-0.90803754 -0.13616295 0.38112545 -0.21881607 -0.39140117 -0.6484509 -0.12983036 -0.617906
-0.6120944 -0.057099514 -0.5905689 -0.18812504 -0.32258576 0.7130509 0.31276625 -0.19465834
0.035693802 0.3929811 0.3428077 0.5776208 0.25839838 0.36187813 -0.35217154 -0.006703909
-0.16007909 0.18327609 0.29654467 -0.58235794 0.14136599 -0.20820604 0.36162516 -0.18165308
-0.08925236 -0.20733587 -0.77610034 0.2716417 -1.3127819 -1.9128929 0.0945246 0.49513465
0.40959314 0.9200996 0.41191658 -0.07815668 0.17907472 -0.0114774 2.4576647 -0.43373147
0.43446663 0.16679364 0.13488653 -0.29590347 -0.150274 -0.08168551 -0.010759475 0.12232181
0.33450165 -0.22532089 0.2505472 -0.13633023 -0.31072456 0.5813211 0.013544204 -0.11956753
-0.09162188 -0.07378142 0.008120558 -0.032686614 -0.010064209 0.08361079 -0.028460115 0.27519548
-0.2238576 -0.108731 -0.010955475 -0.04839508 0.11093705 0.14361154 0.0070036747 -0.08029669
0.68049043 -0.1512063 0.6346962 -0.17070971 -0.9554701 0.45497048 -0.06278597 0.42158973
0.47823298 0.4699502 0.25922143 0.8341642 0.37083617 0.10395718 -1.1372727 0.3741326
-0.3834799 -0.26774257 -0.4716755 -0.14265995 -0.16217923 -0.4969642 0.17618136 0.18572782
-0.16192472 -0.3280732 0.04662519 0.56470835 -0.12528703 0.41004014 -0.9128818 -0.680429
0.0709261 0.2064034 0.36618134 0.193416 -0.02562403 0.41612536 0.32472208 0.16160563
0.02202848 1.1912004 0.17206284 0.11682403 -0.06237742 0.43325803 0.12592085 -0.36600396
0.12999712 0.22931363 1.8985004 -0.11800918 -0.39083132 -0.4885089 -0.3369998 -0.47304267
0.106948115 0.41610104 -0.3517021 -0.071108505 -0.7060629 -0.17362519 -0.47865188 -1.0210687
0.5075791 0.5900683 -0.027634133 -0.22418806 -0.45524934 -0.36358285 0.9761259 -0.13810904
-0.335799 0.43873438 -0.13864513 0.6568241 0.11443397 0.09958966 0.23519695 -1.0121406
0.24378653 -0.025345882 0.4047274 0.23839082 -0.012171574 0.20533158 0.21722938 0.31179768
0.1781775 0.24870269 -0.35741654 -0.121026754 0.14650412 0.041134782 0.5710665 0.37173325
0.58107394 0.10933869 1.7082676 0.3789807 -0.4967049 -0.37058553 0.55716187 0.0075189914
0.25978333 -0.5483911 0.48012048 0.9937007 -0.6214118 -0.13229425 0.6234354 1.271639

Func/StatefulPartitionedCall/model_1/gru/PartitionedCall/input/_19:0 f4 [11, 48]
00000000: d38f 83be 21d9 a33e d59a 493f 0079 8ebe
00000010: 3bf4 a8be c99c 183c 046b 8fbe 5011 22bd
00000020: 7c8b 733e 035d 1f3e b950 8fbe 02e3 ac3d
00000030: 0009 bb3e f196 963d 0890 8bbe ec93 4d3c
00000040: db65 3f3f 8fad b03e 6dec f43e 8020 02be
00000050: 0974 b239 b0b8 fd3d 4968 113e 9218 9c3d
00000060: e28d b1be b4d5 09bc ba91 b73e 4d94 cabd
00000070: d13f a7be fae1 afbe cdfa b93b c722 993e
00000080: 8a01 0cbe a1a4 553e 3023 afbc 1d37 c9be
00000090: 024a 573e f0ea 7bbe 530c 4b3e 73b0 91be
000000a0: a265 223e a094 3b3e aa59 58bd 74f4 253e
000000b0: 8c24 0d3e 6806 f83d 6bd5 17bd 2b01 87be
000000c0: 007b 1abd d7a1 0dbe 0b75 023d 3f61 8b3e
000000d0: b6c8 1bbf 2878 a3be a179 b9bc c9fc df3e
000000e0: 41e1 81be 23df 0b3f bb96 5ebf bbaa 553e
000000f0: 9a96 12bf cb6d 1e3f 3521 05bf bed1 3ab9
00000100: 2339 813f 0135 bc3e dcbe 163f e987 22bd
00000110: f9b9 10be 2e02 af3e 759b 893e 37b6 f03d
00000120: 238e f23e 0985 13bc dc13 593e 3e3f 803d
00000130: cffd 12be 6aa7 14be 7e8f 4c3e 2d11 983d
00000140: c044 aebd d11a 71be 0470 833e 1509 943c
00000150: 7a29 ce3d 64c0 49be c649 83bc ff52 5fbe
00000160: 4970 78bc 78df 063e 16e0 243e daf6 84be
00000170: 5674 7cbe 5562 5abc 4706 bebe afa3 73bc
00000180: 15d1 683d 8c2f f03d f8e3 07be 6b63 0f3f
00000190: 4958 07bf 7dc2 d4be 2502 99be 8fa2 b3be
000001a0: 6192 f4be 6026 62bf 51aa acbe 2af5 3f3e
000001b0: 98a9 acbe 812b 5c3e 4fe0 31bf 4110 413e
000001c0: 1d89 723f 3305 173f 167a 043e 703d ed3c
000001d0: 5adb cbbe 4462 ab3e f658 6e3e d710 033f
000001e0: 7c19 8bbe e772 9bbd 12cb 153e f99d e9be
000001f0: 8b62 9a3e d664 9d3e 28ba efbd e2a6 2fbf
00000200: 79a4 d33d 4765 3d3e 4acb 97be c936 c2bc
00000210: 725d 233d 6870 693e a9a4 7dbd 6999 99be
00000220: 437a 19be 590d b3bd 5fd6 f73d fa4b 053d
00000230: 7ae8 8abd c550 0f3e 56ab 33be bae4 103e
00000240: 94da e2bc 395a 903f ee9a bf3e 6a57 1abe
00000250: cc43 c63e 2dff 12be ee22 b2bd a4d9 de3e
00000260: e112 c63e b94f 8f3e 3424 5fbf 3cba ffbe
00000270: d7b4 c5bd 0586 b8bd 02cd 48be 3bd8 56bf
00000280: 4f94 833f ddbf 82bd 7ad4 afbe cc0d ef3e
00000290: b4f8 84bd efd9 fb3d 3b36 ac3e f7e5 903e
000002a0: 1d49 0c3e c88e 543f 50dc d0bc 3bd0 f7be
000002b0: 64fd 2fbe c1e7 a03e db39 49be 90d1 e7be
000002c0: f44e ae3d 666e 3abe d4ab b0be f150 66bd
000002d0: 007a e6bc cffa 4e3d ea2c ef3c 5cf0 5d3e
000002e0: 9af0 90be 94d5 4d3d 43e2 ccbd 96e7 1abe
000002f0: 0a60 6bbe cad9 6cbd 8380 28bd 3e36 d53e
00000300: f490 b33e 0139 623e ccf9 16bd b16d 08bd
00000310: e3b2 c3be e692 24be 764a d3bd 2c9b 5d3c
00000320: cad3 213e 9d11 743d 2bab 10be b002 86be
00000330: 508e 1a3e f289 803e 5039 8fbe 1d76 97be
00000340: bdc6 7e3f e7f3 8f3e 181a fdbd 3b79 073f
00000350: 3bf3 b53e 3efd a9bd 4951 273f 09be 833e
00000360: ddc6 b23e 165b b33e 7ab0 33be 2cd0 a0bd
00000370: 71e0 96bd b31a 083f 6845 5f3e 3215 23be
00000380: bfea 06bd e1d6 ddbd 0d57 843e 54f3 ea3d
00000390: e858 52bd 8608 743e f411 4dbe 623c 033e
000003a0: 77c2 3cbd 7f35 0a3d b24d 13be 8662 4dbe
000003b0: 11d4 cd3c 26bb c53d c72c 463d c6a1 993d
000003c0: 50ba df3d 28b6 46bf 87cb e4be 29cd 303f
000003d0: 83eb f9bf 3376 00c0 bf1c d33e 7e6b 2e3f
000003e0: e6ea 733e 31d0 83be 8f4b 29c0 4b15 433d
000003f0: c86d 1cbf c358 b63e 96f7 eb3f 11a6 fabe
-0.25695667 0.32001594 0.7875188 -0.2782669 -0.32998833 0.009314724 -0.28011334 -0.03956729
0.23783678 0.15562825 -0.27991274 0.08441736 0.36530304 0.073530085 -0.27258325 0.012547474
0.74764794 0.34507415 0.4783663 -0.1270771 0.0003403726 0.12388742 0.14199938 0.07621874
-0.3467856 -0.008412767 0.35853368 -0.098915674 -0.32665876 -0.34352094 0.0056756497 0.29909346
-0.13672462 0.20863582 -0.021379083 -0.3929986 0.21024325 -0.2460134 0.1982892 -0.28454933
0.15859082 0.18318415 -0.052819885 0.16206533 0.13783473 0.12110597 -0.037068766 -0.2636808
-0.03771496 -0.13831268 0.031849902 0.2722263 -0.60853136 -0.3192761 -0.022641005 0.43747547
-0.25367168 0.54637355 -0.86948746 0.2086591 -0.5726105 0.6188628 -0.52003795 -0.00017816477
1.0095562 0.3675919 0.5888498 -0.039680395 -0.14133443 0.3418135 0.26876417 0.11753505
0.47374067 -0.009003886 0.21198982 0.062620625 -0.14354633 -0.14516988 0.19976613 0.07425151
-0.08509207 -0.23545386 0.256714 0.018070737 0.10066505 -0.19702297 -0.016026389 -0.21809004
-0.01516349 0.13171184 0.16101107 -0.25969583 -0.24653754 -0.013329108 -0.37114164 -0.014870568
0.05684002 0.11727819 -0.13270557 0.56011075 -0.5286909 -0.41554633 -0.2988445 -0.3508496
-0.47767928 -0.88339806 -0.3372369 0.18745866 -0.3372314 0.2150097 -0.6948289 0.18853857
0.9474047 0.5899231 0.12937197 0.02895996 -0.3981579 0.33473408 0.23276123 0.5119757
-0.2716788 -0.07590275 0.14628246 -0.45628336 0.30153307 0.30740994 -0.11705428 -0.6861402
0.10334105 0.18495665 -0.29647285 -0.023707764 0.03988404 0.22796786 -0.06192461 -0.29999855
-0.14988045 -0.0874278 0.12101435 0.03254316 -0.06782623 0.13995655 -0.17545828 0.14149752
-0.027692117 1.1277534 0.3742289 -0.15072408 0.387236 -0.14355154 -0.086980686 0.43525422
0.38686278 0.2799051 -0.87164617 -0.49946773 -0.09653633 -0.09009937 -0.19609454 -0.8392369
1.0279635 -0.06384251 -0.34341794 0.46690214 -0.06492749 0.12297427 0.33635125 0.2830045
0.13699766 0.83030367 -0.025495678 -0.48401055 -0.17186505 0.31426814 -0.19650976 -0.4527707
0.08511153 -0.18206176 -0.34506094 -0.056229535 -0.028134346 0.05053216 0.029196221 0.21673721
-0.28308564 0.050252512 -0.100040935 -0.15127406 -0.22985855 -0.057824887 -0.041138183 0.41642946
0.35071528 0.22092058 -0.03685932 -0.033307735 -0.38222417 -0.16071662 -0.10316937 0.013525765
0.15803447 0.05958711 -0.14127795 -0.26173925 0.1509335 0.25105244 -0.27973413 -0.295823
0.99522 0.2811577 -0.123584926 0.5291936 0.35537133 -0.08300255 0.65358406 0.25730923
0.34917346 0.3503043 -0.17547789 -0.07852206 -0.073670276 0.5316574 0.2180382 -0.15926054
-0.032938715 -0.108320005 0.25847664 0.114721924 -0.05135432 0.23831376 -0.2002638 0.12816003
-0.046083894 0.033742424 -0.14385107 -0.20057115 0.025125535 0.09654836 0.048382547 0.07501559
0.10924208 -0.776217 -0.4468653 0.6906305 -1.9524997 -2.0072143 0.4123287 0.6813277
0.23820075 -0.25744775 -2.6452367 0.04762773 -0.6110501 0.35614595 1.8434932 -0.48954824

ConstantFolding/StatefulPartitionedCall/model_1/gru_2/PartitionedCall/unstack-folded-1:0 f4 [48]
00000000: 18ec 57bd aeb6 b63d c039 16bc 247d 72be
00000010: 44cf a53d dedb 7cbe 482e 40be 564f ecbe
00000020: ccc6 0cbe 77b4 d9bd 759e acbe 8a7c 02bd
00000030: 6391 26be 4a18 41be a693 c4bd 217b 57be
00000040: 25b2 e4bd 3c9d 33bc 858c 733d 3c07 bfbd
00000050: 8f5c de3d 0953 b6bd 5106 11be 27ab 653d
00000060: a9a7 d4bc 5892 2e3e 3cfc d2bc 91f1 383b
00000070: eaa3 bb3c a3eb 2bbd 268d b43d 98a7 7ebd
00000080: a990 d8bb e90d 40be 6726 0d3e 0f95 813d
00000090: 74fc 06be 48f3 6bbf e9d4 bf3c 8b0d ca3d
000000a0: 23b7 31bd 72a4 213e c97b 86bd a6a1 293f
000000b0: b70a cc3d 4abe d7bc 6cf9 c53c f786 18be
-0.05271539 0.08921562 -0.009169042 -0.2368055 0.080961734 -0.24693248 -0.18767655 -0.4615428
-0.1374771 -0.10630124 -0.33714643 -0.03185705 -0.16266398 -0.18856922 -0.09598474 -0.21043064
-0.11166791 -0.010962781 0.05946018 -0.09327552 0.10857498 -0.089025564 -0.14162566 0.056071427
-0.025958853 0.17048013 -0.02575504 0.0028220157 0.022905309 -0.041972768 0.088159844 -0.06217155
-0.0066090417 -0.18755306 0.1378418 0.06327259 -0.1318224 -0.9216809 0.023416953 0.09865864
-0.043387543 0.15785387 -0.06566579 0.6626228 0.09962981 -0.026335854 0.024166785 -0.14895235

ConstantFolding/StatefulPartitionedCall/model_1/gru_2/PartitionedCall/unstack-folded-0:0 f4 [48]
00000000: 18ec 57bd aeb6 b63d c039 16bc 247d 72be
00000010: 44cf a53d dedb 7cbe 482e 40be 564f ecbe
00000020: ccc6 0cbe 77b4 d9bd 759e acbe 8a7c 02bd
00000030: 6391 26be 4a18 41be a693 c4bd 217b 57be
00000040: 25b2 e4bd 3c9d 33bc 858c 733d 3c07 bfbd
00000050: 8f5c de3d 0953 b6bd 5106 11be 27ab 653d
00000060: a9a7 d4bc 5892 2e3e 3cfc d2bc 91f1 383b
00000070: eaa3 bb3c a3eb 2bbd 268d b43d 98a7 7ebd
00000080: 30e8 febc 27c6 953c 0f76 1e3e 071e ad3d
00000090: 3f97 dfbd 848a 2abd d200 593d ac1e 6c3e
000000a0: 872d 44bd 301e fd3d 45c9 5a3d 966b b13e
000000b0: a2f5 983c ba37 2abc ea08 6c3c dbb6 23be
-0.05271539 0.08921562 -0.009169042 -0.2368055 0.080961734 -0.24693248 -0.18767655 -0.4615428
-0.1374771 -0.10630124 -0.33714643 -0.03185705 -0.16266398 -0.18856922 -0.09598474 -0.21043064
-0.11166791 -0.010962781 0.05946018 -0.09327552 0.10857498 -0.089025564 -0.14162566 0.056071427
-0.025958853 0.17048013 -0.02575504 0.0028220157 0.022905309 -0.041972768 0.088159844 -0.06217155
-0.031116575 0.018282963 0.15474723 0.08452993 -0.1091752 -0.041636005 0.052979298 0.23058575
-0.04789498 0.123592734 0.0534146 0.34652394 0.018671814 -0.010389263 0.014406422 -0.15987723

ConstantFolding/StatefulPartitionedCall/model_1/gru_1/PartitionedCall/unstack-folded-1:0 f4 [48]
00000000: a16a 583e 72ae aebd 5417 d43e 8780 4c3e
00000010: 53ba 61be 9684 9abe 5999 7cbd 2a6c 713e
00000020: f6e8 2a3f 9ebb 093e c81d a73e 6e77 943e
00000030: f73b 39bd ec7e 5e3e 619a 113b 899f 2f3e
00000040: 0ee1 d83c 97af dc3d 1246 633e 6a21 0cbe
00000050: e981 8a3d 1bc6 df3d 3988 533e 41a9 6e3e
00000060: 1447 243e ca20 7b3d 1f90 bc3b 8c27 013e
00000070: afaf 80be 4b6f 803e de6d a43e 7305 453e
00000080: 8263 593d 790f 693d 89b9 e4bd 878c 12bd
00000090: 5fd2 143e a3aa 5f3e c91d 10be f03b b33e
000000a0: ef30 d33a 9cab 39be d7f6 0f3e c152 cc3c
000000b0: 42a3 573e 69d1 133d ab3b e9bd d8f3 32bd
0.21134426 -0.085293666 0.41424048 0.19970904 -0.22043733 -0.3017928 -0.06166968 0.23576418
0.6676172 0.13450477 0.3263991 0.28997368 -0.045223203 0.21728104 0.002221726 0.17150702
0.026474502 0.107756786 0.22194698 -0.13684621 0.0676306 0.109264575 0.20657434 0.23306753
0.16042739 0.061310567 0.0057544853 0.12612742 -0.25134036 0.2508491 0.32115072 0.1924036
0.053073414 0.05689952 -0.111682005 -0.03577855 0.14533375 0.21842436 -0.14073862 0.35006666
0.0016112606 -0.1813187 0.14059006 0.024941804 0.21058372 0.03608838 -0.11388334 -0.04368958

ConstantFolding/StatefulPartitionedCall/model_1/gru_1/PartitionedCall/unstack-folded-0:0 f4 [48]
00000000: a16a 583e 72ae aebd 5417 d43e 8780 4c3e
00000010: 53ba 61be 9684 9abe 5999 7cbd 2a6c 713e
00000020: f6e8 2a3f 9ebb 093e c81d a73e 6e77 943e
00000030: f73b 39bd ec7e 5e3e 619a 113b 899f 2f3e
00000040: 0ee1 d83c 97af dc3d 1246 633e 6a21 0cbe
00000050: e981 8a3d 1bc6 df3d 3988 533e 41a9 6e3e
00000060: 1447 243e ca20 7b3d 1f90 bc3b 8c27 013e
00000070: afaf 80be 4b6f 803e de6d a43e 7305 453e
00000080: 0539 873d ea72 85bc fe12 c4bd 1be3 403c
00000090: 6181 1d3e 4b77 c63c 6acb e2bd 3a15 4ebe
000000a0: 0840 243d 3fa5 febd f0aa 2a3e 9d65 323d
000000b0: 25e0 4bbe dee7 053d 7c9f 86bd 432a 8fbc
0.21134426 -0.085293666 0.41424048 0.19970904 -0.22043733 -0.3017928 -0.06166968 0.23576418
0.6676172 0.13450477 0.3263991 0.28997368 -0.045223203 0.21728104 0.002221726 0.17150702
0.026474502 0.107756786 0.22194698 -0.13684621 0.0676306 0.109264575 0.20657434 0.23306753
0.16042739 0.061310567 0.0057544853 0.12612742 -0.25134036 0.2508491 0.32115072 0.1924036
0.066026725 -0.016290147 -0.09573935 0.011772896 0.15381385 0.024226805 -0.110739544 -0.20125285
0.040100127 -0.12433862 0.1666677 0.043553937 -0.19909723 0.03269183 -0.06573388 -0.017476207

ConstantFolding/StatefulPartitionedCall/model_1/gru/PartitionedCall/unstack-folded-1:0 f4 [48]
00000000: db15 5bbd b33e 6c3e 2de8 5e3c 9021 a5be
00000010: f9d9 70be 2eec 4e3c 1a2b e3be 8c4a 153e
00000020: bffb 42bd 2e99 353e 69b9 e1bd 2bee 85be
00000030: d92b 4dbd 4414 803e 6ca5 abbe a90a 99be
00000040: 9b6f 803f 71af e83c 3708 8c3e 40d3 d73d
00000050: 9986 803c ae66 90bb c7b1 a63e 333a 933e
00000060: 057a 5b3e 237d 643e 7507 c33d fa09 a3bb
00000070: 073c cbbd bf7e 003e 0002 8f3e d261 69bd
00000080: 9039 84bd eaa2 c8bd 8f18 493d c991 9ebc
00000090: 8512 6bbc 0dad 85bc caa1 fa3d 3a5e 7c3d
000000a0: 2273 483c 81b4 81bc d0d3 983c 80a8 fb3c
000000b0: 0b11 4abd b5a1 d03d b23c 0ebd 7c28 c9bc
-0.05348764 0.23070793 0.01360516 -0.3225217 -0.2352065 0.012629552 -0.4436882 0.14579219
-0.047603365 0.17734215 -0.11021692 -0.2615827 -0.050090645 0.2501546 -0.33524644 -0.29890946
1.0034059 0.02840397 0.27350017 0.105383396 0.015689181 -0.0044067716 0.32557508 0.2875534
0.21433266 0.22313361 0.09522907 -0.0049755545 -0.09923559 0.1254835 0.27931213 -0.056978054
-0.06456292 -0.097966984 0.049095687 -0.019356625 -0.014347677 -0.016317869 0.1223789 0.0616133
0.012234481 -0.015833141 0.018655688 0.030719995 -0.04933266 0.10187093 -0.034725852 -0.024555437
